{
  "transform_params" : {
    "image" : {
      "bias_a" : 0,
      "bias_g" : -0.46854531764984131,
      "bias_r" : -0.49035519361495972,
      "bias_b" : -0.42806327342987061,
      "center_mean" : 0,
      "is_network_bgr" : 0,
      "scale" : 0.0039215688593685627
    }
  },
  "properties" : {

  },
  "storage" : "model.espresso.weights",
  "format_version" : 200,
  "layers" : [
    {
      "pad_r" : 1,
      "fused_relu" : 0,
      "fused_tanh" : 0,
      "pad_fill_mode" : 0,
      "pad_b" : 1,
      "pad_l" : 1,
      "top" : "330",
      "blob_weights" : 3,
      "K" : 3,
      "blob_biases" : 1,
      "stride_x" : 2,
      "name" : "329",
      "has_batch_norm" : 0,
      "type" : "convolution",
      "n_groups" : 1,
      "pad_t" : 1,
      "stride_y" : 2,
      "has_biases" : 1,
      "C" : 32,
      "bottom" : "image",
      "weights" : {

      },
      "Nx" : 3,
      "pad_mode" : 0,
      "pad_value" : 0,
      "Ny" : 3,
      "n_parallel" : 1
    },
    {
      "alpha" : 0.1666666716337204,
      "bottom" : "330",
      "weights" : {

      },
      "mode" : 6,
      "top" : "330_scale_0_1",
      "type" : "activation",
      "name" : "331_scale_0_1",
      "beta" : 0
    },
    {
      "bottom" : "330_scale_0_1",
      "weights" : {

      },
      "mode" : 7,
      "top" : "330_clip_0_1",
      "type" : "activation",
      "name" : "331_clip_0_1",
      "beta" : 0
    },
    {
      "alpha" : 6,
      "bottom" : "330_clip_0_1",
      "weights" : {

      },
      "mode" : 6,
      "top" : "331",
      "type" : "activation",
      "name" : "331",
      "beta" : 0
    },
    {
      "pad_r" : 1,
      "fused_relu" : 0,
      "fused_tanh" : 0,
      "pad_fill_mode" : 0,
      "pad_b" : 1,
      "pad_l" : 1,
      "top" : "333",
      "blob_weights" : 7,
      "K" : 32,
      "blob_biases" : 5,
      "name" : "332",
      "has_batch_norm" : 0,
      "type" : "convolution",
      "n_groups" : 32,
      "pad_t" : 1,
      "has_biases" : 1,
      "C" : 32,
      "bottom" : "331",
      "weights" : {

      },
      "pad_mode" : 0,
      "Nx" : 3,
      "pad_value" : 0,
      "Ny" : 3,
      "n_parallel" : 1
    },
    {
      "alpha" : 0.1666666716337204,
      "bottom" : "333",
      "weights" : {

      },
      "mode" : 6,
      "top" : "333_scale_0_1",
      "type" : "activation",
      "name" : "334_scale_0_1",
      "beta" : 0
    },
    {
      "bottom" : "333_scale_0_1",
      "weights" : {

      },
      "mode" : 7,
      "top" : "333_clip_0_1",
      "type" : "activation",
      "name" : "334_clip_0_1",
      "beta" : 0
    },
    {
      "alpha" : 6,
      "bottom" : "333_clip_0_1",
      "weights" : {

      },
      "mode" : 6,
      "top" : "334",
      "type" : "activation",
      "name" : "334",
      "beta" : 0
    },
    {
      "pad_r" : 0,
      "fused_relu" : 0,
      "fused_tanh" : 0,
      "pad_fill_mode" : 0,
      "pad_b" : 0,
      "pad_l" : 0,
      "top" : "336",
      "blob_weights" : 11,
      "K" : 32,
      "blob_biases" : 9,
      "name" : "335",
      "has_batch_norm" : 0,
      "type" : "convolution",
      "n_groups" : 1,
      "pad_t" : 0,
      "has_biases" : 1,
      "C" : 16,
      "bottom" : "334",
      "weights" : {

      },
      "pad_mode" : 0,
      "Nx" : 1,
      "pad_value" : 0,
      "Ny" : 1,
      "n_parallel" : 1
    },
    {
      "pad_r" : 0,
      "fused_relu" : 0,
      "fused_tanh" : 0,
      "pad_fill_mode" : 0,
      "pad_b" : 0,
      "pad_l" : 0,
      "top" : "338",
      "blob_weights" : 15,
      "K" : 16,
      "blob_biases" : 13,
      "name" : "337",
      "has_batch_norm" : 0,
      "type" : "convolution",
      "n_groups" : 1,
      "pad_t" : 0,
      "has_biases" : 1,
      "C" : 96,
      "bottom" : "336",
      "weights" : {

      },
      "pad_mode" : 0,
      "Nx" : 1,
      "pad_value" : 0,
      "Ny" : 1,
      "n_parallel" : 1
    },
    {
      "alpha" : 0.1666666716337204,
      "bottom" : "338",
      "weights" : {

      },
      "mode" : 6,
      "top" : "338_scale_0_1",
      "type" : "activation",
      "name" : "339_scale_0_1",
      "beta" : 0
    },
    {
      "bottom" : "338_scale_0_1",
      "weights" : {

      },
      "mode" : 7,
      "top" : "338_clip_0_1",
      "type" : "activation",
      "name" : "339_clip_0_1",
      "beta" : 0
    },
    {
      "alpha" : 6,
      "bottom" : "338_clip_0_1",
      "weights" : {

      },
      "mode" : 6,
      "top" : "339",
      "type" : "activation",
      "name" : "339",
      "beta" : 0
    },
    {
      "pad_r" : 1,
      "fused_relu" : 0,
      "fused_tanh" : 0,
      "pad_fill_mode" : 0,
      "pad_b" : 1,
      "pad_l" : 1,
      "top" : "341",
      "blob_weights" : 19,
      "K" : 96,
      "blob_biases" : 17,
      "stride_x" : 2,
      "name" : "340",
      "has_batch_norm" : 0,
      "type" : "convolution",
      "n_groups" : 96,
      "pad_t" : 1,
      "stride_y" : 2,
      "has_biases" : 1,
      "C" : 96,
      "bottom" : "339",
      "weights" : {

      },
      "Nx" : 3,
      "pad_mode" : 0,
      "pad_value" : 0,
      "Ny" : 3,
      "n_parallel" : 1
    },
    {
      "alpha" : 0.1666666716337204,
      "bottom" : "341",
      "weights" : {

      },
      "mode" : 6,
      "top" : "341_scale_0_1",
      "type" : "activation",
      "name" : "342_scale_0_1",
      "beta" : 0
    },
    {
      "bottom" : "341_scale_0_1",
      "weights" : {

      },
      "mode" : 7,
      "top" : "341_clip_0_1",
      "type" : "activation",
      "name" : "342_clip_0_1",
      "beta" : 0
    },
    {
      "alpha" : 6,
      "bottom" : "341_clip_0_1",
      "weights" : {

      },
      "mode" : 6,
      "top" : "342",
      "type" : "activation",
      "name" : "342",
      "beta" : 0
    },
    {
      "pad_r" : 0,
      "fused_relu" : 0,
      "fused_tanh" : 0,
      "pad_fill_mode" : 0,
      "pad_b" : 0,
      "pad_l" : 0,
      "top" : "344",
      "blob_weights" : 23,
      "K" : 96,
      "blob_biases" : 21,
      "name" : "343",
      "has_batch_norm" : 0,
      "type" : "convolution",
      "n_groups" : 1,
      "pad_t" : 0,
      "has_biases" : 1,
      "C" : 24,
      "bottom" : "342",
      "weights" : {

      },
      "pad_mode" : 0,
      "Nx" : 1,
      "pad_value" : 0,
      "Ny" : 1,
      "n_parallel" : 1
    },
    {
      "pad_r" : 0,
      "fused_relu" : 0,
      "fused_tanh" : 0,
      "pad_fill_mode" : 0,
      "pad_b" : 0,
      "pad_l" : 0,
      "top" : "346",
      "blob_weights" : 27,
      "K" : 24,
      "blob_biases" : 25,
      "name" : "345",
      "has_batch_norm" : 0,
      "type" : "convolution",
      "n_groups" : 1,
      "pad_t" : 0,
      "has_biases" : 1,
      "C" : 144,
      "bottom" : "344",
      "weights" : {

      },
      "pad_mode" : 0,
      "Nx" : 1,
      "pad_value" : 0,
      "Ny" : 1,
      "n_parallel" : 1
    },
    {
      "alpha" : 0.1666666716337204,
      "bottom" : "346",
      "weights" : {

      },
      "mode" : 6,
      "top" : "346_scale_0_1",
      "type" : "activation",
      "name" : "347_scale_0_1",
      "beta" : 0
    },
    {
      "bottom" : "346_scale_0_1",
      "weights" : {

      },
      "mode" : 7,
      "top" : "346_clip_0_1",
      "type" : "activation",
      "name" : "347_clip_0_1",
      "beta" : 0
    },
    {
      "alpha" : 6,
      "bottom" : "346_clip_0_1",
      "weights" : {

      },
      "mode" : 6,
      "top" : "347",
      "type" : "activation",
      "name" : "347",
      "beta" : 0
    },
    {
      "pad_r" : 1,
      "fused_relu" : 0,
      "fused_tanh" : 0,
      "pad_fill_mode" : 0,
      "pad_b" : 1,
      "pad_l" : 1,
      "top" : "349",
      "blob_weights" : 31,
      "K" : 144,
      "blob_biases" : 29,
      "name" : "348",
      "has_batch_norm" : 0,
      "type" : "convolution",
      "n_groups" : 144,
      "pad_t" : 1,
      "has_biases" : 1,
      "C" : 144,
      "bottom" : "347",
      "weights" : {

      },
      "pad_mode" : 0,
      "Nx" : 3,
      "pad_value" : 0,
      "Ny" : 3,
      "n_parallel" : 1
    },
    {
      "alpha" : 0.1666666716337204,
      "bottom" : "349",
      "weights" : {

      },
      "mode" : 6,
      "top" : "349_scale_0_1",
      "type" : "activation",
      "name" : "350_scale_0_1",
      "beta" : 0
    },
    {
      "bottom" : "349_scale_0_1",
      "weights" : {

      },
      "mode" : 7,
      "top" : "349_clip_0_1",
      "type" : "activation",
      "name" : "350_clip_0_1",
      "beta" : 0
    },
    {
      "alpha" : 6,
      "bottom" : "349_clip_0_1",
      "weights" : {

      },
      "mode" : 6,
      "top" : "350",
      "type" : "activation",
      "name" : "350",
      "beta" : 0
    },
    {
      "pad_r" : 0,
      "fused_relu" : 0,
      "fused_tanh" : 0,
      "pad_fill_mode" : 0,
      "pad_b" : 0,
      "pad_l" : 0,
      "top" : "352",
      "blob_weights" : 35,
      "K" : 144,
      "blob_biases" : 33,
      "name" : "351",
      "has_batch_norm" : 0,
      "type" : "convolution",
      "n_groups" : 1,
      "pad_t" : 0,
      "has_biases" : 1,
      "C" : 24,
      "bottom" : "350",
      "weights" : {

      },
      "pad_mode" : 0,
      "Nx" : 1,
      "pad_value" : 0,
      "Ny" : 1,
      "n_parallel" : 1
    },
    {
      "alpha" : 1,
      "bottom" : "344,352",
      "operation" : 0,
      "weights" : {

      },
      "fused_relu" : 0,
      "top" : "353",
      "type" : "elementwise",
      "name" : "353",
      "beta" : 0
    },
    {
      "pad_r" : 0,
      "fused_relu" : 0,
      "fused_tanh" : 0,
      "pad_fill_mode" : 0,
      "pad_b" : 0,
      "pad_l" : 0,
      "top" : "355",
      "blob_weights" : 39,
      "K" : 24,
      "blob_biases" : 37,
      "name" : "354",
      "has_batch_norm" : 0,
      "type" : "convolution",
      "n_groups" : 1,
      "pad_t" : 0,
      "has_biases" : 1,
      "C" : 144,
      "bottom" : "353",
      "weights" : {

      },
      "pad_mode" : 0,
      "Nx" : 1,
      "pad_value" : 0,
      "Ny" : 1,
      "n_parallel" : 1
    },
    {
      "alpha" : 0.1666666716337204,
      "bottom" : "355",
      "weights" : {

      },
      "mode" : 6,
      "top" : "355_scale_0_1",
      "type" : "activation",
      "name" : "356_scale_0_1",
      "beta" : 0
    },
    {
      "bottom" : "355_scale_0_1",
      "weights" : {

      },
      "mode" : 7,
      "top" : "355_clip_0_1",
      "type" : "activation",
      "name" : "356_clip_0_1",
      "beta" : 0
    },
    {
      "alpha" : 6,
      "bottom" : "355_clip_0_1",
      "weights" : {

      },
      "mode" : 6,
      "top" : "356",
      "type" : "activation",
      "name" : "356",
      "beta" : 0
    },
    {
      "pad_r" : 1,
      "fused_relu" : 0,
      "fused_tanh" : 0,
      "pad_fill_mode" : 0,
      "pad_b" : 1,
      "pad_l" : 1,
      "top" : "358",
      "blob_weights" : 43,
      "K" : 144,
      "blob_biases" : 41,
      "stride_x" : 2,
      "name" : "357",
      "has_batch_norm" : 0,
      "type" : "convolution",
      "n_groups" : 144,
      "pad_t" : 1,
      "stride_y" : 2,
      "has_biases" : 1,
      "C" : 144,
      "bottom" : "356",
      "weights" : {

      },
      "Nx" : 3,
      "pad_mode" : 0,
      "pad_value" : 0,
      "Ny" : 3,
      "n_parallel" : 1
    },
    {
      "alpha" : 0.1666666716337204,
      "bottom" : "358",
      "weights" : {

      },
      "mode" : 6,
      "top" : "358_scale_0_1",
      "type" : "activation",
      "name" : "359_scale_0_1",
      "beta" : 0
    },
    {
      "bottom" : "358_scale_0_1",
      "weights" : {

      },
      "mode" : 7,
      "top" : "358_clip_0_1",
      "type" : "activation",
      "name" : "359_clip_0_1",
      "beta" : 0
    },
    {
      "alpha" : 6,
      "bottom" : "358_clip_0_1",
      "weights" : {

      },
      "mode" : 6,
      "top" : "359",
      "type" : "activation",
      "name" : "359",
      "beta" : 0
    },
    {
      "pad_r" : 0,
      "fused_relu" : 0,
      "fused_tanh" : 0,
      "pad_fill_mode" : 0,
      "pad_b" : 0,
      "pad_l" : 0,
      "top" : "361",
      "blob_weights" : 47,
      "K" : 144,
      "blob_biases" : 45,
      "name" : "360",
      "has_batch_norm" : 0,
      "type" : "convolution",
      "n_groups" : 1,
      "pad_t" : 0,
      "has_biases" : 1,
      "C" : 32,
      "bottom" : "359",
      "weights" : {

      },
      "pad_mode" : 0,
      "Nx" : 1,
      "pad_value" : 0,
      "Ny" : 1,
      "n_parallel" : 1
    },
    {
      "pad_r" : 0,
      "fused_relu" : 0,
      "fused_tanh" : 0,
      "pad_fill_mode" : 0,
      "pad_b" : 0,
      "pad_l" : 0,
      "top" : "363",
      "blob_weights" : 51,
      "K" : 32,
      "blob_biases" : 49,
      "name" : "362",
      "has_batch_norm" : 0,
      "type" : "convolution",
      "n_groups" : 1,
      "pad_t" : 0,
      "has_biases" : 1,
      "C" : 192,
      "bottom" : "361",
      "weights" : {

      },
      "pad_mode" : 0,
      "Nx" : 1,
      "pad_value" : 0,
      "Ny" : 1,
      "n_parallel" : 1
    },
    {
      "alpha" : 0.1666666716337204,
      "bottom" : "363",
      "weights" : {

      },
      "mode" : 6,
      "top" : "363_scale_0_1",
      "type" : "activation",
      "name" : "364_scale_0_1",
      "beta" : 0
    },
    {
      "bottom" : "363_scale_0_1",
      "weights" : {

      },
      "mode" : 7,
      "top" : "363_clip_0_1",
      "type" : "activation",
      "name" : "364_clip_0_1",
      "beta" : 0
    },
    {
      "alpha" : 6,
      "bottom" : "363_clip_0_1",
      "weights" : {

      },
      "mode" : 6,
      "top" : "364",
      "type" : "activation",
      "name" : "364",
      "beta" : 0
    },
    {
      "pad_r" : 1,
      "fused_relu" : 0,
      "fused_tanh" : 0,
      "pad_fill_mode" : 0,
      "pad_b" : 1,
      "pad_l" : 1,
      "top" : "366",
      "blob_weights" : 55,
      "K" : 192,
      "blob_biases" : 53,
      "name" : "365",
      "has_batch_norm" : 0,
      "type" : "convolution",
      "n_groups" : 192,
      "pad_t" : 1,
      "has_biases" : 1,
      "C" : 192,
      "bottom" : "364",
      "weights" : {

      },
      "pad_mode" : 0,
      "Nx" : 3,
      "pad_value" : 0,
      "Ny" : 3,
      "n_parallel" : 1
    },
    {
      "alpha" : 0.1666666716337204,
      "bottom" : "366",
      "weights" : {

      },
      "mode" : 6,
      "top" : "366_scale_0_1",
      "type" : "activation",
      "name" : "367_scale_0_1",
      "beta" : 0
    },
    {
      "bottom" : "366_scale_0_1",
      "weights" : {

      },
      "mode" : 7,
      "top" : "366_clip_0_1",
      "type" : "activation",
      "name" : "367_clip_0_1",
      "beta" : 0
    },
    {
      "alpha" : 6,
      "bottom" : "366_clip_0_1",
      "weights" : {

      },
      "mode" : 6,
      "top" : "367",
      "type" : "activation",
      "name" : "367",
      "beta" : 0
    },
    {
      "pad_r" : 0,
      "fused_relu" : 0,
      "fused_tanh" : 0,
      "pad_fill_mode" : 0,
      "pad_b" : 0,
      "pad_l" : 0,
      "top" : "369",
      "blob_weights" : 59,
      "K" : 192,
      "blob_biases" : 57,
      "name" : "368",
      "has_batch_norm" : 0,
      "type" : "convolution",
      "n_groups" : 1,
      "pad_t" : 0,
      "has_biases" : 1,
      "C" : 32,
      "bottom" : "367",
      "weights" : {

      },
      "pad_mode" : 0,
      "Nx" : 1,
      "pad_value" : 0,
      "Ny" : 1,
      "n_parallel" : 1
    },
    {
      "alpha" : 1,
      "bottom" : "361,369",
      "operation" : 0,
      "weights" : {

      },
      "fused_relu" : 0,
      "top" : "370",
      "type" : "elementwise",
      "name" : "370",
      "beta" : 0
    },
    {
      "pad_r" : 0,
      "fused_relu" : 0,
      "fused_tanh" : 0,
      "pad_fill_mode" : 0,
      "pad_b" : 0,
      "pad_l" : 0,
      "top" : "372",
      "blob_weights" : 63,
      "K" : 32,
      "blob_biases" : 61,
      "name" : "371",
      "has_batch_norm" : 0,
      "type" : "convolution",
      "n_groups" : 1,
      "pad_t" : 0,
      "has_biases" : 1,
      "C" : 192,
      "bottom" : "370",
      "weights" : {

      },
      "pad_mode" : 0,
      "Nx" : 1,
      "pad_value" : 0,
      "Ny" : 1,
      "n_parallel" : 1
    },
    {
      "alpha" : 0.1666666716337204,
      "bottom" : "372",
      "weights" : {

      },
      "mode" : 6,
      "top" : "372_scale_0_1",
      "type" : "activation",
      "name" : "373_scale_0_1",
      "beta" : 0
    },
    {
      "bottom" : "372_scale_0_1",
      "weights" : {

      },
      "mode" : 7,
      "top" : "372_clip_0_1",
      "type" : "activation",
      "name" : "373_clip_0_1",
      "beta" : 0
    },
    {
      "alpha" : 6,
      "bottom" : "372_clip_0_1",
      "weights" : {

      },
      "mode" : 6,
      "top" : "373",
      "type" : "activation",
      "name" : "373",
      "beta" : 0
    },
    {
      "pad_r" : 1,
      "fused_relu" : 0,
      "fused_tanh" : 0,
      "pad_fill_mode" : 0,
      "pad_b" : 1,
      "pad_l" : 1,
      "top" : "375",
      "blob_weights" : 67,
      "K" : 192,
      "blob_biases" : 65,
      "name" : "374",
      "has_batch_norm" : 0,
      "type" : "convolution",
      "n_groups" : 192,
      "pad_t" : 1,
      "has_biases" : 1,
      "C" : 192,
      "bottom" : "373",
      "weights" : {

      },
      "pad_mode" : 0,
      "Nx" : 3,
      "pad_value" : 0,
      "Ny" : 3,
      "n_parallel" : 1
    },
    {
      "alpha" : 0.1666666716337204,
      "bottom" : "375",
      "weights" : {

      },
      "mode" : 6,
      "top" : "375_scale_0_1",
      "type" : "activation",
      "name" : "376_scale_0_1",
      "beta" : 0
    },
    {
      "bottom" : "375_scale_0_1",
      "weights" : {

      },
      "mode" : 7,
      "top" : "375_clip_0_1",
      "type" : "activation",
      "name" : "376_clip_0_1",
      "beta" : 0
    },
    {
      "alpha" : 6,
      "bottom" : "375_clip_0_1",
      "weights" : {

      },
      "mode" : 6,
      "top" : "376",
      "type" : "activation",
      "name" : "376",
      "beta" : 0
    },
    {
      "pad_r" : 0,
      "fused_relu" : 0,
      "fused_tanh" : 0,
      "pad_fill_mode" : 0,
      "pad_b" : 0,
      "pad_l" : 0,
      "top" : "378",
      "blob_weights" : 71,
      "K" : 192,
      "blob_biases" : 69,
      "name" : "377",
      "has_batch_norm" : 0,
      "type" : "convolution",
      "n_groups" : 1,
      "pad_t" : 0,
      "has_biases" : 1,
      "C" : 32,
      "bottom" : "376",
      "weights" : {

      },
      "pad_mode" : 0,
      "Nx" : 1,
      "pad_value" : 0,
      "Ny" : 1,
      "n_parallel" : 1
    },
    {
      "alpha" : 1,
      "bottom" : "370,378",
      "operation" : 0,
      "weights" : {

      },
      "fused_relu" : 0,
      "top" : "379",
      "type" : "elementwise",
      "name" : "379",
      "beta" : 0
    },
    {
      "pad_r" : 0,
      "fused_relu" : 0,
      "fused_tanh" : 0,
      "pad_fill_mode" : 0,
      "pad_b" : 0,
      "pad_l" : 0,
      "top" : "381",
      "blob_weights" : 75,
      "K" : 32,
      "blob_biases" : 73,
      "name" : "380",
      "has_batch_norm" : 0,
      "type" : "convolution",
      "n_groups" : 1,
      "pad_t" : 0,
      "has_biases" : 1,
      "C" : 192,
      "bottom" : "379",
      "weights" : {

      },
      "pad_mode" : 0,
      "Nx" : 1,
      "pad_value" : 0,
      "Ny" : 1,
      "n_parallel" : 1
    },
    {
      "alpha" : 0.1666666716337204,
      "bottom" : "381",
      "weights" : {

      },
      "mode" : 6,
      "top" : "381_scale_0_1",
      "type" : "activation",
      "name" : "382_scale_0_1",
      "beta" : 0
    },
    {
      "bottom" : "381_scale_0_1",
      "weights" : {

      },
      "mode" : 7,
      "top" : "381_clip_0_1",
      "type" : "activation",
      "name" : "382_clip_0_1",
      "beta" : 0
    },
    {
      "alpha" : 6,
      "bottom" : "381_clip_0_1",
      "weights" : {

      },
      "mode" : 6,
      "top" : "382",
      "type" : "activation",
      "name" : "382",
      "beta" : 0
    },
    {
      "pad_r" : 1,
      "fused_relu" : 0,
      "fused_tanh" : 0,
      "pad_fill_mode" : 0,
      "pad_b" : 1,
      "pad_l" : 1,
      "top" : "384",
      "blob_weights" : 79,
      "K" : 192,
      "blob_biases" : 77,
      "stride_x" : 2,
      "name" : "383",
      "has_batch_norm" : 0,
      "type" : "convolution",
      "n_groups" : 192,
      "pad_t" : 1,
      "stride_y" : 2,
      "has_biases" : 1,
      "C" : 192,
      "bottom" : "382",
      "weights" : {

      },
      "Nx" : 3,
      "pad_mode" : 0,
      "pad_value" : 0,
      "Ny" : 3,
      "n_parallel" : 1
    },
    {
      "alpha" : 0.1666666716337204,
      "bottom" : "384",
      "weights" : {

      },
      "mode" : 6,
      "top" : "384_scale_0_1",
      "type" : "activation",
      "name" : "385_scale_0_1",
      "beta" : 0
    },
    {
      "bottom" : "384_scale_0_1",
      "weights" : {

      },
      "mode" : 7,
      "top" : "384_clip_0_1",
      "type" : "activation",
      "name" : "385_clip_0_1",
      "beta" : 0
    },
    {
      "alpha" : 6,
      "bottom" : "384_clip_0_1",
      "weights" : {

      },
      "mode" : 6,
      "top" : "385",
      "type" : "activation",
      "name" : "385",
      "beta" : 0
    },
    {
      "pad_r" : 0,
      "fused_relu" : 0,
      "fused_tanh" : 0,
      "pad_fill_mode" : 0,
      "pad_b" : 0,
      "pad_l" : 0,
      "top" : "387",
      "blob_weights" : 83,
      "K" : 192,
      "blob_biases" : 81,
      "name" : "386",
      "has_batch_norm" : 0,
      "type" : "convolution",
      "n_groups" : 1,
      "pad_t" : 0,
      "has_biases" : 1,
      "C" : 64,
      "bottom" : "385",
      "weights" : {

      },
      "pad_mode" : 0,
      "Nx" : 1,
      "pad_value" : 0,
      "Ny" : 1,
      "n_parallel" : 1
    },
    {
      "pad_r" : 0,
      "fused_relu" : 0,
      "fused_tanh" : 0,
      "pad_fill_mode" : 0,
      "pad_b" : 0,
      "pad_l" : 0,
      "top" : "389",
      "blob_weights" : 87,
      "K" : 64,
      "blob_biases" : 85,
      "name" : "388",
      "has_batch_norm" : 0,
      "type" : "convolution",
      "n_groups" : 1,
      "pad_t" : 0,
      "has_biases" : 1,
      "C" : 384,
      "bottom" : "387",
      "weights" : {

      },
      "pad_mode" : 0,
      "Nx" : 1,
      "pad_value" : 0,
      "Ny" : 1,
      "n_parallel" : 1
    },
    {
      "alpha" : 0.1666666716337204,
      "bottom" : "389",
      "weights" : {

      },
      "mode" : 6,
      "top" : "389_scale_0_1",
      "type" : "activation",
      "name" : "390_scale_0_1",
      "beta" : 0
    },
    {
      "bottom" : "389_scale_0_1",
      "weights" : {

      },
      "mode" : 7,
      "top" : "389_clip_0_1",
      "type" : "activation",
      "name" : "390_clip_0_1",
      "beta" : 0
    },
    {
      "alpha" : 6,
      "bottom" : "389_clip_0_1",
      "weights" : {

      },
      "mode" : 6,
      "top" : "390",
      "type" : "activation",
      "name" : "390",
      "beta" : 0
    },
    {
      "pad_r" : 1,
      "fused_relu" : 0,
      "fused_tanh" : 0,
      "pad_fill_mode" : 0,
      "pad_b" : 1,
      "pad_l" : 1,
      "top" : "392",
      "blob_weights" : 91,
      "K" : 384,
      "blob_biases" : 89,
      "name" : "391",
      "has_batch_norm" : 0,
      "type" : "convolution",
      "n_groups" : 384,
      "pad_t" : 1,
      "has_biases" : 1,
      "C" : 384,
      "bottom" : "390",
      "weights" : {

      },
      "pad_mode" : 0,
      "Nx" : 3,
      "pad_value" : 0,
      "Ny" : 3,
      "n_parallel" : 1
    },
    {
      "alpha" : 0.1666666716337204,
      "bottom" : "392",
      "weights" : {

      },
      "mode" : 6,
      "top" : "392_scale_0_1",
      "type" : "activation",
      "name" : "393_scale_0_1",
      "beta" : 0
    },
    {
      "bottom" : "392_scale_0_1",
      "weights" : {

      },
      "mode" : 7,
      "top" : "392_clip_0_1",
      "type" : "activation",
      "name" : "393_clip_0_1",
      "beta" : 0
    },
    {
      "alpha" : 6,
      "bottom" : "392_clip_0_1",
      "weights" : {

      },
      "mode" : 6,
      "top" : "393",
      "type" : "activation",
      "name" : "393",
      "beta" : 0
    },
    {
      "pad_r" : 0,
      "fused_relu" : 0,
      "fused_tanh" : 0,
      "pad_fill_mode" : 0,
      "pad_b" : 0,
      "pad_l" : 0,
      "top" : "395",
      "blob_weights" : 95,
      "K" : 384,
      "blob_biases" : 93,
      "name" : "394",
      "has_batch_norm" : 0,
      "type" : "convolution",
      "n_groups" : 1,
      "pad_t" : 0,
      "has_biases" : 1,
      "C" : 64,
      "bottom" : "393",
      "weights" : {

      },
      "pad_mode" : 0,
      "Nx" : 1,
      "pad_value" : 0,
      "Ny" : 1,
      "n_parallel" : 1
    },
    {
      "alpha" : 1,
      "bottom" : "387,395",
      "operation" : 0,
      "weights" : {

      },
      "fused_relu" : 0,
      "top" : "396",
      "type" : "elementwise",
      "name" : "396",
      "beta" : 0
    },
    {
      "pad_r" : 0,
      "fused_relu" : 0,
      "fused_tanh" : 0,
      "pad_fill_mode" : 0,
      "pad_b" : 0,
      "pad_l" : 0,
      "top" : "398",
      "blob_weights" : 99,
      "K" : 64,
      "blob_biases" : 97,
      "name" : "397",
      "has_batch_norm" : 0,
      "type" : "convolution",
      "n_groups" : 1,
      "pad_t" : 0,
      "has_biases" : 1,
      "C" : 384,
      "bottom" : "396",
      "weights" : {

      },
      "pad_mode" : 0,
      "Nx" : 1,
      "pad_value" : 0,
      "Ny" : 1,
      "n_parallel" : 1
    },
    {
      "alpha" : 0.1666666716337204,
      "bottom" : "398",
      "weights" : {

      },
      "mode" : 6,
      "top" : "398_scale_0_1",
      "type" : "activation",
      "name" : "399_scale_0_1",
      "beta" : 0
    },
    {
      "bottom" : "398_scale_0_1",
      "weights" : {

      },
      "mode" : 7,
      "top" : "398_clip_0_1",
      "type" : "activation",
      "name" : "399_clip_0_1",
      "beta" : 0
    },
    {
      "alpha" : 6,
      "bottom" : "398_clip_0_1",
      "weights" : {

      },
      "mode" : 6,
      "top" : "399",
      "type" : "activation",
      "name" : "399",
      "beta" : 0
    },
    {
      "pad_r" : 1,
      "fused_relu" : 0,
      "fused_tanh" : 0,
      "pad_fill_mode" : 0,
      "pad_b" : 1,
      "pad_l" : 1,
      "top" : "401",
      "blob_weights" : 103,
      "K" : 384,
      "blob_biases" : 101,
      "name" : "400",
      "has_batch_norm" : 0,
      "type" : "convolution",
      "n_groups" : 384,
      "pad_t" : 1,
      "has_biases" : 1,
      "C" : 384,
      "bottom" : "399",
      "weights" : {

      },
      "pad_mode" : 0,
      "Nx" : 3,
      "pad_value" : 0,
      "Ny" : 3,
      "n_parallel" : 1
    },
    {
      "alpha" : 0.1666666716337204,
      "bottom" : "401",
      "weights" : {

      },
      "mode" : 6,
      "top" : "401_scale_0_1",
      "type" : "activation",
      "name" : "402_scale_0_1",
      "beta" : 0
    },
    {
      "bottom" : "401_scale_0_1",
      "weights" : {

      },
      "mode" : 7,
      "top" : "401_clip_0_1",
      "type" : "activation",
      "name" : "402_clip_0_1",
      "beta" : 0
    },
    {
      "alpha" : 6,
      "bottom" : "401_clip_0_1",
      "weights" : {

      },
      "mode" : 6,
      "top" : "402",
      "type" : "activation",
      "name" : "402",
      "beta" : 0
    },
    {
      "pad_r" : 0,
      "fused_relu" : 0,
      "fused_tanh" : 0,
      "pad_fill_mode" : 0,
      "pad_b" : 0,
      "pad_l" : 0,
      "top" : "404",
      "blob_weights" : 107,
      "K" : 384,
      "blob_biases" : 105,
      "name" : "403",
      "has_batch_norm" : 0,
      "type" : "convolution",
      "n_groups" : 1,
      "pad_t" : 0,
      "has_biases" : 1,
      "C" : 64,
      "bottom" : "402",
      "weights" : {

      },
      "pad_mode" : 0,
      "Nx" : 1,
      "pad_value" : 0,
      "Ny" : 1,
      "n_parallel" : 1
    },
    {
      "alpha" : 1,
      "bottom" : "396,404",
      "operation" : 0,
      "weights" : {

      },
      "fused_relu" : 0,
      "top" : "405",
      "type" : "elementwise",
      "name" : "405",
      "beta" : 0
    },
    {
      "pad_r" : 0,
      "fused_relu" : 0,
      "fused_tanh" : 0,
      "pad_fill_mode" : 0,
      "pad_b" : 0,
      "pad_l" : 0,
      "top" : "407",
      "blob_weights" : 111,
      "K" : 64,
      "blob_biases" : 109,
      "name" : "406",
      "has_batch_norm" : 0,
      "type" : "convolution",
      "n_groups" : 1,
      "pad_t" : 0,
      "has_biases" : 1,
      "C" : 384,
      "bottom" : "405",
      "weights" : {

      },
      "pad_mode" : 0,
      "Nx" : 1,
      "pad_value" : 0,
      "Ny" : 1,
      "n_parallel" : 1
    },
    {
      "alpha" : 0.1666666716337204,
      "bottom" : "407",
      "weights" : {

      },
      "mode" : 6,
      "top" : "407_scale_0_1",
      "type" : "activation",
      "name" : "408_scale_0_1",
      "beta" : 0
    },
    {
      "bottom" : "407_scale_0_1",
      "weights" : {

      },
      "mode" : 7,
      "top" : "407_clip_0_1",
      "type" : "activation",
      "name" : "408_clip_0_1",
      "beta" : 0
    },
    {
      "alpha" : 6,
      "bottom" : "407_clip_0_1",
      "weights" : {

      },
      "mode" : 6,
      "top" : "408",
      "type" : "activation",
      "name" : "408",
      "beta" : 0
    },
    {
      "pad_r" : 1,
      "fused_relu" : 0,
      "fused_tanh" : 0,
      "pad_fill_mode" : 0,
      "pad_b" : 1,
      "pad_l" : 1,
      "top" : "410",
      "blob_weights" : 115,
      "K" : 384,
      "blob_biases" : 113,
      "name" : "409",
      "has_batch_norm" : 0,
      "type" : "convolution",
      "n_groups" : 384,
      "pad_t" : 1,
      "has_biases" : 1,
      "C" : 384,
      "bottom" : "408",
      "weights" : {

      },
      "pad_mode" : 0,
      "Nx" : 3,
      "pad_value" : 0,
      "Ny" : 3,
      "n_parallel" : 1
    },
    {
      "alpha" : 0.1666666716337204,
      "bottom" : "410",
      "weights" : {

      },
      "mode" : 6,
      "top" : "410_scale_0_1",
      "type" : "activation",
      "name" : "411_scale_0_1",
      "beta" : 0
    },
    {
      "bottom" : "410_scale_0_1",
      "weights" : {

      },
      "mode" : 7,
      "top" : "410_clip_0_1",
      "type" : "activation",
      "name" : "411_clip_0_1",
      "beta" : 0
    },
    {
      "alpha" : 6,
      "bottom" : "410_clip_0_1",
      "weights" : {

      },
      "mode" : 6,
      "top" : "411",
      "type" : "activation",
      "name" : "411",
      "beta" : 0
    },
    {
      "pad_r" : 0,
      "fused_relu" : 0,
      "fused_tanh" : 0,
      "pad_fill_mode" : 0,
      "pad_b" : 0,
      "pad_l" : 0,
      "top" : "413",
      "blob_weights" : 119,
      "K" : 384,
      "blob_biases" : 117,
      "name" : "412",
      "has_batch_norm" : 0,
      "type" : "convolution",
      "n_groups" : 1,
      "pad_t" : 0,
      "has_biases" : 1,
      "C" : 64,
      "bottom" : "411",
      "weights" : {

      },
      "pad_mode" : 0,
      "Nx" : 1,
      "pad_value" : 0,
      "Ny" : 1,
      "n_parallel" : 1
    },
    {
      "alpha" : 1,
      "bottom" : "405,413",
      "operation" : 0,
      "weights" : {

      },
      "fused_relu" : 0,
      "top" : "414",
      "type" : "elementwise",
      "name" : "414",
      "beta" : 0
    },
    {
      "pad_r" : 0,
      "fused_relu" : 0,
      "fused_tanh" : 0,
      "pad_fill_mode" : 0,
      "pad_b" : 0,
      "pad_l" : 0,
      "top" : "416",
      "blob_weights" : 123,
      "K" : 64,
      "blob_biases" : 121,
      "name" : "415",
      "has_batch_norm" : 0,
      "type" : "convolution",
      "n_groups" : 1,
      "pad_t" : 0,
      "has_biases" : 1,
      "C" : 384,
      "bottom" : "414",
      "weights" : {

      },
      "pad_mode" : 0,
      "Nx" : 1,
      "pad_value" : 0,
      "Ny" : 1,
      "n_parallel" : 1
    },
    {
      "alpha" : 0.1666666716337204,
      "bottom" : "416",
      "weights" : {

      },
      "mode" : 6,
      "top" : "416_scale_0_1",
      "type" : "activation",
      "name" : "417_scale_0_1",
      "beta" : 0
    },
    {
      "bottom" : "416_scale_0_1",
      "weights" : {

      },
      "mode" : 7,
      "top" : "416_clip_0_1",
      "type" : "activation",
      "name" : "417_clip_0_1",
      "beta" : 0
    },
    {
      "alpha" : 6,
      "bottom" : "416_clip_0_1",
      "weights" : {

      },
      "mode" : 6,
      "top" : "417",
      "type" : "activation",
      "name" : "417",
      "beta" : 0
    },
    {
      "pad_r" : 1,
      "fused_relu" : 0,
      "fused_tanh" : 0,
      "pad_fill_mode" : 0,
      "pad_b" : 1,
      "pad_l" : 1,
      "top" : "419",
      "blob_weights" : 127,
      "K" : 384,
      "blob_biases" : 125,
      "name" : "418",
      "has_batch_norm" : 0,
      "type" : "convolution",
      "n_groups" : 384,
      "pad_t" : 1,
      "has_biases" : 1,
      "C" : 384,
      "bottom" : "417",
      "weights" : {

      },
      "pad_mode" : 0,
      "Nx" : 3,
      "pad_value" : 0,
      "Ny" : 3,
      "n_parallel" : 1
    },
    {
      "alpha" : 0.1666666716337204,
      "bottom" : "419",
      "weights" : {

      },
      "mode" : 6,
      "top" : "419_scale_0_1",
      "type" : "activation",
      "name" : "420_scale_0_1",
      "beta" : 0
    },
    {
      "bottom" : "419_scale_0_1",
      "weights" : {

      },
      "mode" : 7,
      "top" : "419_clip_0_1",
      "type" : "activation",
      "name" : "420_clip_0_1",
      "beta" : 0
    },
    {
      "alpha" : 6,
      "bottom" : "419_clip_0_1",
      "weights" : {

      },
      "mode" : 6,
      "top" : "420",
      "type" : "activation",
      "name" : "420",
      "beta" : 0
    },
    {
      "pad_r" : 0,
      "fused_relu" : 0,
      "fused_tanh" : 0,
      "pad_fill_mode" : 0,
      "pad_b" : 0,
      "pad_l" : 0,
      "top" : "422",
      "blob_weights" : 131,
      "K" : 384,
      "blob_biases" : 129,
      "name" : "421",
      "has_batch_norm" : 0,
      "type" : "convolution",
      "n_groups" : 1,
      "pad_t" : 0,
      "has_biases" : 1,
      "C" : 96,
      "bottom" : "420",
      "weights" : {

      },
      "pad_mode" : 0,
      "Nx" : 1,
      "pad_value" : 0,
      "Ny" : 1,
      "n_parallel" : 1
    },
    {
      "pad_r" : 0,
      "fused_relu" : 0,
      "fused_tanh" : 0,
      "pad_fill_mode" : 0,
      "pad_b" : 0,
      "pad_l" : 0,
      "top" : "424",
      "blob_weights" : 135,
      "K" : 96,
      "blob_biases" : 133,
      "name" : "423",
      "has_batch_norm" : 0,
      "type" : "convolution",
      "n_groups" : 1,
      "pad_t" : 0,
      "has_biases" : 1,
      "C" : 576,
      "bottom" : "422",
      "weights" : {

      },
      "pad_mode" : 0,
      "Nx" : 1,
      "pad_value" : 0,
      "Ny" : 1,
      "n_parallel" : 1
    },
    {
      "alpha" : 0.1666666716337204,
      "bottom" : "424",
      "weights" : {

      },
      "mode" : 6,
      "top" : "424_scale_0_1",
      "type" : "activation",
      "name" : "425_scale_0_1",
      "beta" : 0
    },
    {
      "bottom" : "424_scale_0_1",
      "weights" : {

      },
      "mode" : 7,
      "top" : "424_clip_0_1",
      "type" : "activation",
      "name" : "425_clip_0_1",
      "beta" : 0
    },
    {
      "alpha" : 6,
      "bottom" : "424_clip_0_1",
      "weights" : {

      },
      "mode" : 6,
      "top" : "425",
      "type" : "activation",
      "name" : "425",
      "beta" : 0
    },
    {
      "pad_r" : 1,
      "fused_relu" : 0,
      "fused_tanh" : 0,
      "pad_fill_mode" : 0,
      "pad_b" : 1,
      "pad_l" : 1,
      "top" : "427",
      "blob_weights" : 139,
      "K" : 576,
      "blob_biases" : 137,
      "name" : "426",
      "has_batch_norm" : 0,
      "type" : "convolution",
      "n_groups" : 576,
      "pad_t" : 1,
      "has_biases" : 1,
      "C" : 576,
      "bottom" : "425",
      "weights" : {

      },
      "pad_mode" : 0,
      "Nx" : 3,
      "pad_value" : 0,
      "Ny" : 3,
      "n_parallel" : 1
    },
    {
      "alpha" : 0.1666666716337204,
      "bottom" : "427",
      "weights" : {

      },
      "mode" : 6,
      "top" : "427_scale_0_1",
      "type" : "activation",
      "name" : "428_scale_0_1",
      "beta" : 0
    },
    {
      "bottom" : "427_scale_0_1",
      "weights" : {

      },
      "mode" : 7,
      "top" : "427_clip_0_1",
      "type" : "activation",
      "name" : "428_clip_0_1",
      "beta" : 0
    },
    {
      "alpha" : 6,
      "bottom" : "427_clip_0_1",
      "weights" : {

      },
      "mode" : 6,
      "top" : "428",
      "type" : "activation",
      "name" : "428",
      "beta" : 0
    },
    {
      "pad_r" : 0,
      "fused_relu" : 0,
      "fused_tanh" : 0,
      "pad_fill_mode" : 0,
      "pad_b" : 0,
      "pad_l" : 0,
      "top" : "430",
      "blob_weights" : 143,
      "K" : 576,
      "blob_biases" : 141,
      "name" : "429",
      "has_batch_norm" : 0,
      "type" : "convolution",
      "n_groups" : 1,
      "pad_t" : 0,
      "has_biases" : 1,
      "C" : 96,
      "bottom" : "428",
      "weights" : {

      },
      "pad_mode" : 0,
      "Nx" : 1,
      "pad_value" : 0,
      "Ny" : 1,
      "n_parallel" : 1
    },
    {
      "alpha" : 1,
      "bottom" : "422,430",
      "operation" : 0,
      "weights" : {

      },
      "fused_relu" : 0,
      "top" : "431",
      "type" : "elementwise",
      "name" : "431",
      "beta" : 0
    },
    {
      "pad_r" : 0,
      "fused_relu" : 0,
      "fused_tanh" : 0,
      "pad_fill_mode" : 0,
      "pad_b" : 0,
      "pad_l" : 0,
      "top" : "433",
      "blob_weights" : 147,
      "K" : 96,
      "blob_biases" : 145,
      "name" : "432",
      "has_batch_norm" : 0,
      "type" : "convolution",
      "n_groups" : 1,
      "pad_t" : 0,
      "has_biases" : 1,
      "C" : 576,
      "bottom" : "431",
      "weights" : {

      },
      "pad_mode" : 0,
      "Nx" : 1,
      "pad_value" : 0,
      "Ny" : 1,
      "n_parallel" : 1
    },
    {
      "alpha" : 0.1666666716337204,
      "bottom" : "433",
      "weights" : {

      },
      "mode" : 6,
      "top" : "433_scale_0_1",
      "type" : "activation",
      "name" : "434_scale_0_1",
      "beta" : 0
    },
    {
      "bottom" : "433_scale_0_1",
      "weights" : {

      },
      "mode" : 7,
      "top" : "433_clip_0_1",
      "type" : "activation",
      "name" : "434_clip_0_1",
      "beta" : 0
    },
    {
      "alpha" : 6,
      "bottom" : "433_clip_0_1",
      "weights" : {

      },
      "mode" : 6,
      "top" : "434",
      "type" : "activation",
      "name" : "434",
      "beta" : 0
    },
    {
      "pad_r" : 1,
      "fused_relu" : 0,
      "fused_tanh" : 0,
      "pad_fill_mode" : 0,
      "pad_b" : 1,
      "pad_l" : 1,
      "top" : "436",
      "blob_weights" : 151,
      "K" : 576,
      "blob_biases" : 149,
      "name" : "435",
      "has_batch_norm" : 0,
      "type" : "convolution",
      "n_groups" : 576,
      "pad_t" : 1,
      "has_biases" : 1,
      "C" : 576,
      "bottom" : "434",
      "weights" : {

      },
      "pad_mode" : 0,
      "Nx" : 3,
      "pad_value" : 0,
      "Ny" : 3,
      "n_parallel" : 1
    },
    {
      "alpha" : 0.1666666716337204,
      "bottom" : "436",
      "weights" : {

      },
      "mode" : 6,
      "top" : "436_scale_0_1",
      "type" : "activation",
      "name" : "437_scale_0_1",
      "beta" : 0
    },
    {
      "bottom" : "436_scale_0_1",
      "weights" : {

      },
      "mode" : 7,
      "top" : "436_clip_0_1",
      "type" : "activation",
      "name" : "437_clip_0_1",
      "beta" : 0
    },
    {
      "alpha" : 6,
      "bottom" : "436_clip_0_1",
      "weights" : {

      },
      "mode" : 6,
      "top" : "437",
      "type" : "activation",
      "name" : "437",
      "beta" : 0
    },
    {
      "pad_r" : 0,
      "fused_relu" : 0,
      "fused_tanh" : 0,
      "pad_fill_mode" : 0,
      "pad_b" : 0,
      "pad_l" : 0,
      "top" : "439",
      "blob_weights" : 155,
      "K" : 576,
      "blob_biases" : 153,
      "name" : "438",
      "has_batch_norm" : 0,
      "type" : "convolution",
      "n_groups" : 1,
      "pad_t" : 0,
      "has_biases" : 1,
      "C" : 96,
      "bottom" : "437",
      "weights" : {

      },
      "pad_mode" : 0,
      "Nx" : 1,
      "pad_value" : 0,
      "Ny" : 1,
      "n_parallel" : 1
    },
    {
      "alpha" : 1,
      "bottom" : "431,439",
      "operation" : 0,
      "weights" : {

      },
      "fused_relu" : 0,
      "top" : "440",
      "type" : "elementwise",
      "name" : "440",
      "beta" : 0
    },
    {
      "pad_r" : 0,
      "fused_relu" : 0,
      "fused_tanh" : 0,
      "pad_fill_mode" : 0,
      "pad_b" : 0,
      "pad_l" : 0,
      "top" : "442",
      "blob_weights" : 159,
      "K" : 96,
      "blob_biases" : 157,
      "name" : "441",
      "has_batch_norm" : 0,
      "type" : "convolution",
      "n_groups" : 1,
      "pad_t" : 0,
      "has_biases" : 1,
      "C" : 576,
      "bottom" : "440",
      "weights" : {

      },
      "pad_mode" : 0,
      "Nx" : 1,
      "pad_value" : 0,
      "Ny" : 1,
      "n_parallel" : 1
    },
    {
      "alpha" : 0.1666666716337204,
      "bottom" : "442",
      "weights" : {

      },
      "mode" : 6,
      "top" : "442_scale_0_1",
      "type" : "activation",
      "name" : "443_scale_0_1",
      "beta" : 0
    },
    {
      "bottom" : "442_scale_0_1",
      "weights" : {

      },
      "mode" : 7,
      "top" : "442_clip_0_1",
      "type" : "activation",
      "name" : "443_clip_0_1",
      "beta" : 0
    },
    {
      "alpha" : 6,
      "bottom" : "442_clip_0_1",
      "weights" : {

      },
      "mode" : 6,
      "top" : "443",
      "type" : "activation",
      "name" : "443",
      "beta" : 0
    },
    {
      "pad_r" : 1,
      "fused_relu" : 0,
      "fused_tanh" : 0,
      "pad_fill_mode" : 0,
      "pad_b" : 1,
      "pad_l" : 1,
      "top" : "445",
      "blob_weights" : 163,
      "K" : 576,
      "blob_biases" : 161,
      "stride_x" : 2,
      "name" : "444",
      "has_batch_norm" : 0,
      "type" : "convolution",
      "n_groups" : 576,
      "pad_t" : 1,
      "stride_y" : 2,
      "has_biases" : 1,
      "C" : 576,
      "bottom" : "443",
      "weights" : {

      },
      "Nx" : 3,
      "pad_mode" : 0,
      "pad_value" : 0,
      "Ny" : 3,
      "n_parallel" : 1
    },
    {
      "alpha" : 0.1666666716337204,
      "bottom" : "445",
      "weights" : {

      },
      "mode" : 6,
      "top" : "445_scale_0_1",
      "type" : "activation",
      "name" : "446_scale_0_1",
      "beta" : 0
    },
    {
      "bottom" : "445_scale_0_1",
      "weights" : {

      },
      "mode" : 7,
      "top" : "445_clip_0_1",
      "type" : "activation",
      "name" : "446_clip_0_1",
      "beta" : 0
    },
    {
      "alpha" : 6,
      "bottom" : "445_clip_0_1",
      "weights" : {

      },
      "mode" : 6,
      "top" : "446",
      "type" : "activation",
      "name" : "446",
      "beta" : 0
    },
    {
      "pad_r" : 0,
      "fused_relu" : 0,
      "fused_tanh" : 0,
      "pad_fill_mode" : 0,
      "pad_b" : 0,
      "pad_l" : 0,
      "top" : "448",
      "blob_weights" : 167,
      "K" : 576,
      "blob_biases" : 165,
      "name" : "447",
      "has_batch_norm" : 0,
      "type" : "convolution",
      "n_groups" : 1,
      "pad_t" : 0,
      "has_biases" : 1,
      "C" : 160,
      "bottom" : "446",
      "weights" : {

      },
      "pad_mode" : 0,
      "Nx" : 1,
      "pad_value" : 0,
      "Ny" : 1,
      "n_parallel" : 1
    },
    {
      "pad_r" : 0,
      "fused_relu" : 0,
      "fused_tanh" : 0,
      "pad_fill_mode" : 0,
      "pad_b" : 0,
      "pad_l" : 0,
      "top" : "450",
      "blob_weights" : 171,
      "K" : 160,
      "blob_biases" : 169,
      "name" : "449",
      "has_batch_norm" : 0,
      "type" : "convolution",
      "n_groups" : 1,
      "pad_t" : 0,
      "has_biases" : 1,
      "C" : 960,
      "bottom" : "448",
      "weights" : {

      },
      "pad_mode" : 0,
      "Nx" : 1,
      "pad_value" : 0,
      "Ny" : 1,
      "n_parallel" : 1
    },
    {
      "alpha" : 0.1666666716337204,
      "bottom" : "450",
      "weights" : {

      },
      "mode" : 6,
      "top" : "450_scale_0_1",
      "type" : "activation",
      "name" : "451_scale_0_1",
      "beta" : 0
    },
    {
      "bottom" : "450_scale_0_1",
      "weights" : {

      },
      "mode" : 7,
      "top" : "450_clip_0_1",
      "type" : "activation",
      "name" : "451_clip_0_1",
      "beta" : 0
    },
    {
      "alpha" : 6,
      "bottom" : "450_clip_0_1",
      "weights" : {

      },
      "mode" : 6,
      "top" : "451",
      "type" : "activation",
      "name" : "451",
      "beta" : 0
    },
    {
      "pad_r" : 1,
      "fused_relu" : 0,
      "fused_tanh" : 0,
      "pad_fill_mode" : 0,
      "pad_b" : 1,
      "pad_l" : 1,
      "top" : "453",
      "blob_weights" : 175,
      "K" : 960,
      "blob_biases" : 173,
      "name" : "452",
      "has_batch_norm" : 0,
      "type" : "convolution",
      "n_groups" : 960,
      "pad_t" : 1,
      "has_biases" : 1,
      "C" : 960,
      "bottom" : "451",
      "weights" : {

      },
      "pad_mode" : 0,
      "Nx" : 3,
      "pad_value" : 0,
      "Ny" : 3,
      "n_parallel" : 1
    },
    {
      "alpha" : 0.1666666716337204,
      "bottom" : "453",
      "weights" : {

      },
      "mode" : 6,
      "top" : "453_scale_0_1",
      "type" : "activation",
      "name" : "454_scale_0_1",
      "beta" : 0
    },
    {
      "bottom" : "453_scale_0_1",
      "weights" : {

      },
      "mode" : 7,
      "top" : "453_clip_0_1",
      "type" : "activation",
      "name" : "454_clip_0_1",
      "beta" : 0
    },
    {
      "alpha" : 6,
      "bottom" : "453_clip_0_1",
      "weights" : {

      },
      "mode" : 6,
      "top" : "454",
      "type" : "activation",
      "name" : "454",
      "beta" : 0
    },
    {
      "pad_r" : 0,
      "fused_relu" : 0,
      "fused_tanh" : 0,
      "pad_fill_mode" : 0,
      "pad_b" : 0,
      "pad_l" : 0,
      "top" : "456",
      "blob_weights" : 179,
      "K" : 960,
      "blob_biases" : 177,
      "name" : "455",
      "has_batch_norm" : 0,
      "type" : "convolution",
      "n_groups" : 1,
      "pad_t" : 0,
      "has_biases" : 1,
      "C" : 160,
      "bottom" : "454",
      "weights" : {

      },
      "pad_mode" : 0,
      "Nx" : 1,
      "pad_value" : 0,
      "Ny" : 1,
      "n_parallel" : 1
    },
    {
      "alpha" : 1,
      "bottom" : "448,456",
      "operation" : 0,
      "weights" : {

      },
      "fused_relu" : 0,
      "top" : "457",
      "type" : "elementwise",
      "name" : "457",
      "beta" : 0
    },
    {
      "pad_r" : 0,
      "fused_relu" : 0,
      "fused_tanh" : 0,
      "pad_fill_mode" : 0,
      "pad_b" : 0,
      "pad_l" : 0,
      "top" : "459",
      "blob_weights" : 183,
      "K" : 160,
      "blob_biases" : 181,
      "name" : "458",
      "has_batch_norm" : 0,
      "type" : "convolution",
      "n_groups" : 1,
      "pad_t" : 0,
      "has_biases" : 1,
      "C" : 960,
      "bottom" : "457",
      "weights" : {

      },
      "pad_mode" : 0,
      "Nx" : 1,
      "pad_value" : 0,
      "Ny" : 1,
      "n_parallel" : 1
    },
    {
      "alpha" : 0.1666666716337204,
      "bottom" : "459",
      "weights" : {

      },
      "mode" : 6,
      "top" : "459_scale_0_1",
      "type" : "activation",
      "name" : "460_scale_0_1",
      "beta" : 0
    },
    {
      "bottom" : "459_scale_0_1",
      "weights" : {

      },
      "mode" : 7,
      "top" : "459_clip_0_1",
      "type" : "activation",
      "name" : "460_clip_0_1",
      "beta" : 0
    },
    {
      "alpha" : 6,
      "bottom" : "459_clip_0_1",
      "weights" : {

      },
      "mode" : 6,
      "top" : "460",
      "type" : "activation",
      "name" : "460",
      "beta" : 0
    },
    {
      "pad_r" : 1,
      "fused_relu" : 0,
      "fused_tanh" : 0,
      "pad_fill_mode" : 0,
      "pad_b" : 1,
      "pad_l" : 1,
      "top" : "462",
      "blob_weights" : 187,
      "K" : 960,
      "blob_biases" : 185,
      "name" : "461",
      "has_batch_norm" : 0,
      "type" : "convolution",
      "n_groups" : 960,
      "pad_t" : 1,
      "has_biases" : 1,
      "C" : 960,
      "bottom" : "460",
      "weights" : {

      },
      "pad_mode" : 0,
      "Nx" : 3,
      "pad_value" : 0,
      "Ny" : 3,
      "n_parallel" : 1
    },
    {
      "alpha" : 0.1666666716337204,
      "bottom" : "462",
      "weights" : {

      },
      "mode" : 6,
      "top" : "462_scale_0_1",
      "type" : "activation",
      "name" : "463_scale_0_1",
      "beta" : 0
    },
    {
      "bottom" : "462_scale_0_1",
      "weights" : {

      },
      "mode" : 7,
      "top" : "462_clip_0_1",
      "type" : "activation",
      "name" : "463_clip_0_1",
      "beta" : 0
    },
    {
      "alpha" : 6,
      "bottom" : "462_clip_0_1",
      "weights" : {

      },
      "mode" : 6,
      "top" : "463",
      "type" : "activation",
      "name" : "463",
      "beta" : 0
    },
    {
      "pad_r" : 0,
      "fused_relu" : 0,
      "fused_tanh" : 0,
      "pad_fill_mode" : 0,
      "pad_b" : 0,
      "pad_l" : 0,
      "top" : "465",
      "blob_weights" : 191,
      "K" : 960,
      "blob_biases" : 189,
      "name" : "464",
      "has_batch_norm" : 0,
      "type" : "convolution",
      "n_groups" : 1,
      "pad_t" : 0,
      "has_biases" : 1,
      "C" : 160,
      "bottom" : "463",
      "weights" : {

      },
      "pad_mode" : 0,
      "Nx" : 1,
      "pad_value" : 0,
      "Ny" : 1,
      "n_parallel" : 1
    },
    {
      "alpha" : 1,
      "bottom" : "457,465",
      "operation" : 0,
      "weights" : {

      },
      "fused_relu" : 0,
      "top" : "466",
      "type" : "elementwise",
      "name" : "466",
      "beta" : 0
    },
    {
      "pad_r" : 0,
      "fused_relu" : 0,
      "fused_tanh" : 0,
      "pad_fill_mode" : 0,
      "pad_b" : 0,
      "pad_l" : 0,
      "top" : "468",
      "blob_weights" : 195,
      "K" : 160,
      "blob_biases" : 193,
      "name" : "467",
      "has_batch_norm" : 0,
      "type" : "convolution",
      "n_groups" : 1,
      "pad_t" : 0,
      "has_biases" : 1,
      "C" : 960,
      "bottom" : "466",
      "weights" : {

      },
      "pad_mode" : 0,
      "Nx" : 1,
      "pad_value" : 0,
      "Ny" : 1,
      "n_parallel" : 1
    },
    {
      "alpha" : 0.1666666716337204,
      "bottom" : "468",
      "weights" : {

      },
      "mode" : 6,
      "top" : "468_scale_0_1",
      "type" : "activation",
      "name" : "469_scale_0_1",
      "beta" : 0
    },
    {
      "bottom" : "468_scale_0_1",
      "weights" : {

      },
      "mode" : 7,
      "top" : "468_clip_0_1",
      "type" : "activation",
      "name" : "469_clip_0_1",
      "beta" : 0
    },
    {
      "alpha" : 6,
      "bottom" : "468_clip_0_1",
      "weights" : {

      },
      "mode" : 6,
      "top" : "469",
      "type" : "activation",
      "name" : "469",
      "beta" : 0
    },
    {
      "pad_r" : 1,
      "fused_relu" : 0,
      "fused_tanh" : 0,
      "pad_fill_mode" : 0,
      "pad_b" : 1,
      "pad_l" : 1,
      "top" : "471",
      "blob_weights" : 199,
      "K" : 960,
      "blob_biases" : 197,
      "name" : "470",
      "has_batch_norm" : 0,
      "type" : "convolution",
      "n_groups" : 960,
      "pad_t" : 1,
      "has_biases" : 1,
      "C" : 960,
      "bottom" : "469",
      "weights" : {

      },
      "pad_mode" : 0,
      "Nx" : 3,
      "pad_value" : 0,
      "Ny" : 3,
      "n_parallel" : 1
    },
    {
      "alpha" : 0.1666666716337204,
      "bottom" : "471",
      "weights" : {

      },
      "mode" : 6,
      "top" : "471_scale_0_1",
      "type" : "activation",
      "name" : "472_scale_0_1",
      "beta" : 0
    },
    {
      "bottom" : "471_scale_0_1",
      "weights" : {

      },
      "mode" : 7,
      "top" : "471_clip_0_1",
      "type" : "activation",
      "name" : "472_clip_0_1",
      "beta" : 0
    },
    {
      "alpha" : 6,
      "bottom" : "471_clip_0_1",
      "weights" : {

      },
      "mode" : 6,
      "top" : "472",
      "type" : "activation",
      "name" : "472",
      "beta" : 0
    },
    {
      "pad_r" : 0,
      "fused_relu" : 0,
      "fused_tanh" : 0,
      "pad_fill_mode" : 0,
      "pad_b" : 0,
      "pad_l" : 0,
      "top" : "474",
      "blob_weights" : 203,
      "K" : 960,
      "blob_biases" : 201,
      "name" : "473",
      "has_batch_norm" : 0,
      "type" : "convolution",
      "n_groups" : 1,
      "pad_t" : 0,
      "has_biases" : 1,
      "C" : 320,
      "bottom" : "472",
      "weights" : {

      },
      "pad_mode" : 0,
      "Nx" : 1,
      "pad_value" : 0,
      "Ny" : 1,
      "n_parallel" : 1
    },
    {
      "bottom" : "474",
      "scaling_factor_y" : 2,
      "weights" : {

      },
      "mode" : 0,
      "top" : "476",
      "scaling_factor_x" : 2,
      "type" : "upsample",
      "name" : "476"
    },
    {
      "pad_r" : 1,
      "fused_relu" : 0,
      "fused_tanh" : 0,
      "pad_fill_mode" : 0,
      "pad_b" : 1,
      "pad_l" : 1,
      "top" : "477",
      "blob_weights" : 207,
      "K" : 320,
      "blob_biases" : 205,
      "name" : "477",
      "has_batch_norm" : 0,
      "type" : "convolution",
      "n_groups" : 320,
      "pad_t" : 1,
      "has_biases" : 1,
      "C" : 320,
      "bottom" : "476",
      "weights" : {

      },
      "pad_mode" : 0,
      "Nx" : 3,
      "pad_value" : 0,
      "Ny" : 3,
      "n_parallel" : 1
    },
    {
      "pad_r" : 0,
      "fused_relu" : 0,
      "fused_tanh" : 0,
      "pad_fill_mode" : 0,
      "pad_b" : 0,
      "pad_l" : 0,
      "top" : "478",
      "blob_weights" : 211,
      "K" : 320,
      "blob_biases" : 209,
      "name" : "478",
      "has_batch_norm" : 0,
      "type" : "convolution",
      "n_groups" : 1,
      "pad_t" : 0,
      "has_biases" : 1,
      "C" : 160,
      "bottom" : "477",
      "weights" : {

      },
      "pad_mode" : 0,
      "Nx" : 1,
      "pad_value" : 0,
      "Ny" : 1,
      "n_parallel" : 1
    },
    {
      "bottom" : "478",
      "scaling_factor_y" : 2,
      "weights" : {

      },
      "mode" : 0,
      "top" : "480",
      "scaling_factor_x" : 2,
      "type" : "upsample",
      "name" : "480"
    },
    {
      "pad_r" : 1,
      "fused_relu" : 0,
      "fused_tanh" : 0,
      "pad_fill_mode" : 0,
      "pad_b" : 1,
      "pad_l" : 1,
      "top" : "481",
      "blob_weights" : 215,
      "K" : 160,
      "blob_biases" : 213,
      "name" : "481",
      "has_batch_norm" : 0,
      "type" : "convolution",
      "n_groups" : 160,
      "pad_t" : 1,
      "has_biases" : 1,
      "C" : 160,
      "bottom" : "480",
      "weights" : {

      },
      "pad_mode" : 0,
      "Nx" : 3,
      "pad_value" : 0,
      "Ny" : 3,
      "n_parallel" : 1
    },
    {
      "pad_r" : 0,
      "fused_relu" : 0,
      "fused_tanh" : 0,
      "pad_fill_mode" : 0,
      "pad_b" : 0,
      "pad_l" : 0,
      "top" : "482",
      "blob_weights" : 219,
      "K" : 160,
      "blob_biases" : 217,
      "name" : "482",
      "has_batch_norm" : 0,
      "type" : "convolution",
      "n_groups" : 1,
      "pad_t" : 0,
      "has_biases" : 1,
      "C" : 80,
      "bottom" : "481",
      "weights" : {

      },
      "pad_mode" : 0,
      "Nx" : 1,
      "pad_value" : 0,
      "Ny" : 1,
      "n_parallel" : 1
    },
    {
      "bottom" : "482",
      "scaling_factor_y" : 2,
      "weights" : {

      },
      "mode" : 0,
      "top" : "484",
      "scaling_factor_x" : 2,
      "type" : "upsample",
      "name" : "484"
    },
    {
      "pad_r" : 1,
      "fused_relu" : 0,
      "fused_tanh" : 0,
      "pad_fill_mode" : 0,
      "pad_b" : 1,
      "pad_l" : 1,
      "top" : "485",
      "blob_weights" : 223,
      "K" : 80,
      "blob_biases" : 221,
      "name" : "485",
      "has_batch_norm" : 0,
      "type" : "convolution",
      "n_groups" : 80,
      "pad_t" : 1,
      "has_biases" : 1,
      "C" : 80,
      "bottom" : "484",
      "weights" : {

      },
      "pad_mode" : 0,
      "Nx" : 3,
      "pad_value" : 0,
      "Ny" : 3,
      "n_parallel" : 1
    },
    {
      "pad_r" : 0,
      "fused_relu" : 0,
      "fused_tanh" : 0,
      "pad_fill_mode" : 0,
      "pad_b" : 0,
      "pad_l" : 0,
      "top" : "486",
      "blob_weights" : 227,
      "K" : 80,
      "blob_biases" : 225,
      "name" : "486",
      "has_batch_norm" : 0,
      "type" : "convolution",
      "n_groups" : 1,
      "pad_t" : 0,
      "has_biases" : 1,
      "C" : 40,
      "bottom" : "485",
      "weights" : {

      },
      "pad_mode" : 0,
      "Nx" : 1,
      "pad_value" : 0,
      "Ny" : 1,
      "n_parallel" : 1
    },
    {
      "bottom" : "486",
      "scaling_factor_y" : 2,
      "weights" : {

      },
      "mode" : 0,
      "top" : "488",
      "scaling_factor_x" : 2,
      "type" : "upsample",
      "name" : "488"
    },
    {
      "pad_r" : 1,
      "fused_relu" : 0,
      "fused_tanh" : 0,
      "pad_fill_mode" : 0,
      "pad_b" : 1,
      "pad_l" : 1,
      "top" : "489",
      "blob_weights" : 231,
      "K" : 40,
      "blob_biases" : 229,
      "name" : "489",
      "has_batch_norm" : 0,
      "type" : "convolution",
      "n_groups" : 40,
      "pad_t" : 1,
      "has_biases" : 1,
      "C" : 40,
      "bottom" : "488",
      "weights" : {

      },
      "pad_mode" : 0,
      "Nx" : 3,
      "pad_value" : 0,
      "Ny" : 3,
      "n_parallel" : 1
    },
    {
      "pad_r" : 0,
      "fused_relu" : 0,
      "fused_tanh" : 0,
      "pad_fill_mode" : 0,
      "pad_b" : 0,
      "pad_l" : 0,
      "top" : "490",
      "blob_weights" : 235,
      "K" : 40,
      "blob_biases" : 233,
      "name" : "490",
      "has_batch_norm" : 0,
      "type" : "convolution",
      "n_groups" : 1,
      "pad_t" : 0,
      "has_biases" : 1,
      "C" : 20,
      "bottom" : "489",
      "weights" : {

      },
      "pad_mode" : 0,
      "Nx" : 1,
      "pad_value" : 0,
      "Ny" : 1,
      "n_parallel" : 1
    },
    {
      "bottom" : "490",
      "scaling_factor_y" : 2,
      "weights" : {

      },
      "mode" : 0,
      "top" : "492",
      "scaling_factor_x" : 2,
      "type" : "upsample",
      "name" : "492"
    },
    {
      "pad_r" : 1,
      "fused_relu" : 0,
      "fused_tanh" : 0,
      "pad_fill_mode" : 0,
      "pad_b" : 1,
      "pad_l" : 1,
      "top" : "493",
      "blob_weights" : 239,
      "K" : 20,
      "blob_biases" : 237,
      "name" : "493",
      "has_batch_norm" : 0,
      "type" : "convolution",
      "n_groups" : 20,
      "pad_t" : 1,
      "has_biases" : 1,
      "C" : 20,
      "bottom" : "492",
      "weights" : {

      },
      "pad_mode" : 0,
      "Nx" : 3,
      "pad_value" : 0,
      "Ny" : 3,
      "n_parallel" : 1
    },
    {
      "pad_r" : 0,
      "fused_relu" : 0,
      "fused_tanh" : 0,
      "pad_fill_mode" : 0,
      "pad_b" : 0,
      "pad_l" : 0,
      "top" : "494",
      "blob_weights" : 243,
      "K" : 20,
      "blob_biases" : 241,
      "name" : "494",
      "has_batch_norm" : 0,
      "type" : "convolution",
      "n_groups" : 1,
      "pad_t" : 0,
      "has_biases" : 1,
      "C" : 10,
      "bottom" : "493",
      "weights" : {

      },
      "pad_mode" : 0,
      "Nx" : 1,
      "pad_value" : 0,
      "Ny" : 1,
      "n_parallel" : 1
    },
    {
      "pad_value" : 0,
      "top" : "495",
      "pad_pad_mode" : 0,
      "pad_t" : 3,
      "pad_r" : 3,
      "pad_b" : 3,
      "type" : "general_padding",
      "pad_fill_mode" : 2,
      "bottom" : "494",
      "pad_l" : 3,
      "name" : "495",
      "weights" : {

      }
    },
    {
      "pad_r" : 0,
      "fused_relu" : 0,
      "fused_tanh" : 1,
      "pad_fill_mode" : 0,
      "pad_b" : 0,
      "pad_l" : 0,
      "top" : "uv_map",
      "blob_weights" : 247,
      "K" : 10,
      "blob_biases" : 245,
      "name" : "496",
      "has_batch_norm" : 0,
      "type" : "convolution",
      "n_groups" : 1,
      "pad_t" : 0,
      "has_biases" : 1,
      "C" : 3,
      "bottom" : "495",
      "weights" : {

      },
      "pad_mode" : 0,
      "Nx" : 7,
      "pad_value" : 0,
      "Ny" : 7,
      "n_parallel" : 1
    }
  ]
}