{
  "transform_params" : {
    "image__0" : {
      "bias_a" : 0,
      "bias_g" : 0,
      "bias_r" : 0,
      "bias_b" : 0,
      "center_mean" : 0,
      "is_network_bgr" : 0,
      "scale" : 1
    }
  },
  "properties" : {

  },
  "storage" : "model.espresso.weights",
  "format_version" : 200,
  "layers" : [
    {
      "alpha" : 0.85080283880233765,
      "bottom" : "image__0",
      "operation" : 3,
      "weights" : {

      },
      "fused_relu" : 0,
      "top" : "image__0__fix__underflow___",
      "type" : "elementwise",
      "name" : "Conv2d_0\/Conv2D:0__fix__underflow___",
      "beta" : 0
    },
    {
      "pad_r" : 0,
      "fused_relu" : 1,
      "fused_tanh" : 0,
      "pad_fill_mode" : 0,
      "pad_b" : 0,
      "pad_l" : 0,
      "top" : "relu_Conv2d_0\/Relu6:0",
      "blob_weights" : 3,
      "K" : 3,
      "blob_biases" : 1,
      "stride_x" : 2,
      "name" : "Conv2d_0\/Conv2D:0",
      "has_batch_norm" : 0,
      "type" : "convolution",
      "n_groups" : 1,
      "pad_t" : 0,
      "stride_y" : 2,
      "has_biases" : 1,
      "C" : 16,
      "bottom" : "image__0__fix__underflow___",
      "weights" : {

      },
      "Nx" : 3,
      "pad_mode" : 1,
      "pad_value" : 0,
      "Ny" : 3,
      "n_parallel" : 1
    },
    {
      "alpha" : -1,
      "bottom" : "relu_Conv2d_0\/Relu6:0",
      "weights" : {

      },
      "mode" : 6,
      "top" : "relu_Conv2d_0\/Relu6:0_neg",
      "type" : "activation",
      "name" : "relu_Conv2d_0\/Relu6:0_neg",
      "beta" : 0
    },
    {
      "alpha" : -6,
      "bottom" : "relu_Conv2d_0\/Relu6:0_neg",
      "operation" : 25,
      "weights" : {

      },
      "fused_relu" : 0,
      "top" : "relu_Conv2d_0\/Relu6:0_clip",
      "type" : "elementwise",
      "name" : "relu_Conv2d_0\/Relu6:0_clip",
      "beta" : 0
    },
    {
      "alpha" : -1,
      "bottom" : "relu_Conv2d_0\/Relu6:0_clip",
      "weights" : {

      },
      "mode" : 6,
      "top" : "Conv2d_0\/Relu6:0",
      "type" : "activation",
      "name" : "Conv2d_0\/Relu6:0",
      "beta" : 0
    },
    {
      "pad_r" : 0,
      "fused_relu" : 1,
      "fused_tanh" : 0,
      "pad_fill_mode" : 0,
      "pad_b" : 0,
      "pad_l" : 0,
      "top" : "relu_MobilenetV2\/MobilenetV2_part_0\/inverted_bottleneck_MobilenetV2_part_0_1\/MobilenetV2_part_0_1_up_pointwise\/BatchNorm\/Relu6:0",
      "blob_weights" : 7,
      "K" : 16,
      "blob_biases" : 5,
      "name" : "MobilenetV2\/MobilenetV2_part_0\/inverted_bottleneck_MobilenetV2_part_0_1\/MobilenetV2_part_0_1_up_pointwise\/Conv2D:0",
      "has_batch_norm" : 0,
      "type" : "convolution",
      "n_groups" : 1,
      "pad_t" : 0,
      "has_biases" : 1,
      "C" : 16,
      "bottom" : "Conv2d_0\/Relu6:0",
      "weights" : {

      },
      "pad_mode" : 1,
      "Nx" : 1,
      "pad_value" : 0,
      "Ny" : 1,
      "n_parallel" : 1
    },
    {
      "alpha" : -1,
      "bottom" : "relu_MobilenetV2\/MobilenetV2_part_0\/inverted_bottleneck_MobilenetV2_part_0_1\/MobilenetV2_part_0_1_up_pointwise\/BatchNorm\/Relu6:0",
      "weights" : {

      },
      "mode" : 6,
      "top" : "relu_MobilenetV2\/MobilenetV2_part_0\/inverted_bottleneck_MobilenetV2_part_0_1\/MobilenetV2_part_0_1_up_pointwise\/BatchNorm\/Relu6:0_neg",
      "type" : "activation",
      "name" : "relu_MobilenetV2\/MobilenetV2_part_0\/inverted_bottleneck_MobilenetV2_part_0_1\/MobilenetV2_part_0_1_up_pointwise\/BatchNorm\/Relu6:0_neg",
      "beta" : 0
    },
    {
      "alpha" : -6,
      "bottom" : "relu_MobilenetV2\/MobilenetV2_part_0\/inverted_bottleneck_MobilenetV2_part_0_1\/MobilenetV2_part_0_1_up_pointwise\/BatchNorm\/Relu6:0_neg",
      "operation" : 25,
      "weights" : {

      },
      "fused_relu" : 0,
      "top" : "relu_MobilenetV2\/MobilenetV2_part_0\/inverted_bottleneck_MobilenetV2_part_0_1\/MobilenetV2_part_0_1_up_pointwise\/BatchNorm\/Relu6:0_clip",
      "type" : "elementwise",
      "name" : "relu_MobilenetV2\/MobilenetV2_part_0\/inverted_bottleneck_MobilenetV2_part_0_1\/MobilenetV2_part_0_1_up_pointwise\/BatchNorm\/Relu6:0_clip",
      "beta" : 0
    },
    {
      "alpha" : -1,
      "bottom" : "relu_MobilenetV2\/MobilenetV2_part_0\/inverted_bottleneck_MobilenetV2_part_0_1\/MobilenetV2_part_0_1_up_pointwise\/BatchNorm\/Relu6:0_clip",
      "weights" : {

      },
      "mode" : 6,
      "top" : "MobilenetV2\/MobilenetV2_part_0\/inverted_bottleneck_MobilenetV2_part_0_1\/MobilenetV2_part_0_1_up_pointwise\/BatchNorm\/Relu6:0",
      "type" : "activation",
      "name" : "MobilenetV2\/MobilenetV2_part_0\/inverted_bottleneck_MobilenetV2_part_0_1\/MobilenetV2_part_0_1_up_pointwise\/BatchNorm\/Relu6:0",
      "beta" : 0
    },
    {
      "mode" : 0,
      "weights" : {

      },
      "top" : "MobilenetV2\/MobilenetV2_part_0\/inverted_bottleneck_MobilenetV2_part_0_1\/MobilenetV2_part_0_1_up_pointwise\/Relu:0",
      "type" : "activation",
      "name" : "MobilenetV2\/MobilenetV2_part_0\/inverted_bottleneck_MobilenetV2_part_0_1\/MobilenetV2_part_0_1_up_pointwise\/Relu:0",
      "bottom" : "MobilenetV2\/MobilenetV2_part_0\/inverted_bottleneck_MobilenetV2_part_0_1\/MobilenetV2_part_0_1_up_pointwise\/BatchNorm\/Relu6:0"
    },
    {
      "pad_r" : 0,
      "fused_relu" : 1,
      "fused_tanh" : 0,
      "pad_fill_mode" : 0,
      "pad_b" : 0,
      "pad_l" : 0,
      "top" : "MobilenetV2\/MobilenetV2_part_0\/inverted_bottleneck_MobilenetV2_part_0_1\/MobilenetV2_part_0_1_depthwise\/Relu:0",
      "blob_weights" : 9,
      "K" : 16,
      "name" : "MobilenetV2\/MobilenetV2_part_0\/inverted_bottleneck_MobilenetV2_part_0_1\/MobilenetV2_part_0_1_depthwise\/depthwise:0",
      "has_batch_norm" : 0,
      "type" : "convolution",
      "n_groups" : 16,
      "pad_t" : 0,
      "has_biases" : 0,
      "C" : 16,
      "bottom" : "MobilenetV2\/MobilenetV2_part_0\/inverted_bottleneck_MobilenetV2_part_0_1\/MobilenetV2_part_0_1_up_pointwise\/Relu:0",
      "weights" : {

      },
      "pad_mode" : 1,
      "Nx" : 3,
      "pad_value" : 0,
      "Ny" : 3,
      "n_parallel" : 1
    },
    {
      "pad_r" : 0,
      "fused_relu" : 1,
      "fused_tanh" : 0,
      "pad_fill_mode" : 0,
      "pad_b" : 0,
      "pad_l" : 0,
      "top" : "relu_MobilenetV2\/MobilenetV2_part_0\/inverted_bottleneck_MobilenetV2_part_0_1\/MobilenetV2_part_0_1_pointwise\/BatchNorm\/Relu6:0",
      "blob_weights" : 13,
      "K" : 16,
      "blob_biases" : 11,
      "name" : "MobilenetV2\/MobilenetV2_part_0\/inverted_bottleneck_MobilenetV2_part_0_1\/MobilenetV2_part_0_1_pointwise\/Conv2D:0",
      "has_batch_norm" : 0,
      "type" : "convolution",
      "n_groups" : 1,
      "pad_t" : 0,
      "has_biases" : 1,
      "C" : 8,
      "bottom" : "MobilenetV2\/MobilenetV2_part_0\/inverted_bottleneck_MobilenetV2_part_0_1\/MobilenetV2_part_0_1_depthwise\/Relu:0",
      "weights" : {

      },
      "pad_mode" : 1,
      "Nx" : 1,
      "pad_value" : 0,
      "Ny" : 1,
      "n_parallel" : 1
    },
    {
      "alpha" : -1,
      "bottom" : "relu_MobilenetV2\/MobilenetV2_part_0\/inverted_bottleneck_MobilenetV2_part_0_1\/MobilenetV2_part_0_1_pointwise\/BatchNorm\/Relu6:0",
      "weights" : {

      },
      "mode" : 6,
      "top" : "relu_MobilenetV2\/MobilenetV2_part_0\/inverted_bottleneck_MobilenetV2_part_0_1\/MobilenetV2_part_0_1_pointwise\/BatchNorm\/Relu6:0_neg",
      "type" : "activation",
      "name" : "relu_MobilenetV2\/MobilenetV2_part_0\/inverted_bottleneck_MobilenetV2_part_0_1\/MobilenetV2_part_0_1_pointwise\/BatchNorm\/Relu6:0_neg",
      "beta" : 0
    },
    {
      "alpha" : -6,
      "bottom" : "relu_MobilenetV2\/MobilenetV2_part_0\/inverted_bottleneck_MobilenetV2_part_0_1\/MobilenetV2_part_0_1_pointwise\/BatchNorm\/Relu6:0_neg",
      "operation" : 25,
      "weights" : {

      },
      "fused_relu" : 0,
      "top" : "relu_MobilenetV2\/MobilenetV2_part_0\/inverted_bottleneck_MobilenetV2_part_0_1\/MobilenetV2_part_0_1_pointwise\/BatchNorm\/Relu6:0_clip",
      "type" : "elementwise",
      "name" : "relu_MobilenetV2\/MobilenetV2_part_0\/inverted_bottleneck_MobilenetV2_part_0_1\/MobilenetV2_part_0_1_pointwise\/BatchNorm\/Relu6:0_clip",
      "beta" : 0
    },
    {
      "alpha" : -1,
      "bottom" : "relu_MobilenetV2\/MobilenetV2_part_0\/inverted_bottleneck_MobilenetV2_part_0_1\/MobilenetV2_part_0_1_pointwise\/BatchNorm\/Relu6:0_clip",
      "weights" : {

      },
      "mode" : 6,
      "top" : "MobilenetV2\/MobilenetV2_part_0\/inverted_bottleneck_MobilenetV2_part_0_1\/MobilenetV2_part_0_1_pointwise\/BatchNorm\/Relu6:0",
      "type" : "activation",
      "name" : "MobilenetV2\/MobilenetV2_part_0\/inverted_bottleneck_MobilenetV2_part_0_1\/MobilenetV2_part_0_1_pointwise\/BatchNorm\/Relu6:0",
      "beta" : 0
    },
    {
      "pad_r" : 0,
      "fused_relu" : 1,
      "fused_tanh" : 0,
      "pad_fill_mode" : 0,
      "pad_b" : 0,
      "pad_l" : 0,
      "top" : "relu_MobilenetV2\/MobilenetV2_part_0\/inverted_bottleneck_MobilenetV2_part_0_2\/MobilenetV2_part_0_2_up_pointwise\/BatchNorm\/Relu6:0",
      "blob_weights" : 17,
      "K" : 8,
      "blob_biases" : 15,
      "name" : "MobilenetV2\/MobilenetV2_part_0\/inverted_bottleneck_MobilenetV2_part_0_2\/MobilenetV2_part_0_2_up_pointwise\/Conv2D:0",
      "has_batch_norm" : 0,
      "type" : "convolution",
      "n_groups" : 1,
      "pad_t" : 0,
      "has_biases" : 1,
      "C" : 8,
      "bottom" : "MobilenetV2\/MobilenetV2_part_0\/inverted_bottleneck_MobilenetV2_part_0_1\/MobilenetV2_part_0_1_pointwise\/BatchNorm\/Relu6:0",
      "weights" : {

      },
      "pad_mode" : 1,
      "Nx" : 1,
      "pad_value" : 0,
      "Ny" : 1,
      "n_parallel" : 1
    },
    {
      "alpha" : -1,
      "bottom" : "relu_MobilenetV2\/MobilenetV2_part_0\/inverted_bottleneck_MobilenetV2_part_0_2\/MobilenetV2_part_0_2_up_pointwise\/BatchNorm\/Relu6:0",
      "weights" : {

      },
      "mode" : 6,
      "top" : "relu_MobilenetV2\/MobilenetV2_part_0\/inverted_bottleneck_MobilenetV2_part_0_2\/MobilenetV2_part_0_2_up_pointwise\/BatchNorm\/Relu6:0_neg",
      "type" : "activation",
      "name" : "relu_MobilenetV2\/MobilenetV2_part_0\/inverted_bottleneck_MobilenetV2_part_0_2\/MobilenetV2_part_0_2_up_pointwise\/BatchNorm\/Relu6:0_neg",
      "beta" : 0
    },
    {
      "alpha" : -6,
      "bottom" : "relu_MobilenetV2\/MobilenetV2_part_0\/inverted_bottleneck_MobilenetV2_part_0_2\/MobilenetV2_part_0_2_up_pointwise\/BatchNorm\/Relu6:0_neg",
      "operation" : 25,
      "weights" : {

      },
      "fused_relu" : 0,
      "top" : "relu_MobilenetV2\/MobilenetV2_part_0\/inverted_bottleneck_MobilenetV2_part_0_2\/MobilenetV2_part_0_2_up_pointwise\/BatchNorm\/Relu6:0_clip",
      "type" : "elementwise",
      "name" : "relu_MobilenetV2\/MobilenetV2_part_0\/inverted_bottleneck_MobilenetV2_part_0_2\/MobilenetV2_part_0_2_up_pointwise\/BatchNorm\/Relu6:0_clip",
      "beta" : 0
    },
    {
      "alpha" : -1,
      "bottom" : "relu_MobilenetV2\/MobilenetV2_part_0\/inverted_bottleneck_MobilenetV2_part_0_2\/MobilenetV2_part_0_2_up_pointwise\/BatchNorm\/Relu6:0_clip",
      "weights" : {

      },
      "mode" : 6,
      "top" : "MobilenetV2\/MobilenetV2_part_0\/inverted_bottleneck_MobilenetV2_part_0_2\/MobilenetV2_part_0_2_up_pointwise\/BatchNorm\/Relu6:0",
      "type" : "activation",
      "name" : "MobilenetV2\/MobilenetV2_part_0\/inverted_bottleneck_MobilenetV2_part_0_2\/MobilenetV2_part_0_2_up_pointwise\/BatchNorm\/Relu6:0",
      "beta" : 0
    },
    {
      "mode" : 0,
      "weights" : {

      },
      "top" : "MobilenetV2\/MobilenetV2_part_0\/inverted_bottleneck_MobilenetV2_part_0_2\/MobilenetV2_part_0_2_up_pointwise\/Relu:0",
      "type" : "activation",
      "name" : "MobilenetV2\/MobilenetV2_part_0\/inverted_bottleneck_MobilenetV2_part_0_2\/MobilenetV2_part_0_2_up_pointwise\/Relu:0",
      "bottom" : "MobilenetV2\/MobilenetV2_part_0\/inverted_bottleneck_MobilenetV2_part_0_2\/MobilenetV2_part_0_2_up_pointwise\/BatchNorm\/Relu6:0"
    },
    {
      "pad_r" : 0,
      "fused_relu" : 1,
      "fused_tanh" : 0,
      "pad_fill_mode" : 0,
      "pad_b" : 0,
      "pad_l" : 0,
      "top" : "MobilenetV2\/MobilenetV2_part_0\/inverted_bottleneck_MobilenetV2_part_0_2\/MobilenetV2_part_0_2_depthwise\/Relu:0",
      "blob_weights" : 19,
      "K" : 8,
      "name" : "MobilenetV2\/MobilenetV2_part_0\/inverted_bottleneck_MobilenetV2_part_0_2\/MobilenetV2_part_0_2_depthwise\/depthwise:0",
      "has_batch_norm" : 0,
      "type" : "convolution",
      "n_groups" : 8,
      "pad_t" : 0,
      "has_biases" : 0,
      "C" : 8,
      "bottom" : "MobilenetV2\/MobilenetV2_part_0\/inverted_bottleneck_MobilenetV2_part_0_2\/MobilenetV2_part_0_2_up_pointwise\/Relu:0",
      "weights" : {

      },
      "pad_mode" : 1,
      "Nx" : 3,
      "pad_value" : 0,
      "Ny" : 3,
      "n_parallel" : 1
    },
    {
      "pad_r" : 0,
      "fused_relu" : 1,
      "fused_tanh" : 0,
      "pad_fill_mode" : 0,
      "pad_b" : 0,
      "pad_l" : 0,
      "top" : "relu_MobilenetV2\/MobilenetV2_part_0\/inverted_bottleneck_MobilenetV2_part_0_2\/MobilenetV2_part_0_2_pointwise\/BatchNorm\/Relu6:0",
      "blob_weights" : 23,
      "K" : 8,
      "blob_biases" : 21,
      "name" : "MobilenetV2\/MobilenetV2_part_0\/inverted_bottleneck_MobilenetV2_part_0_2\/MobilenetV2_part_0_2_pointwise\/Conv2D:0",
      "has_batch_norm" : 0,
      "type" : "convolution",
      "n_groups" : 1,
      "pad_t" : 0,
      "has_biases" : 1,
      "C" : 8,
      "bottom" : "MobilenetV2\/MobilenetV2_part_0\/inverted_bottleneck_MobilenetV2_part_0_2\/MobilenetV2_part_0_2_depthwise\/Relu:0",
      "weights" : {

      },
      "pad_mode" : 1,
      "Nx" : 1,
      "pad_value" : 0,
      "Ny" : 1,
      "n_parallel" : 1
    },
    {
      "alpha" : -1,
      "bottom" : "relu_MobilenetV2\/MobilenetV2_part_0\/inverted_bottleneck_MobilenetV2_part_0_2\/MobilenetV2_part_0_2_pointwise\/BatchNorm\/Relu6:0",
      "weights" : {

      },
      "mode" : 6,
      "top" : "relu_MobilenetV2\/MobilenetV2_part_0\/inverted_bottleneck_MobilenetV2_part_0_2\/MobilenetV2_part_0_2_pointwise\/BatchNorm\/Relu6:0_neg",
      "type" : "activation",
      "name" : "relu_MobilenetV2\/MobilenetV2_part_0\/inverted_bottleneck_MobilenetV2_part_0_2\/MobilenetV2_part_0_2_pointwise\/BatchNorm\/Relu6:0_neg",
      "beta" : 0
    },
    {
      "alpha" : -6,
      "bottom" : "relu_MobilenetV2\/MobilenetV2_part_0\/inverted_bottleneck_MobilenetV2_part_0_2\/MobilenetV2_part_0_2_pointwise\/BatchNorm\/Relu6:0_neg",
      "operation" : 25,
      "weights" : {

      },
      "fused_relu" : 0,
      "top" : "relu_MobilenetV2\/MobilenetV2_part_0\/inverted_bottleneck_MobilenetV2_part_0_2\/MobilenetV2_part_0_2_pointwise\/BatchNorm\/Relu6:0_clip",
      "type" : "elementwise",
      "name" : "relu_MobilenetV2\/MobilenetV2_part_0\/inverted_bottleneck_MobilenetV2_part_0_2\/MobilenetV2_part_0_2_pointwise\/BatchNorm\/Relu6:0_clip",
      "beta" : 0
    },
    {
      "alpha" : -1,
      "bottom" : "relu_MobilenetV2\/MobilenetV2_part_0\/inverted_bottleneck_MobilenetV2_part_0_2\/MobilenetV2_part_0_2_pointwise\/BatchNorm\/Relu6:0_clip",
      "weights" : {

      },
      "mode" : 6,
      "top" : "MobilenetV2\/MobilenetV2_part_0\/inverted_bottleneck_MobilenetV2_part_0_2\/MobilenetV2_part_0_2_pointwise\/BatchNorm\/Relu6:0",
      "type" : "activation",
      "name" : "MobilenetV2\/MobilenetV2_part_0\/inverted_bottleneck_MobilenetV2_part_0_2\/MobilenetV2_part_0_2_pointwise\/BatchNorm\/Relu6:0",
      "beta" : 0
    },
    {
      "alpha" : 1,
      "bottom" : "MobilenetV2\/MobilenetV2_part_0\/inverted_bottleneck_MobilenetV2_part_0_1\/MobilenetV2_part_0_1_pointwise\/BatchNorm\/Relu6:0,MobilenetV2\/MobilenetV2_part_0\/inverted_bottleneck_MobilenetV2_part_0_2\/MobilenetV2_part_0_2_pointwise\/BatchNorm\/Relu6:0",
      "operation" : 0,
      "weights" : {

      },
      "fused_relu" : 0,
      "top" : "MobilenetV2\/MobilenetV2_part_0\/inverted_bottleneck_MobilenetV2_part_0_2\/Add:0",
      "type" : "elementwise",
      "name" : "MobilenetV2\/MobilenetV2_part_0\/inverted_bottleneck_MobilenetV2_part_0_2\/Add:0",
      "beta" : 0
    },
    {
      "pad_value" : 0,
      "average_count_exclude_padding" : 1,
      "top_shape_style" : 0,
      "avg_or_max" : 1,
      "stride_x" : 4,
      "pad_mode" : 1,
      "stride_y" : 4,
      "pad_t" : 0,
      "weights" : {

      },
      "size_y" : 4,
      "type" : "pool",
      "pad_r" : 0,
      "pad_b" : 0,
      "size_x" : 4,
      "pad_fill_mode" : 0,
      "bottom" : "MobilenetV2\/MobilenetV2_part_0\/inverted_bottleneck_MobilenetV2_part_0_2\/Add:0",
      "pad_l" : 0,
      "name" : "MobilenetV2\/mv2_0_max_pool:0",
      "top" : "MobilenetV2\/mv2_0_max_pool:0"
    },
    {
      "pad_r" : 0,
      "fused_relu" : 1,
      "fused_tanh" : 0,
      "pad_fill_mode" : 0,
      "pad_b" : 0,
      "pad_l" : 0,
      "top" : "relu_MobilenetV2\/MobilenetV2_part_1\/inverted_bottleneck_MobilenetV2_part_1_1\/MobilenetV2_part_1_1_up_pointwise\/BatchNorm\/Relu6:0",
      "blob_weights" : 27,
      "K" : 8,
      "blob_biases" : 25,
      "name" : "MobilenetV2\/MobilenetV2_part_1\/inverted_bottleneck_MobilenetV2_part_1_1\/MobilenetV2_part_1_1_up_pointwise\/Conv2D:0",
      "has_batch_norm" : 0,
      "type" : "convolution",
      "n_groups" : 1,
      "pad_t" : 0,
      "has_biases" : 1,
      "C" : 32,
      "bottom" : "MobilenetV2\/MobilenetV2_part_0\/inverted_bottleneck_MobilenetV2_part_0_2\/Add:0",
      "weights" : {

      },
      "pad_mode" : 1,
      "Nx" : 1,
      "pad_value" : 0,
      "Ny" : 1,
      "n_parallel" : 1
    },
    {
      "alpha" : -1,
      "bottom" : "relu_MobilenetV2\/MobilenetV2_part_1\/inverted_bottleneck_MobilenetV2_part_1_1\/MobilenetV2_part_1_1_up_pointwise\/BatchNorm\/Relu6:0",
      "weights" : {

      },
      "mode" : 6,
      "top" : "relu_MobilenetV2\/MobilenetV2_part_1\/inverted_bottleneck_MobilenetV2_part_1_1\/MobilenetV2_part_1_1_up_pointwise\/BatchNorm\/Relu6:0_neg",
      "type" : "activation",
      "name" : "relu_MobilenetV2\/MobilenetV2_part_1\/inverted_bottleneck_MobilenetV2_part_1_1\/MobilenetV2_part_1_1_up_pointwise\/BatchNorm\/Relu6:0_neg",
      "beta" : 0
    },
    {
      "alpha" : -6,
      "bottom" : "relu_MobilenetV2\/MobilenetV2_part_1\/inverted_bottleneck_MobilenetV2_part_1_1\/MobilenetV2_part_1_1_up_pointwise\/BatchNorm\/Relu6:0_neg",
      "operation" : 25,
      "weights" : {

      },
      "fused_relu" : 0,
      "top" : "relu_MobilenetV2\/MobilenetV2_part_1\/inverted_bottleneck_MobilenetV2_part_1_1\/MobilenetV2_part_1_1_up_pointwise\/BatchNorm\/Relu6:0_clip",
      "type" : "elementwise",
      "name" : "relu_MobilenetV2\/MobilenetV2_part_1\/inverted_bottleneck_MobilenetV2_part_1_1\/MobilenetV2_part_1_1_up_pointwise\/BatchNorm\/Relu6:0_clip",
      "beta" : 0
    },
    {
      "alpha" : -1,
      "bottom" : "relu_MobilenetV2\/MobilenetV2_part_1\/inverted_bottleneck_MobilenetV2_part_1_1\/MobilenetV2_part_1_1_up_pointwise\/BatchNorm\/Relu6:0_clip",
      "weights" : {

      },
      "mode" : 6,
      "top" : "MobilenetV2\/MobilenetV2_part_1\/inverted_bottleneck_MobilenetV2_part_1_1\/MobilenetV2_part_1_1_up_pointwise\/BatchNorm\/Relu6:0",
      "type" : "activation",
      "name" : "MobilenetV2\/MobilenetV2_part_1\/inverted_bottleneck_MobilenetV2_part_1_1\/MobilenetV2_part_1_1_up_pointwise\/BatchNorm\/Relu6:0",
      "beta" : 0
    },
    {
      "mode" : 0,
      "weights" : {

      },
      "top" : "MobilenetV2\/MobilenetV2_part_1\/inverted_bottleneck_MobilenetV2_part_1_1\/MobilenetV2_part_1_1_up_pointwise\/Relu:0",
      "type" : "activation",
      "name" : "MobilenetV2\/MobilenetV2_part_1\/inverted_bottleneck_MobilenetV2_part_1_1\/MobilenetV2_part_1_1_up_pointwise\/Relu:0",
      "bottom" : "MobilenetV2\/MobilenetV2_part_1\/inverted_bottleneck_MobilenetV2_part_1_1\/MobilenetV2_part_1_1_up_pointwise\/BatchNorm\/Relu6:0"
    },
    {
      "pad_r" : 0,
      "fused_relu" : 1,
      "fused_tanh" : 0,
      "pad_fill_mode" : 0,
      "pad_b" : 0,
      "pad_l" : 0,
      "top" : "MobilenetV2\/MobilenetV2_part_1\/inverted_bottleneck_MobilenetV2_part_1_1\/MobilenetV2_part_1_1_depthwise\/Relu:0",
      "blob_weights" : 29,
      "K" : 32,
      "stride_x" : 2,
      "name" : "MobilenetV2\/MobilenetV2_part_1\/inverted_bottleneck_MobilenetV2_part_1_1\/MobilenetV2_part_1_1_depthwise\/depthwise:0",
      "has_batch_norm" : 0,
      "type" : "convolution",
      "n_groups" : 32,
      "pad_t" : 0,
      "stride_y" : 2,
      "has_biases" : 0,
      "C" : 32,
      "bottom" : "MobilenetV2\/MobilenetV2_part_1\/inverted_bottleneck_MobilenetV2_part_1_1\/MobilenetV2_part_1_1_up_pointwise\/Relu:0",
      "weights" : {

      },
      "Nx" : 3,
      "pad_mode" : 1,
      "pad_value" : 0,
      "Ny" : 3,
      "n_parallel" : 1
    },
    {
      "pad_r" : 0,
      "fused_relu" : 1,
      "fused_tanh" : 0,
      "pad_fill_mode" : 0,
      "pad_b" : 0,
      "pad_l" : 0,
      "top" : "relu_MobilenetV2\/MobilenetV2_part_1\/inverted_bottleneck_MobilenetV2_part_1_1\/MobilenetV2_part_1_1_pointwise\/BatchNorm\/Relu6:0",
      "blob_weights" : 33,
      "K" : 32,
      "blob_biases" : 31,
      "name" : "MobilenetV2\/MobilenetV2_part_1\/inverted_bottleneck_MobilenetV2_part_1_1\/MobilenetV2_part_1_1_pointwise\/Conv2D:0",
      "has_batch_norm" : 0,
      "type" : "convolution",
      "n_groups" : 1,
      "pad_t" : 0,
      "has_biases" : 1,
      "C" : 12,
      "bottom" : "MobilenetV2\/MobilenetV2_part_1\/inverted_bottleneck_MobilenetV2_part_1_1\/MobilenetV2_part_1_1_depthwise\/Relu:0",
      "weights" : {

      },
      "pad_mode" : 1,
      "Nx" : 1,
      "pad_value" : 0,
      "Ny" : 1,
      "n_parallel" : 1
    },
    {
      "alpha" : -1,
      "bottom" : "relu_MobilenetV2\/MobilenetV2_part_1\/inverted_bottleneck_MobilenetV2_part_1_1\/MobilenetV2_part_1_1_pointwise\/BatchNorm\/Relu6:0",
      "weights" : {

      },
      "mode" : 6,
      "top" : "relu_MobilenetV2\/MobilenetV2_part_1\/inverted_bottleneck_MobilenetV2_part_1_1\/MobilenetV2_part_1_1_pointwise\/BatchNorm\/Relu6:0_neg",
      "type" : "activation",
      "name" : "relu_MobilenetV2\/MobilenetV2_part_1\/inverted_bottleneck_MobilenetV2_part_1_1\/MobilenetV2_part_1_1_pointwise\/BatchNorm\/Relu6:0_neg",
      "beta" : 0
    },
    {
      "alpha" : -6,
      "bottom" : "relu_MobilenetV2\/MobilenetV2_part_1\/inverted_bottleneck_MobilenetV2_part_1_1\/MobilenetV2_part_1_1_pointwise\/BatchNorm\/Relu6:0_neg",
      "operation" : 25,
      "weights" : {

      },
      "fused_relu" : 0,
      "top" : "relu_MobilenetV2\/MobilenetV2_part_1\/inverted_bottleneck_MobilenetV2_part_1_1\/MobilenetV2_part_1_1_pointwise\/BatchNorm\/Relu6:0_clip",
      "type" : "elementwise",
      "name" : "relu_MobilenetV2\/MobilenetV2_part_1\/inverted_bottleneck_MobilenetV2_part_1_1\/MobilenetV2_part_1_1_pointwise\/BatchNorm\/Relu6:0_clip",
      "beta" : 0
    },
    {
      "alpha" : -1,
      "bottom" : "relu_MobilenetV2\/MobilenetV2_part_1\/inverted_bottleneck_MobilenetV2_part_1_1\/MobilenetV2_part_1_1_pointwise\/BatchNorm\/Relu6:0_clip",
      "weights" : {

      },
      "mode" : 6,
      "top" : "MobilenetV2\/MobilenetV2_part_1\/inverted_bottleneck_MobilenetV2_part_1_1\/MobilenetV2_part_1_1_pointwise\/BatchNorm\/Relu6:0",
      "type" : "activation",
      "name" : "MobilenetV2\/MobilenetV2_part_1\/inverted_bottleneck_MobilenetV2_part_1_1\/MobilenetV2_part_1_1_pointwise\/BatchNorm\/Relu6:0",
      "beta" : 0
    },
    {
      "pad_r" : 0,
      "fused_relu" : 1,
      "fused_tanh" : 0,
      "pad_fill_mode" : 0,
      "pad_b" : 0,
      "pad_l" : 0,
      "top" : "relu_MobilenetV2\/MobilenetV2_part_1\/inverted_bottleneck_MobilenetV2_part_1_2\/MobilenetV2_part_1_2_up_pointwise\/BatchNorm\/Relu6:0",
      "blob_weights" : 37,
      "K" : 12,
      "blob_biases" : 35,
      "name" : "MobilenetV2\/MobilenetV2_part_1\/inverted_bottleneck_MobilenetV2_part_1_2\/MobilenetV2_part_1_2_up_pointwise\/Conv2D:0",
      "has_batch_norm" : 0,
      "type" : "convolution",
      "n_groups" : 1,
      "pad_t" : 0,
      "has_biases" : 1,
      "C" : 48,
      "bottom" : "MobilenetV2\/MobilenetV2_part_1\/inverted_bottleneck_MobilenetV2_part_1_1\/MobilenetV2_part_1_1_pointwise\/BatchNorm\/Relu6:0",
      "weights" : {

      },
      "pad_mode" : 1,
      "Nx" : 1,
      "pad_value" : 0,
      "Ny" : 1,
      "n_parallel" : 1
    },
    {
      "alpha" : -1,
      "bottom" : "relu_MobilenetV2\/MobilenetV2_part_1\/inverted_bottleneck_MobilenetV2_part_1_2\/MobilenetV2_part_1_2_up_pointwise\/BatchNorm\/Relu6:0",
      "weights" : {

      },
      "mode" : 6,
      "top" : "relu_MobilenetV2\/MobilenetV2_part_1\/inverted_bottleneck_MobilenetV2_part_1_2\/MobilenetV2_part_1_2_up_pointwise\/BatchNorm\/Relu6:0_neg",
      "type" : "activation",
      "name" : "relu_MobilenetV2\/MobilenetV2_part_1\/inverted_bottleneck_MobilenetV2_part_1_2\/MobilenetV2_part_1_2_up_pointwise\/BatchNorm\/Relu6:0_neg",
      "beta" : 0
    },
    {
      "alpha" : -6,
      "bottom" : "relu_MobilenetV2\/MobilenetV2_part_1\/inverted_bottleneck_MobilenetV2_part_1_2\/MobilenetV2_part_1_2_up_pointwise\/BatchNorm\/Relu6:0_neg",
      "operation" : 25,
      "weights" : {

      },
      "fused_relu" : 0,
      "top" : "relu_MobilenetV2\/MobilenetV2_part_1\/inverted_bottleneck_MobilenetV2_part_1_2\/MobilenetV2_part_1_2_up_pointwise\/BatchNorm\/Relu6:0_clip",
      "type" : "elementwise",
      "name" : "relu_MobilenetV2\/MobilenetV2_part_1\/inverted_bottleneck_MobilenetV2_part_1_2\/MobilenetV2_part_1_2_up_pointwise\/BatchNorm\/Relu6:0_clip",
      "beta" : 0
    },
    {
      "alpha" : -1,
      "bottom" : "relu_MobilenetV2\/MobilenetV2_part_1\/inverted_bottleneck_MobilenetV2_part_1_2\/MobilenetV2_part_1_2_up_pointwise\/BatchNorm\/Relu6:0_clip",
      "weights" : {

      },
      "mode" : 6,
      "top" : "MobilenetV2\/MobilenetV2_part_1\/inverted_bottleneck_MobilenetV2_part_1_2\/MobilenetV2_part_1_2_up_pointwise\/BatchNorm\/Relu6:0",
      "type" : "activation",
      "name" : "MobilenetV2\/MobilenetV2_part_1\/inverted_bottleneck_MobilenetV2_part_1_2\/MobilenetV2_part_1_2_up_pointwise\/BatchNorm\/Relu6:0",
      "beta" : 0
    },
    {
      "mode" : 0,
      "weights" : {

      },
      "top" : "MobilenetV2\/MobilenetV2_part_1\/inverted_bottleneck_MobilenetV2_part_1_2\/MobilenetV2_part_1_2_up_pointwise\/Relu:0",
      "type" : "activation",
      "name" : "MobilenetV2\/MobilenetV2_part_1\/inverted_bottleneck_MobilenetV2_part_1_2\/MobilenetV2_part_1_2_up_pointwise\/Relu:0",
      "bottom" : "MobilenetV2\/MobilenetV2_part_1\/inverted_bottleneck_MobilenetV2_part_1_2\/MobilenetV2_part_1_2_up_pointwise\/BatchNorm\/Relu6:0"
    },
    {
      "pad_r" : 0,
      "fused_relu" : 1,
      "fused_tanh" : 0,
      "pad_fill_mode" : 0,
      "pad_b" : 0,
      "pad_l" : 0,
      "top" : "MobilenetV2\/MobilenetV2_part_1\/inverted_bottleneck_MobilenetV2_part_1_2\/MobilenetV2_part_1_2_depthwise\/Relu:0",
      "blob_weights" : 39,
      "K" : 48,
      "name" : "MobilenetV2\/MobilenetV2_part_1\/inverted_bottleneck_MobilenetV2_part_1_2\/MobilenetV2_part_1_2_depthwise\/depthwise:0",
      "has_batch_norm" : 0,
      "type" : "convolution",
      "n_groups" : 48,
      "pad_t" : 0,
      "has_biases" : 0,
      "C" : 48,
      "bottom" : "MobilenetV2\/MobilenetV2_part_1\/inverted_bottleneck_MobilenetV2_part_1_2\/MobilenetV2_part_1_2_up_pointwise\/Relu:0",
      "weights" : {

      },
      "pad_mode" : 1,
      "Nx" : 3,
      "pad_value" : 0,
      "Ny" : 3,
      "n_parallel" : 1
    },
    {
      "pad_r" : 0,
      "fused_relu" : 1,
      "fused_tanh" : 0,
      "pad_fill_mode" : 0,
      "pad_b" : 0,
      "pad_l" : 0,
      "top" : "relu_MobilenetV2\/MobilenetV2_part_1\/inverted_bottleneck_MobilenetV2_part_1_2\/MobilenetV2_part_1_2_pointwise\/BatchNorm\/Relu6:0",
      "blob_weights" : 43,
      "K" : 48,
      "blob_biases" : 41,
      "name" : "MobilenetV2\/MobilenetV2_part_1\/inverted_bottleneck_MobilenetV2_part_1_2\/MobilenetV2_part_1_2_pointwise\/Conv2D:0",
      "has_batch_norm" : 0,
      "type" : "convolution",
      "n_groups" : 1,
      "pad_t" : 0,
      "has_biases" : 1,
      "C" : 12,
      "bottom" : "MobilenetV2\/MobilenetV2_part_1\/inverted_bottleneck_MobilenetV2_part_1_2\/MobilenetV2_part_1_2_depthwise\/Relu:0",
      "weights" : {

      },
      "pad_mode" : 1,
      "Nx" : 1,
      "pad_value" : 0,
      "Ny" : 1,
      "n_parallel" : 1
    },
    {
      "alpha" : -1,
      "bottom" : "relu_MobilenetV2\/MobilenetV2_part_1\/inverted_bottleneck_MobilenetV2_part_1_2\/MobilenetV2_part_1_2_pointwise\/BatchNorm\/Relu6:0",
      "weights" : {

      },
      "mode" : 6,
      "top" : "relu_MobilenetV2\/MobilenetV2_part_1\/inverted_bottleneck_MobilenetV2_part_1_2\/MobilenetV2_part_1_2_pointwise\/BatchNorm\/Relu6:0_neg",
      "type" : "activation",
      "name" : "relu_MobilenetV2\/MobilenetV2_part_1\/inverted_bottleneck_MobilenetV2_part_1_2\/MobilenetV2_part_1_2_pointwise\/BatchNorm\/Relu6:0_neg",
      "beta" : 0
    },
    {
      "alpha" : -6,
      "bottom" : "relu_MobilenetV2\/MobilenetV2_part_1\/inverted_bottleneck_MobilenetV2_part_1_2\/MobilenetV2_part_1_2_pointwise\/BatchNorm\/Relu6:0_neg",
      "operation" : 25,
      "weights" : {

      },
      "fused_relu" : 0,
      "top" : "relu_MobilenetV2\/MobilenetV2_part_1\/inverted_bottleneck_MobilenetV2_part_1_2\/MobilenetV2_part_1_2_pointwise\/BatchNorm\/Relu6:0_clip",
      "type" : "elementwise",
      "name" : "relu_MobilenetV2\/MobilenetV2_part_1\/inverted_bottleneck_MobilenetV2_part_1_2\/MobilenetV2_part_1_2_pointwise\/BatchNorm\/Relu6:0_clip",
      "beta" : 0
    },
    {
      "alpha" : -1,
      "bottom" : "relu_MobilenetV2\/MobilenetV2_part_1\/inverted_bottleneck_MobilenetV2_part_1_2\/MobilenetV2_part_1_2_pointwise\/BatchNorm\/Relu6:0_clip",
      "weights" : {

      },
      "mode" : 6,
      "top" : "MobilenetV2\/MobilenetV2_part_1\/inverted_bottleneck_MobilenetV2_part_1_2\/MobilenetV2_part_1_2_pointwise\/BatchNorm\/Relu6:0",
      "type" : "activation",
      "name" : "MobilenetV2\/MobilenetV2_part_1\/inverted_bottleneck_MobilenetV2_part_1_2\/MobilenetV2_part_1_2_pointwise\/BatchNorm\/Relu6:0",
      "beta" : 0
    },
    {
      "alpha" : 1,
      "bottom" : "MobilenetV2\/MobilenetV2_part_1\/inverted_bottleneck_MobilenetV2_part_1_1\/MobilenetV2_part_1_1_pointwise\/BatchNorm\/Relu6:0,MobilenetV2\/MobilenetV2_part_1\/inverted_bottleneck_MobilenetV2_part_1_2\/MobilenetV2_part_1_2_pointwise\/BatchNorm\/Relu6:0",
      "operation" : 0,
      "weights" : {

      },
      "fused_relu" : 0,
      "top" : "MobilenetV2\/MobilenetV2_part_1\/inverted_bottleneck_MobilenetV2_part_1_2\/Add:0",
      "type" : "elementwise",
      "name" : "MobilenetV2\/MobilenetV2_part_1\/inverted_bottleneck_MobilenetV2_part_1_2\/Add:0",
      "beta" : 0
    },
    {
      "pad_r" : 0,
      "fused_relu" : 1,
      "fused_tanh" : 0,
      "pad_fill_mode" : 0,
      "pad_b" : 0,
      "pad_l" : 0,
      "top" : "relu_MobilenetV2\/MobilenetV2_part_1\/inverted_bottleneck_MobilenetV2_part_1_3\/MobilenetV2_part_1_3_up_pointwise\/BatchNorm\/Relu6:0",
      "blob_weights" : 47,
      "K" : 12,
      "blob_biases" : 45,
      "name" : "MobilenetV2\/MobilenetV2_part_1\/inverted_bottleneck_MobilenetV2_part_1_3\/MobilenetV2_part_1_3_up_pointwise\/Conv2D:0",
      "has_batch_norm" : 0,
      "type" : "convolution",
      "n_groups" : 1,
      "pad_t" : 0,
      "has_biases" : 1,
      "C" : 48,
      "bottom" : "MobilenetV2\/MobilenetV2_part_1\/inverted_bottleneck_MobilenetV2_part_1_2\/Add:0",
      "weights" : {

      },
      "pad_mode" : 1,
      "Nx" : 1,
      "pad_value" : 0,
      "Ny" : 1,
      "n_parallel" : 1
    },
    {
      "alpha" : -1,
      "bottom" : "relu_MobilenetV2\/MobilenetV2_part_1\/inverted_bottleneck_MobilenetV2_part_1_3\/MobilenetV2_part_1_3_up_pointwise\/BatchNorm\/Relu6:0",
      "weights" : {

      },
      "mode" : 6,
      "top" : "relu_MobilenetV2\/MobilenetV2_part_1\/inverted_bottleneck_MobilenetV2_part_1_3\/MobilenetV2_part_1_3_up_pointwise\/BatchNorm\/Relu6:0_neg",
      "type" : "activation",
      "name" : "relu_MobilenetV2\/MobilenetV2_part_1\/inverted_bottleneck_MobilenetV2_part_1_3\/MobilenetV2_part_1_3_up_pointwise\/BatchNorm\/Relu6:0_neg",
      "beta" : 0
    },
    {
      "alpha" : -6,
      "bottom" : "relu_MobilenetV2\/MobilenetV2_part_1\/inverted_bottleneck_MobilenetV2_part_1_3\/MobilenetV2_part_1_3_up_pointwise\/BatchNorm\/Relu6:0_neg",
      "operation" : 25,
      "weights" : {

      },
      "fused_relu" : 0,
      "top" : "relu_MobilenetV2\/MobilenetV2_part_1\/inverted_bottleneck_MobilenetV2_part_1_3\/MobilenetV2_part_1_3_up_pointwise\/BatchNorm\/Relu6:0_clip",
      "type" : "elementwise",
      "name" : "relu_MobilenetV2\/MobilenetV2_part_1\/inverted_bottleneck_MobilenetV2_part_1_3\/MobilenetV2_part_1_3_up_pointwise\/BatchNorm\/Relu6:0_clip",
      "beta" : 0
    },
    {
      "alpha" : -1,
      "bottom" : "relu_MobilenetV2\/MobilenetV2_part_1\/inverted_bottleneck_MobilenetV2_part_1_3\/MobilenetV2_part_1_3_up_pointwise\/BatchNorm\/Relu6:0_clip",
      "weights" : {

      },
      "mode" : 6,
      "top" : "MobilenetV2\/MobilenetV2_part_1\/inverted_bottleneck_MobilenetV2_part_1_3\/MobilenetV2_part_1_3_up_pointwise\/BatchNorm\/Relu6:0",
      "type" : "activation",
      "name" : "MobilenetV2\/MobilenetV2_part_1\/inverted_bottleneck_MobilenetV2_part_1_3\/MobilenetV2_part_1_3_up_pointwise\/BatchNorm\/Relu6:0",
      "beta" : 0
    },
    {
      "mode" : 0,
      "weights" : {

      },
      "top" : "MobilenetV2\/MobilenetV2_part_1\/inverted_bottleneck_MobilenetV2_part_1_3\/MobilenetV2_part_1_3_up_pointwise\/Relu:0",
      "type" : "activation",
      "name" : "MobilenetV2\/MobilenetV2_part_1\/inverted_bottleneck_MobilenetV2_part_1_3\/MobilenetV2_part_1_3_up_pointwise\/Relu:0",
      "bottom" : "MobilenetV2\/MobilenetV2_part_1\/inverted_bottleneck_MobilenetV2_part_1_3\/MobilenetV2_part_1_3_up_pointwise\/BatchNorm\/Relu6:0"
    },
    {
      "pad_r" : 0,
      "fused_relu" : 1,
      "fused_tanh" : 0,
      "pad_fill_mode" : 0,
      "pad_b" : 0,
      "pad_l" : 0,
      "top" : "MobilenetV2\/MobilenetV2_part_1\/inverted_bottleneck_MobilenetV2_part_1_3\/MobilenetV2_part_1_3_depthwise\/Relu:0",
      "blob_weights" : 49,
      "K" : 48,
      "name" : "MobilenetV2\/MobilenetV2_part_1\/inverted_bottleneck_MobilenetV2_part_1_3\/MobilenetV2_part_1_3_depthwise\/depthwise:0",
      "has_batch_norm" : 0,
      "type" : "convolution",
      "n_groups" : 48,
      "pad_t" : 0,
      "has_biases" : 0,
      "C" : 48,
      "bottom" : "MobilenetV2\/MobilenetV2_part_1\/inverted_bottleneck_MobilenetV2_part_1_3\/MobilenetV2_part_1_3_up_pointwise\/Relu:0",
      "weights" : {

      },
      "pad_mode" : 1,
      "Nx" : 3,
      "pad_value" : 0,
      "Ny" : 3,
      "n_parallel" : 1
    },
    {
      "pad_r" : 0,
      "fused_relu" : 1,
      "fused_tanh" : 0,
      "pad_fill_mode" : 0,
      "pad_b" : 0,
      "pad_l" : 0,
      "top" : "relu_MobilenetV2\/MobilenetV2_part_1\/inverted_bottleneck_MobilenetV2_part_1_3\/MobilenetV2_part_1_3_pointwise\/BatchNorm\/Relu6:0",
      "blob_weights" : 53,
      "K" : 48,
      "blob_biases" : 51,
      "name" : "MobilenetV2\/MobilenetV2_part_1\/inverted_bottleneck_MobilenetV2_part_1_3\/MobilenetV2_part_1_3_pointwise\/Conv2D:0",
      "has_batch_norm" : 0,
      "type" : "convolution",
      "n_groups" : 1,
      "pad_t" : 0,
      "has_biases" : 1,
      "C" : 12,
      "bottom" : "MobilenetV2\/MobilenetV2_part_1\/inverted_bottleneck_MobilenetV2_part_1_3\/MobilenetV2_part_1_3_depthwise\/Relu:0",
      "weights" : {

      },
      "pad_mode" : 1,
      "Nx" : 1,
      "pad_value" : 0,
      "Ny" : 1,
      "n_parallel" : 1
    },
    {
      "alpha" : -1,
      "bottom" : "relu_MobilenetV2\/MobilenetV2_part_1\/inverted_bottleneck_MobilenetV2_part_1_3\/MobilenetV2_part_1_3_pointwise\/BatchNorm\/Relu6:0",
      "weights" : {

      },
      "mode" : 6,
      "top" : "relu_MobilenetV2\/MobilenetV2_part_1\/inverted_bottleneck_MobilenetV2_part_1_3\/MobilenetV2_part_1_3_pointwise\/BatchNorm\/Relu6:0_neg",
      "type" : "activation",
      "name" : "relu_MobilenetV2\/MobilenetV2_part_1\/inverted_bottleneck_MobilenetV2_part_1_3\/MobilenetV2_part_1_3_pointwise\/BatchNorm\/Relu6:0_neg",
      "beta" : 0
    },
    {
      "alpha" : -6,
      "bottom" : "relu_MobilenetV2\/MobilenetV2_part_1\/inverted_bottleneck_MobilenetV2_part_1_3\/MobilenetV2_part_1_3_pointwise\/BatchNorm\/Relu6:0_neg",
      "operation" : 25,
      "weights" : {

      },
      "fused_relu" : 0,
      "top" : "relu_MobilenetV2\/MobilenetV2_part_1\/inverted_bottleneck_MobilenetV2_part_1_3\/MobilenetV2_part_1_3_pointwise\/BatchNorm\/Relu6:0_clip",
      "type" : "elementwise",
      "name" : "relu_MobilenetV2\/MobilenetV2_part_1\/inverted_bottleneck_MobilenetV2_part_1_3\/MobilenetV2_part_1_3_pointwise\/BatchNorm\/Relu6:0_clip",
      "beta" : 0
    },
    {
      "alpha" : -1,
      "bottom" : "relu_MobilenetV2\/MobilenetV2_part_1\/inverted_bottleneck_MobilenetV2_part_1_3\/MobilenetV2_part_1_3_pointwise\/BatchNorm\/Relu6:0_clip",
      "weights" : {

      },
      "mode" : 6,
      "top" : "MobilenetV2\/MobilenetV2_part_1\/inverted_bottleneck_MobilenetV2_part_1_3\/MobilenetV2_part_1_3_pointwise\/BatchNorm\/Relu6:0",
      "type" : "activation",
      "name" : "MobilenetV2\/MobilenetV2_part_1\/inverted_bottleneck_MobilenetV2_part_1_3\/MobilenetV2_part_1_3_pointwise\/BatchNorm\/Relu6:0",
      "beta" : 0
    },
    {
      "alpha" : 1,
      "bottom" : "MobilenetV2\/MobilenetV2_part_1\/inverted_bottleneck_MobilenetV2_part_1_2\/Add:0,MobilenetV2\/MobilenetV2_part_1\/inverted_bottleneck_MobilenetV2_part_1_3\/MobilenetV2_part_1_3_pointwise\/BatchNorm\/Relu6:0",
      "operation" : 0,
      "weights" : {

      },
      "fused_relu" : 0,
      "top" : "MobilenetV2\/MobilenetV2_part_1\/inverted_bottleneck_MobilenetV2_part_1_3\/Add:0",
      "type" : "elementwise",
      "name" : "MobilenetV2\/MobilenetV2_part_1\/inverted_bottleneck_MobilenetV2_part_1_3\/Add:0",
      "beta" : 0
    },
    {
      "pad_r" : 0,
      "fused_relu" : 1,
      "fused_tanh" : 0,
      "pad_fill_mode" : 0,
      "pad_b" : 0,
      "pad_l" : 0,
      "top" : "relu_MobilenetV2\/MobilenetV2_part_1\/inverted_bottleneck_MobilenetV2_part_1_4\/MobilenetV2_part_1_4_up_pointwise\/BatchNorm\/Relu6:0",
      "blob_weights" : 57,
      "K" : 12,
      "blob_biases" : 55,
      "name" : "MobilenetV2\/MobilenetV2_part_1\/inverted_bottleneck_MobilenetV2_part_1_4\/MobilenetV2_part_1_4_up_pointwise\/Conv2D:0",
      "has_batch_norm" : 0,
      "type" : "convolution",
      "n_groups" : 1,
      "pad_t" : 0,
      "has_biases" : 1,
      "C" : 48,
      "bottom" : "MobilenetV2\/MobilenetV2_part_1\/inverted_bottleneck_MobilenetV2_part_1_3\/Add:0",
      "weights" : {

      },
      "pad_mode" : 1,
      "Nx" : 1,
      "pad_value" : 0,
      "Ny" : 1,
      "n_parallel" : 1
    },
    {
      "alpha" : -1,
      "bottom" : "relu_MobilenetV2\/MobilenetV2_part_1\/inverted_bottleneck_MobilenetV2_part_1_4\/MobilenetV2_part_1_4_up_pointwise\/BatchNorm\/Relu6:0",
      "weights" : {

      },
      "mode" : 6,
      "top" : "relu_MobilenetV2\/MobilenetV2_part_1\/inverted_bottleneck_MobilenetV2_part_1_4\/MobilenetV2_part_1_4_up_pointwise\/BatchNorm\/Relu6:0_neg",
      "type" : "activation",
      "name" : "relu_MobilenetV2\/MobilenetV2_part_1\/inverted_bottleneck_MobilenetV2_part_1_4\/MobilenetV2_part_1_4_up_pointwise\/BatchNorm\/Relu6:0_neg",
      "beta" : 0
    },
    {
      "alpha" : -6,
      "bottom" : "relu_MobilenetV2\/MobilenetV2_part_1\/inverted_bottleneck_MobilenetV2_part_1_4\/MobilenetV2_part_1_4_up_pointwise\/BatchNorm\/Relu6:0_neg",
      "operation" : 25,
      "weights" : {

      },
      "fused_relu" : 0,
      "top" : "relu_MobilenetV2\/MobilenetV2_part_1\/inverted_bottleneck_MobilenetV2_part_1_4\/MobilenetV2_part_1_4_up_pointwise\/BatchNorm\/Relu6:0_clip",
      "type" : "elementwise",
      "name" : "relu_MobilenetV2\/MobilenetV2_part_1\/inverted_bottleneck_MobilenetV2_part_1_4\/MobilenetV2_part_1_4_up_pointwise\/BatchNorm\/Relu6:0_clip",
      "beta" : 0
    },
    {
      "alpha" : -1,
      "bottom" : "relu_MobilenetV2\/MobilenetV2_part_1\/inverted_bottleneck_MobilenetV2_part_1_4\/MobilenetV2_part_1_4_up_pointwise\/BatchNorm\/Relu6:0_clip",
      "weights" : {

      },
      "mode" : 6,
      "top" : "MobilenetV2\/MobilenetV2_part_1\/inverted_bottleneck_MobilenetV2_part_1_4\/MobilenetV2_part_1_4_up_pointwise\/BatchNorm\/Relu6:0",
      "type" : "activation",
      "name" : "MobilenetV2\/MobilenetV2_part_1\/inverted_bottleneck_MobilenetV2_part_1_4\/MobilenetV2_part_1_4_up_pointwise\/BatchNorm\/Relu6:0",
      "beta" : 0
    },
    {
      "mode" : 0,
      "weights" : {

      },
      "top" : "MobilenetV2\/MobilenetV2_part_1\/inverted_bottleneck_MobilenetV2_part_1_4\/MobilenetV2_part_1_4_up_pointwise\/Relu:0",
      "type" : "activation",
      "name" : "MobilenetV2\/MobilenetV2_part_1\/inverted_bottleneck_MobilenetV2_part_1_4\/MobilenetV2_part_1_4_up_pointwise\/Relu:0",
      "bottom" : "MobilenetV2\/MobilenetV2_part_1\/inverted_bottleneck_MobilenetV2_part_1_4\/MobilenetV2_part_1_4_up_pointwise\/BatchNorm\/Relu6:0"
    },
    {
      "pad_r" : 0,
      "fused_relu" : 1,
      "fused_tanh" : 0,
      "pad_fill_mode" : 0,
      "pad_b" : 0,
      "pad_l" : 0,
      "top" : "MobilenetV2\/MobilenetV2_part_1\/inverted_bottleneck_MobilenetV2_part_1_4\/MobilenetV2_part_1_4_depthwise\/Relu:0",
      "blob_weights" : 59,
      "K" : 48,
      "name" : "MobilenetV2\/MobilenetV2_part_1\/inverted_bottleneck_MobilenetV2_part_1_4\/MobilenetV2_part_1_4_depthwise\/depthwise:0",
      "has_batch_norm" : 0,
      "type" : "convolution",
      "n_groups" : 48,
      "pad_t" : 0,
      "has_biases" : 0,
      "C" : 48,
      "bottom" : "MobilenetV2\/MobilenetV2_part_1\/inverted_bottleneck_MobilenetV2_part_1_4\/MobilenetV2_part_1_4_up_pointwise\/Relu:0",
      "weights" : {

      },
      "pad_mode" : 1,
      "Nx" : 3,
      "pad_value" : 0,
      "Ny" : 3,
      "n_parallel" : 1
    },
    {
      "pad_r" : 0,
      "fused_relu" : 1,
      "fused_tanh" : 0,
      "pad_fill_mode" : 0,
      "pad_b" : 0,
      "pad_l" : 0,
      "top" : "relu_MobilenetV2\/MobilenetV2_part_1\/inverted_bottleneck_MobilenetV2_part_1_4\/MobilenetV2_part_1_4_pointwise\/BatchNorm\/Relu6:0",
      "blob_weights" : 63,
      "K" : 48,
      "blob_biases" : 61,
      "name" : "MobilenetV2\/MobilenetV2_part_1\/inverted_bottleneck_MobilenetV2_part_1_4\/MobilenetV2_part_1_4_pointwise\/Conv2D:0",
      "has_batch_norm" : 0,
      "type" : "convolution",
      "n_groups" : 1,
      "pad_t" : 0,
      "has_biases" : 1,
      "C" : 12,
      "bottom" : "MobilenetV2\/MobilenetV2_part_1\/inverted_bottleneck_MobilenetV2_part_1_4\/MobilenetV2_part_1_4_depthwise\/Relu:0",
      "weights" : {

      },
      "pad_mode" : 1,
      "Nx" : 1,
      "pad_value" : 0,
      "Ny" : 1,
      "n_parallel" : 1
    },
    {
      "alpha" : -1,
      "bottom" : "relu_MobilenetV2\/MobilenetV2_part_1\/inverted_bottleneck_MobilenetV2_part_1_4\/MobilenetV2_part_1_4_pointwise\/BatchNorm\/Relu6:0",
      "weights" : {

      },
      "mode" : 6,
      "top" : "relu_MobilenetV2\/MobilenetV2_part_1\/inverted_bottleneck_MobilenetV2_part_1_4\/MobilenetV2_part_1_4_pointwise\/BatchNorm\/Relu6:0_neg",
      "type" : "activation",
      "name" : "relu_MobilenetV2\/MobilenetV2_part_1\/inverted_bottleneck_MobilenetV2_part_1_4\/MobilenetV2_part_1_4_pointwise\/BatchNorm\/Relu6:0_neg",
      "beta" : 0
    },
    {
      "alpha" : -6,
      "bottom" : "relu_MobilenetV2\/MobilenetV2_part_1\/inverted_bottleneck_MobilenetV2_part_1_4\/MobilenetV2_part_1_4_pointwise\/BatchNorm\/Relu6:0_neg",
      "operation" : 25,
      "weights" : {

      },
      "fused_relu" : 0,
      "top" : "relu_MobilenetV2\/MobilenetV2_part_1\/inverted_bottleneck_MobilenetV2_part_1_4\/MobilenetV2_part_1_4_pointwise\/BatchNorm\/Relu6:0_clip",
      "type" : "elementwise",
      "name" : "relu_MobilenetV2\/MobilenetV2_part_1\/inverted_bottleneck_MobilenetV2_part_1_4\/MobilenetV2_part_1_4_pointwise\/BatchNorm\/Relu6:0_clip",
      "beta" : 0
    },
    {
      "alpha" : -1,
      "bottom" : "relu_MobilenetV2\/MobilenetV2_part_1\/inverted_bottleneck_MobilenetV2_part_1_4\/MobilenetV2_part_1_4_pointwise\/BatchNorm\/Relu6:0_clip",
      "weights" : {

      },
      "mode" : 6,
      "top" : "MobilenetV2\/MobilenetV2_part_1\/inverted_bottleneck_MobilenetV2_part_1_4\/MobilenetV2_part_1_4_pointwise\/BatchNorm\/Relu6:0",
      "type" : "activation",
      "name" : "MobilenetV2\/MobilenetV2_part_1\/inverted_bottleneck_MobilenetV2_part_1_4\/MobilenetV2_part_1_4_pointwise\/BatchNorm\/Relu6:0",
      "beta" : 0
    },
    {
      "alpha" : 1,
      "bottom" : "MobilenetV2\/MobilenetV2_part_1\/inverted_bottleneck_MobilenetV2_part_1_3\/Add:0,MobilenetV2\/MobilenetV2_part_1\/inverted_bottleneck_MobilenetV2_part_1_4\/MobilenetV2_part_1_4_pointwise\/BatchNorm\/Relu6:0",
      "operation" : 0,
      "weights" : {

      },
      "fused_relu" : 0,
      "top" : "MobilenetV2\/MobilenetV2_part_1\/inverted_bottleneck_MobilenetV2_part_1_4\/Add:0",
      "type" : "elementwise",
      "name" : "MobilenetV2\/MobilenetV2_part_1\/inverted_bottleneck_MobilenetV2_part_1_4\/Add:0",
      "beta" : 0
    },
    {
      "pad_r" : 0,
      "fused_relu" : 1,
      "fused_tanh" : 0,
      "pad_fill_mode" : 0,
      "pad_b" : 0,
      "pad_l" : 0,
      "top" : "relu_MobilenetV2\/MobilenetV2_part_1\/inverted_bottleneck_MobilenetV2_part_1_5\/MobilenetV2_part_1_5_up_pointwise\/BatchNorm\/Relu6:0",
      "blob_weights" : 67,
      "K" : 12,
      "blob_biases" : 65,
      "name" : "MobilenetV2\/MobilenetV2_part_1\/inverted_bottleneck_MobilenetV2_part_1_5\/MobilenetV2_part_1_5_up_pointwise\/Conv2D:0",
      "has_batch_norm" : 0,
      "type" : "convolution",
      "n_groups" : 1,
      "pad_t" : 0,
      "has_biases" : 1,
      "C" : 48,
      "bottom" : "MobilenetV2\/MobilenetV2_part_1\/inverted_bottleneck_MobilenetV2_part_1_4\/Add:0",
      "weights" : {

      },
      "pad_mode" : 1,
      "Nx" : 1,
      "pad_value" : 0,
      "Ny" : 1,
      "n_parallel" : 1
    },
    {
      "alpha" : -1,
      "bottom" : "relu_MobilenetV2\/MobilenetV2_part_1\/inverted_bottleneck_MobilenetV2_part_1_5\/MobilenetV2_part_1_5_up_pointwise\/BatchNorm\/Relu6:0",
      "weights" : {

      },
      "mode" : 6,
      "top" : "relu_MobilenetV2\/MobilenetV2_part_1\/inverted_bottleneck_MobilenetV2_part_1_5\/MobilenetV2_part_1_5_up_pointwise\/BatchNorm\/Relu6:0_neg",
      "type" : "activation",
      "name" : "relu_MobilenetV2\/MobilenetV2_part_1\/inverted_bottleneck_MobilenetV2_part_1_5\/MobilenetV2_part_1_5_up_pointwise\/BatchNorm\/Relu6:0_neg",
      "beta" : 0
    },
    {
      "alpha" : -6,
      "bottom" : "relu_MobilenetV2\/MobilenetV2_part_1\/inverted_bottleneck_MobilenetV2_part_1_5\/MobilenetV2_part_1_5_up_pointwise\/BatchNorm\/Relu6:0_neg",
      "operation" : 25,
      "weights" : {

      },
      "fused_relu" : 0,
      "top" : "relu_MobilenetV2\/MobilenetV2_part_1\/inverted_bottleneck_MobilenetV2_part_1_5\/MobilenetV2_part_1_5_up_pointwise\/BatchNorm\/Relu6:0_clip",
      "type" : "elementwise",
      "name" : "relu_MobilenetV2\/MobilenetV2_part_1\/inverted_bottleneck_MobilenetV2_part_1_5\/MobilenetV2_part_1_5_up_pointwise\/BatchNorm\/Relu6:0_clip",
      "beta" : 0
    },
    {
      "alpha" : -1,
      "bottom" : "relu_MobilenetV2\/MobilenetV2_part_1\/inverted_bottleneck_MobilenetV2_part_1_5\/MobilenetV2_part_1_5_up_pointwise\/BatchNorm\/Relu6:0_clip",
      "weights" : {

      },
      "mode" : 6,
      "top" : "MobilenetV2\/MobilenetV2_part_1\/inverted_bottleneck_MobilenetV2_part_1_5\/MobilenetV2_part_1_5_up_pointwise\/BatchNorm\/Relu6:0",
      "type" : "activation",
      "name" : "MobilenetV2\/MobilenetV2_part_1\/inverted_bottleneck_MobilenetV2_part_1_5\/MobilenetV2_part_1_5_up_pointwise\/BatchNorm\/Relu6:0",
      "beta" : 0
    },
    {
      "mode" : 0,
      "weights" : {

      },
      "top" : "MobilenetV2\/MobilenetV2_part_1\/inverted_bottleneck_MobilenetV2_part_1_5\/MobilenetV2_part_1_5_up_pointwise\/Relu:0",
      "type" : "activation",
      "name" : "MobilenetV2\/MobilenetV2_part_1\/inverted_bottleneck_MobilenetV2_part_1_5\/MobilenetV2_part_1_5_up_pointwise\/Relu:0",
      "bottom" : "MobilenetV2\/MobilenetV2_part_1\/inverted_bottleneck_MobilenetV2_part_1_5\/MobilenetV2_part_1_5_up_pointwise\/BatchNorm\/Relu6:0"
    },
    {
      "pad_r" : 0,
      "fused_relu" : 1,
      "fused_tanh" : 0,
      "pad_fill_mode" : 0,
      "pad_b" : 0,
      "pad_l" : 0,
      "top" : "MobilenetV2\/MobilenetV2_part_1\/inverted_bottleneck_MobilenetV2_part_1_5\/MobilenetV2_part_1_5_depthwise\/Relu:0",
      "blob_weights" : 69,
      "K" : 48,
      "name" : "MobilenetV2\/MobilenetV2_part_1\/inverted_bottleneck_MobilenetV2_part_1_5\/MobilenetV2_part_1_5_depthwise\/depthwise:0",
      "has_batch_norm" : 0,
      "type" : "convolution",
      "n_groups" : 48,
      "pad_t" : 0,
      "has_biases" : 0,
      "C" : 48,
      "bottom" : "MobilenetV2\/MobilenetV2_part_1\/inverted_bottleneck_MobilenetV2_part_1_5\/MobilenetV2_part_1_5_up_pointwise\/Relu:0",
      "weights" : {

      },
      "pad_mode" : 1,
      "Nx" : 3,
      "pad_value" : 0,
      "Ny" : 3,
      "n_parallel" : 1
    },
    {
      "pad_r" : 0,
      "fused_relu" : 1,
      "fused_tanh" : 0,
      "pad_fill_mode" : 0,
      "pad_b" : 0,
      "pad_l" : 0,
      "top" : "relu_MobilenetV2\/MobilenetV2_part_1\/inverted_bottleneck_MobilenetV2_part_1_5\/MobilenetV2_part_1_5_pointwise\/BatchNorm\/Relu6:0",
      "blob_weights" : 73,
      "K" : 48,
      "blob_biases" : 71,
      "name" : "MobilenetV2\/MobilenetV2_part_1\/inverted_bottleneck_MobilenetV2_part_1_5\/MobilenetV2_part_1_5_pointwise\/Conv2D:0",
      "has_batch_norm" : 0,
      "type" : "convolution",
      "n_groups" : 1,
      "pad_t" : 0,
      "has_biases" : 1,
      "C" : 12,
      "bottom" : "MobilenetV2\/MobilenetV2_part_1\/inverted_bottleneck_MobilenetV2_part_1_5\/MobilenetV2_part_1_5_depthwise\/Relu:0",
      "weights" : {

      },
      "pad_mode" : 1,
      "Nx" : 1,
      "pad_value" : 0,
      "Ny" : 1,
      "n_parallel" : 1
    },
    {
      "alpha" : -1,
      "bottom" : "relu_MobilenetV2\/MobilenetV2_part_1\/inverted_bottleneck_MobilenetV2_part_1_5\/MobilenetV2_part_1_5_pointwise\/BatchNorm\/Relu6:0",
      "weights" : {

      },
      "mode" : 6,
      "top" : "relu_MobilenetV2\/MobilenetV2_part_1\/inverted_bottleneck_MobilenetV2_part_1_5\/MobilenetV2_part_1_5_pointwise\/BatchNorm\/Relu6:0_neg",
      "type" : "activation",
      "name" : "relu_MobilenetV2\/MobilenetV2_part_1\/inverted_bottleneck_MobilenetV2_part_1_5\/MobilenetV2_part_1_5_pointwise\/BatchNorm\/Relu6:0_neg",
      "beta" : 0
    },
    {
      "alpha" : -6,
      "bottom" : "relu_MobilenetV2\/MobilenetV2_part_1\/inverted_bottleneck_MobilenetV2_part_1_5\/MobilenetV2_part_1_5_pointwise\/BatchNorm\/Relu6:0_neg",
      "operation" : 25,
      "weights" : {

      },
      "fused_relu" : 0,
      "top" : "relu_MobilenetV2\/MobilenetV2_part_1\/inverted_bottleneck_MobilenetV2_part_1_5\/MobilenetV2_part_1_5_pointwise\/BatchNorm\/Relu6:0_clip",
      "type" : "elementwise",
      "name" : "relu_MobilenetV2\/MobilenetV2_part_1\/inverted_bottleneck_MobilenetV2_part_1_5\/MobilenetV2_part_1_5_pointwise\/BatchNorm\/Relu6:0_clip",
      "beta" : 0
    },
    {
      "alpha" : -1,
      "bottom" : "relu_MobilenetV2\/MobilenetV2_part_1\/inverted_bottleneck_MobilenetV2_part_1_5\/MobilenetV2_part_1_5_pointwise\/BatchNorm\/Relu6:0_clip",
      "weights" : {

      },
      "mode" : 6,
      "top" : "MobilenetV2\/MobilenetV2_part_1\/inverted_bottleneck_MobilenetV2_part_1_5\/MobilenetV2_part_1_5_pointwise\/BatchNorm\/Relu6:0",
      "type" : "activation",
      "name" : "MobilenetV2\/MobilenetV2_part_1\/inverted_bottleneck_MobilenetV2_part_1_5\/MobilenetV2_part_1_5_pointwise\/BatchNorm\/Relu6:0",
      "beta" : 0
    },
    {
      "alpha" : 1,
      "bottom" : "MobilenetV2\/MobilenetV2_part_1\/inverted_bottleneck_MobilenetV2_part_1_4\/Add:0,MobilenetV2\/MobilenetV2_part_1\/inverted_bottleneck_MobilenetV2_part_1_5\/MobilenetV2_part_1_5_pointwise\/BatchNorm\/Relu6:0",
      "operation" : 0,
      "weights" : {

      },
      "fused_relu" : 0,
      "top" : "MobilenetV2\/MobilenetV2_part_1\/inverted_bottleneck_MobilenetV2_part_1_5\/Add:0",
      "type" : "elementwise",
      "name" : "MobilenetV2\/MobilenetV2_part_1\/inverted_bottleneck_MobilenetV2_part_1_5\/Add:0",
      "beta" : 0
    },
    {
      "pad_value" : 0,
      "average_count_exclude_padding" : 1,
      "top_shape_style" : 0,
      "avg_or_max" : 1,
      "stride_x" : 2,
      "pad_mode" : 1,
      "stride_y" : 2,
      "pad_t" : 0,
      "weights" : {

      },
      "size_y" : 2,
      "type" : "pool",
      "pad_r" : 0,
      "pad_b" : 0,
      "size_x" : 2,
      "pad_fill_mode" : 0,
      "bottom" : "MobilenetV2\/MobilenetV2_part_1\/inverted_bottleneck_MobilenetV2_part_1_5\/Add:0",
      "pad_l" : 0,
      "name" : "MobilenetV2\/mv2_1_max_pool:0",
      "top" : "MobilenetV2\/mv2_1_max_pool:0"
    },
    {
      "pad_r" : 0,
      "fused_relu" : 1,
      "fused_tanh" : 0,
      "pad_fill_mode" : 0,
      "pad_b" : 0,
      "pad_l" : 0,
      "top" : "relu_MobilenetV2\/MobilenetV2_part_2\/inverted_bottleneck_MobilenetV2_part_2_1\/MobilenetV2_part_2_1_up_pointwise\/BatchNorm\/Relu6:0",
      "blob_weights" : 77,
      "K" : 12,
      "blob_biases" : 75,
      "name" : "MobilenetV2\/MobilenetV2_part_2\/inverted_bottleneck_MobilenetV2_part_2_1\/MobilenetV2_part_2_1_up_pointwise\/Conv2D:0",
      "has_batch_norm" : 0,
      "type" : "convolution",
      "n_groups" : 1,
      "pad_t" : 0,
      "has_biases" : 1,
      "C" : 48,
      "bottom" : "MobilenetV2\/MobilenetV2_part_1\/inverted_bottleneck_MobilenetV2_part_1_5\/Add:0",
      "weights" : {

      },
      "pad_mode" : 1,
      "Nx" : 1,
      "pad_value" : 0,
      "Ny" : 1,
      "n_parallel" : 1
    },
    {
      "alpha" : -1,
      "bottom" : "relu_MobilenetV2\/MobilenetV2_part_2\/inverted_bottleneck_MobilenetV2_part_2_1\/MobilenetV2_part_2_1_up_pointwise\/BatchNorm\/Relu6:0",
      "weights" : {

      },
      "mode" : 6,
      "top" : "relu_MobilenetV2\/MobilenetV2_part_2\/inverted_bottleneck_MobilenetV2_part_2_1\/MobilenetV2_part_2_1_up_pointwise\/BatchNorm\/Relu6:0_neg",
      "type" : "activation",
      "name" : "relu_MobilenetV2\/MobilenetV2_part_2\/inverted_bottleneck_MobilenetV2_part_2_1\/MobilenetV2_part_2_1_up_pointwise\/BatchNorm\/Relu6:0_neg",
      "beta" : 0
    },
    {
      "alpha" : -6,
      "bottom" : "relu_MobilenetV2\/MobilenetV2_part_2\/inverted_bottleneck_MobilenetV2_part_2_1\/MobilenetV2_part_2_1_up_pointwise\/BatchNorm\/Relu6:0_neg",
      "operation" : 25,
      "weights" : {

      },
      "fused_relu" : 0,
      "top" : "relu_MobilenetV2\/MobilenetV2_part_2\/inverted_bottleneck_MobilenetV2_part_2_1\/MobilenetV2_part_2_1_up_pointwise\/BatchNorm\/Relu6:0_clip",
      "type" : "elementwise",
      "name" : "relu_MobilenetV2\/MobilenetV2_part_2\/inverted_bottleneck_MobilenetV2_part_2_1\/MobilenetV2_part_2_1_up_pointwise\/BatchNorm\/Relu6:0_clip",
      "beta" : 0
    },
    {
      "alpha" : -1,
      "bottom" : "relu_MobilenetV2\/MobilenetV2_part_2\/inverted_bottleneck_MobilenetV2_part_2_1\/MobilenetV2_part_2_1_up_pointwise\/BatchNorm\/Relu6:0_clip",
      "weights" : {

      },
      "mode" : 6,
      "top" : "MobilenetV2\/MobilenetV2_part_2\/inverted_bottleneck_MobilenetV2_part_2_1\/MobilenetV2_part_2_1_up_pointwise\/BatchNorm\/Relu6:0",
      "type" : "activation",
      "name" : "MobilenetV2\/MobilenetV2_part_2\/inverted_bottleneck_MobilenetV2_part_2_1\/MobilenetV2_part_2_1_up_pointwise\/BatchNorm\/Relu6:0",
      "beta" : 0
    },
    {
      "mode" : 0,
      "weights" : {

      },
      "top" : "MobilenetV2\/MobilenetV2_part_2\/inverted_bottleneck_MobilenetV2_part_2_1\/MobilenetV2_part_2_1_up_pointwise\/Relu:0",
      "type" : "activation",
      "name" : "MobilenetV2\/MobilenetV2_part_2\/inverted_bottleneck_MobilenetV2_part_2_1\/MobilenetV2_part_2_1_up_pointwise\/Relu:0",
      "bottom" : "MobilenetV2\/MobilenetV2_part_2\/inverted_bottleneck_MobilenetV2_part_2_1\/MobilenetV2_part_2_1_up_pointwise\/BatchNorm\/Relu6:0"
    },
    {
      "pad_r" : 0,
      "fused_relu" : 1,
      "fused_tanh" : 0,
      "pad_fill_mode" : 0,
      "pad_b" : 0,
      "pad_l" : 0,
      "top" : "MobilenetV2\/MobilenetV2_part_2\/inverted_bottleneck_MobilenetV2_part_2_1\/MobilenetV2_part_2_1_depthwise\/Relu:0",
      "blob_weights" : 79,
      "K" : 48,
      "stride_x" : 2,
      "name" : "MobilenetV2\/MobilenetV2_part_2\/inverted_bottleneck_MobilenetV2_part_2_1\/MobilenetV2_part_2_1_depthwise\/depthwise:0",
      "has_batch_norm" : 0,
      "type" : "convolution",
      "n_groups" : 48,
      "pad_t" : 0,
      "stride_y" : 2,
      "has_biases" : 0,
      "C" : 48,
      "bottom" : "MobilenetV2\/MobilenetV2_part_2\/inverted_bottleneck_MobilenetV2_part_2_1\/MobilenetV2_part_2_1_up_pointwise\/Relu:0",
      "weights" : {

      },
      "Nx" : 3,
      "pad_mode" : 1,
      "pad_value" : 0,
      "Ny" : 3,
      "n_parallel" : 1
    },
    {
      "pad_r" : 0,
      "fused_relu" : 1,
      "fused_tanh" : 0,
      "pad_fill_mode" : 0,
      "pad_b" : 0,
      "pad_l" : 0,
      "top" : "relu_MobilenetV2\/MobilenetV2_part_2\/inverted_bottleneck_MobilenetV2_part_2_1\/MobilenetV2_part_2_1_pointwise\/BatchNorm\/Relu6:0",
      "blob_weights" : 83,
      "K" : 48,
      "blob_biases" : 81,
      "name" : "MobilenetV2\/MobilenetV2_part_2\/inverted_bottleneck_MobilenetV2_part_2_1\/MobilenetV2_part_2_1_pointwise\/Conv2D:0",
      "has_batch_norm" : 0,
      "type" : "convolution",
      "n_groups" : 1,
      "pad_t" : 0,
      "has_biases" : 1,
      "C" : 16,
      "bottom" : "MobilenetV2\/MobilenetV2_part_2\/inverted_bottleneck_MobilenetV2_part_2_1\/MobilenetV2_part_2_1_depthwise\/Relu:0",
      "weights" : {

      },
      "pad_mode" : 1,
      "Nx" : 1,
      "pad_value" : 0,
      "Ny" : 1,
      "n_parallel" : 1
    },
    {
      "alpha" : -1,
      "bottom" : "relu_MobilenetV2\/MobilenetV2_part_2\/inverted_bottleneck_MobilenetV2_part_2_1\/MobilenetV2_part_2_1_pointwise\/BatchNorm\/Relu6:0",
      "weights" : {

      },
      "mode" : 6,
      "top" : "relu_MobilenetV2\/MobilenetV2_part_2\/inverted_bottleneck_MobilenetV2_part_2_1\/MobilenetV2_part_2_1_pointwise\/BatchNorm\/Relu6:0_neg",
      "type" : "activation",
      "name" : "relu_MobilenetV2\/MobilenetV2_part_2\/inverted_bottleneck_MobilenetV2_part_2_1\/MobilenetV2_part_2_1_pointwise\/BatchNorm\/Relu6:0_neg",
      "beta" : 0
    },
    {
      "alpha" : -6,
      "bottom" : "relu_MobilenetV2\/MobilenetV2_part_2\/inverted_bottleneck_MobilenetV2_part_2_1\/MobilenetV2_part_2_1_pointwise\/BatchNorm\/Relu6:0_neg",
      "operation" : 25,
      "weights" : {

      },
      "fused_relu" : 0,
      "top" : "relu_MobilenetV2\/MobilenetV2_part_2\/inverted_bottleneck_MobilenetV2_part_2_1\/MobilenetV2_part_2_1_pointwise\/BatchNorm\/Relu6:0_clip",
      "type" : "elementwise",
      "name" : "relu_MobilenetV2\/MobilenetV2_part_2\/inverted_bottleneck_MobilenetV2_part_2_1\/MobilenetV2_part_2_1_pointwise\/BatchNorm\/Relu6:0_clip",
      "beta" : 0
    },
    {
      "alpha" : -1,
      "bottom" : "relu_MobilenetV2\/MobilenetV2_part_2\/inverted_bottleneck_MobilenetV2_part_2_1\/MobilenetV2_part_2_1_pointwise\/BatchNorm\/Relu6:0_clip",
      "weights" : {

      },
      "mode" : 6,
      "top" : "MobilenetV2\/MobilenetV2_part_2\/inverted_bottleneck_MobilenetV2_part_2_1\/MobilenetV2_part_2_1_pointwise\/BatchNorm\/Relu6:0",
      "type" : "activation",
      "name" : "MobilenetV2\/MobilenetV2_part_2\/inverted_bottleneck_MobilenetV2_part_2_1\/MobilenetV2_part_2_1_pointwise\/BatchNorm\/Relu6:0",
      "beta" : 0
    },
    {
      "pad_r" : 0,
      "fused_relu" : 1,
      "fused_tanh" : 0,
      "pad_fill_mode" : 0,
      "pad_b" : 0,
      "pad_l" : 0,
      "top" : "relu_MobilenetV2\/MobilenetV2_part_2\/inverted_bottleneck_MobilenetV2_part_2_2\/MobilenetV2_part_2_2_up_pointwise\/BatchNorm\/Relu6:0",
      "blob_weights" : 87,
      "K" : 16,
      "blob_biases" : 85,
      "name" : "MobilenetV2\/MobilenetV2_part_2\/inverted_bottleneck_MobilenetV2_part_2_2\/MobilenetV2_part_2_2_up_pointwise\/Conv2D:0",
      "has_batch_norm" : 0,
      "type" : "convolution",
      "n_groups" : 1,
      "pad_t" : 0,
      "has_biases" : 1,
      "C" : 64,
      "bottom" : "MobilenetV2\/MobilenetV2_part_2\/inverted_bottleneck_MobilenetV2_part_2_1\/MobilenetV2_part_2_1_pointwise\/BatchNorm\/Relu6:0",
      "weights" : {

      },
      "pad_mode" : 1,
      "Nx" : 1,
      "pad_value" : 0,
      "Ny" : 1,
      "n_parallel" : 1
    },
    {
      "alpha" : -1,
      "bottom" : "relu_MobilenetV2\/MobilenetV2_part_2\/inverted_bottleneck_MobilenetV2_part_2_2\/MobilenetV2_part_2_2_up_pointwise\/BatchNorm\/Relu6:0",
      "weights" : {

      },
      "mode" : 6,
      "top" : "relu_MobilenetV2\/MobilenetV2_part_2\/inverted_bottleneck_MobilenetV2_part_2_2\/MobilenetV2_part_2_2_up_pointwise\/BatchNorm\/Relu6:0_neg",
      "type" : "activation",
      "name" : "relu_MobilenetV2\/MobilenetV2_part_2\/inverted_bottleneck_MobilenetV2_part_2_2\/MobilenetV2_part_2_2_up_pointwise\/BatchNorm\/Relu6:0_neg",
      "beta" : 0
    },
    {
      "alpha" : -6,
      "bottom" : "relu_MobilenetV2\/MobilenetV2_part_2\/inverted_bottleneck_MobilenetV2_part_2_2\/MobilenetV2_part_2_2_up_pointwise\/BatchNorm\/Relu6:0_neg",
      "operation" : 25,
      "weights" : {

      },
      "fused_relu" : 0,
      "top" : "relu_MobilenetV2\/MobilenetV2_part_2\/inverted_bottleneck_MobilenetV2_part_2_2\/MobilenetV2_part_2_2_up_pointwise\/BatchNorm\/Relu6:0_clip",
      "type" : "elementwise",
      "name" : "relu_MobilenetV2\/MobilenetV2_part_2\/inverted_bottleneck_MobilenetV2_part_2_2\/MobilenetV2_part_2_2_up_pointwise\/BatchNorm\/Relu6:0_clip",
      "beta" : 0
    },
    {
      "alpha" : -1,
      "bottom" : "relu_MobilenetV2\/MobilenetV2_part_2\/inverted_bottleneck_MobilenetV2_part_2_2\/MobilenetV2_part_2_2_up_pointwise\/BatchNorm\/Relu6:0_clip",
      "weights" : {

      },
      "mode" : 6,
      "top" : "MobilenetV2\/MobilenetV2_part_2\/inverted_bottleneck_MobilenetV2_part_2_2\/MobilenetV2_part_2_2_up_pointwise\/BatchNorm\/Relu6:0",
      "type" : "activation",
      "name" : "MobilenetV2\/MobilenetV2_part_2\/inverted_bottleneck_MobilenetV2_part_2_2\/MobilenetV2_part_2_2_up_pointwise\/BatchNorm\/Relu6:0",
      "beta" : 0
    },
    {
      "mode" : 0,
      "weights" : {

      },
      "top" : "MobilenetV2\/MobilenetV2_part_2\/inverted_bottleneck_MobilenetV2_part_2_2\/MobilenetV2_part_2_2_up_pointwise\/Relu:0",
      "type" : "activation",
      "name" : "MobilenetV2\/MobilenetV2_part_2\/inverted_bottleneck_MobilenetV2_part_2_2\/MobilenetV2_part_2_2_up_pointwise\/Relu:0",
      "bottom" : "MobilenetV2\/MobilenetV2_part_2\/inverted_bottleneck_MobilenetV2_part_2_2\/MobilenetV2_part_2_2_up_pointwise\/BatchNorm\/Relu6:0"
    },
    {
      "pad_r" : 0,
      "fused_relu" : 1,
      "fused_tanh" : 0,
      "pad_fill_mode" : 0,
      "pad_b" : 0,
      "pad_l" : 0,
      "top" : "MobilenetV2\/MobilenetV2_part_2\/inverted_bottleneck_MobilenetV2_part_2_2\/MobilenetV2_part_2_2_depthwise\/Relu:0",
      "blob_weights" : 89,
      "K" : 64,
      "name" : "MobilenetV2\/MobilenetV2_part_2\/inverted_bottleneck_MobilenetV2_part_2_2\/MobilenetV2_part_2_2_depthwise\/depthwise:0",
      "has_batch_norm" : 0,
      "type" : "convolution",
      "n_groups" : 64,
      "pad_t" : 0,
      "has_biases" : 0,
      "C" : 64,
      "bottom" : "MobilenetV2\/MobilenetV2_part_2\/inverted_bottleneck_MobilenetV2_part_2_2\/MobilenetV2_part_2_2_up_pointwise\/Relu:0",
      "weights" : {

      },
      "pad_mode" : 1,
      "Nx" : 3,
      "pad_value" : 0,
      "Ny" : 3,
      "n_parallel" : 1
    },
    {
      "pad_r" : 0,
      "fused_relu" : 1,
      "fused_tanh" : 0,
      "pad_fill_mode" : 0,
      "pad_b" : 0,
      "pad_l" : 0,
      "top" : "relu_MobilenetV2\/MobilenetV2_part_2\/inverted_bottleneck_MobilenetV2_part_2_2\/MobilenetV2_part_2_2_pointwise\/BatchNorm\/Relu6:0",
      "blob_weights" : 93,
      "K" : 64,
      "blob_biases" : 91,
      "name" : "MobilenetV2\/MobilenetV2_part_2\/inverted_bottleneck_MobilenetV2_part_2_2\/MobilenetV2_part_2_2_pointwise\/Conv2D:0",
      "has_batch_norm" : 0,
      "type" : "convolution",
      "n_groups" : 1,
      "pad_t" : 0,
      "has_biases" : 1,
      "C" : 16,
      "bottom" : "MobilenetV2\/MobilenetV2_part_2\/inverted_bottleneck_MobilenetV2_part_2_2\/MobilenetV2_part_2_2_depthwise\/Relu:0",
      "weights" : {

      },
      "pad_mode" : 1,
      "Nx" : 1,
      "pad_value" : 0,
      "Ny" : 1,
      "n_parallel" : 1
    },
    {
      "alpha" : -1,
      "bottom" : "relu_MobilenetV2\/MobilenetV2_part_2\/inverted_bottleneck_MobilenetV2_part_2_2\/MobilenetV2_part_2_2_pointwise\/BatchNorm\/Relu6:0",
      "weights" : {

      },
      "mode" : 6,
      "top" : "relu_MobilenetV2\/MobilenetV2_part_2\/inverted_bottleneck_MobilenetV2_part_2_2\/MobilenetV2_part_2_2_pointwise\/BatchNorm\/Relu6:0_neg",
      "type" : "activation",
      "name" : "relu_MobilenetV2\/MobilenetV2_part_2\/inverted_bottleneck_MobilenetV2_part_2_2\/MobilenetV2_part_2_2_pointwise\/BatchNorm\/Relu6:0_neg",
      "beta" : 0
    },
    {
      "alpha" : -6,
      "bottom" : "relu_MobilenetV2\/MobilenetV2_part_2\/inverted_bottleneck_MobilenetV2_part_2_2\/MobilenetV2_part_2_2_pointwise\/BatchNorm\/Relu6:0_neg",
      "operation" : 25,
      "weights" : {

      },
      "fused_relu" : 0,
      "top" : "relu_MobilenetV2\/MobilenetV2_part_2\/inverted_bottleneck_MobilenetV2_part_2_2\/MobilenetV2_part_2_2_pointwise\/BatchNorm\/Relu6:0_clip",
      "type" : "elementwise",
      "name" : "relu_MobilenetV2\/MobilenetV2_part_2\/inverted_bottleneck_MobilenetV2_part_2_2\/MobilenetV2_part_2_2_pointwise\/BatchNorm\/Relu6:0_clip",
      "beta" : 0
    },
    {
      "alpha" : -1,
      "bottom" : "relu_MobilenetV2\/MobilenetV2_part_2\/inverted_bottleneck_MobilenetV2_part_2_2\/MobilenetV2_part_2_2_pointwise\/BatchNorm\/Relu6:0_clip",
      "weights" : {

      },
      "mode" : 6,
      "top" : "MobilenetV2\/MobilenetV2_part_2\/inverted_bottleneck_MobilenetV2_part_2_2\/MobilenetV2_part_2_2_pointwise\/BatchNorm\/Relu6:0",
      "type" : "activation",
      "name" : "MobilenetV2\/MobilenetV2_part_2\/inverted_bottleneck_MobilenetV2_part_2_2\/MobilenetV2_part_2_2_pointwise\/BatchNorm\/Relu6:0",
      "beta" : 0
    },
    {
      "alpha" : 1,
      "bottom" : "MobilenetV2\/MobilenetV2_part_2\/inverted_bottleneck_MobilenetV2_part_2_1\/MobilenetV2_part_2_1_pointwise\/BatchNorm\/Relu6:0,MobilenetV2\/MobilenetV2_part_2\/inverted_bottleneck_MobilenetV2_part_2_2\/MobilenetV2_part_2_2_pointwise\/BatchNorm\/Relu6:0",
      "operation" : 0,
      "weights" : {

      },
      "fused_relu" : 0,
      "top" : "MobilenetV2\/MobilenetV2_part_2\/inverted_bottleneck_MobilenetV2_part_2_2\/Add:0",
      "type" : "elementwise",
      "name" : "MobilenetV2\/MobilenetV2_part_2\/inverted_bottleneck_MobilenetV2_part_2_2\/Add:0",
      "beta" : 0
    },
    {
      "pad_r" : 0,
      "fused_relu" : 1,
      "fused_tanh" : 0,
      "pad_fill_mode" : 0,
      "pad_b" : 0,
      "pad_l" : 0,
      "top" : "relu_MobilenetV2\/MobilenetV2_part_2\/inverted_bottleneck_MobilenetV2_part_2_3\/MobilenetV2_part_2_3_up_pointwise\/BatchNorm\/Relu6:0",
      "blob_weights" : 97,
      "K" : 16,
      "blob_biases" : 95,
      "name" : "MobilenetV2\/MobilenetV2_part_2\/inverted_bottleneck_MobilenetV2_part_2_3\/MobilenetV2_part_2_3_up_pointwise\/Conv2D:0",
      "has_batch_norm" : 0,
      "type" : "convolution",
      "n_groups" : 1,
      "pad_t" : 0,
      "has_biases" : 1,
      "C" : 64,
      "bottom" : "MobilenetV2\/MobilenetV2_part_2\/inverted_bottleneck_MobilenetV2_part_2_2\/Add:0",
      "weights" : {

      },
      "pad_mode" : 1,
      "Nx" : 1,
      "pad_value" : 0,
      "Ny" : 1,
      "n_parallel" : 1
    },
    {
      "alpha" : -1,
      "bottom" : "relu_MobilenetV2\/MobilenetV2_part_2\/inverted_bottleneck_MobilenetV2_part_2_3\/MobilenetV2_part_2_3_up_pointwise\/BatchNorm\/Relu6:0",
      "weights" : {

      },
      "mode" : 6,
      "top" : "relu_MobilenetV2\/MobilenetV2_part_2\/inverted_bottleneck_MobilenetV2_part_2_3\/MobilenetV2_part_2_3_up_pointwise\/BatchNorm\/Relu6:0_neg",
      "type" : "activation",
      "name" : "relu_MobilenetV2\/MobilenetV2_part_2\/inverted_bottleneck_MobilenetV2_part_2_3\/MobilenetV2_part_2_3_up_pointwise\/BatchNorm\/Relu6:0_neg",
      "beta" : 0
    },
    {
      "alpha" : -6,
      "bottom" : "relu_MobilenetV2\/MobilenetV2_part_2\/inverted_bottleneck_MobilenetV2_part_2_3\/MobilenetV2_part_2_3_up_pointwise\/BatchNorm\/Relu6:0_neg",
      "operation" : 25,
      "weights" : {

      },
      "fused_relu" : 0,
      "top" : "relu_MobilenetV2\/MobilenetV2_part_2\/inverted_bottleneck_MobilenetV2_part_2_3\/MobilenetV2_part_2_3_up_pointwise\/BatchNorm\/Relu6:0_clip",
      "type" : "elementwise",
      "name" : "relu_MobilenetV2\/MobilenetV2_part_2\/inverted_bottleneck_MobilenetV2_part_2_3\/MobilenetV2_part_2_3_up_pointwise\/BatchNorm\/Relu6:0_clip",
      "beta" : 0
    },
    {
      "alpha" : -1,
      "bottom" : "relu_MobilenetV2\/MobilenetV2_part_2\/inverted_bottleneck_MobilenetV2_part_2_3\/MobilenetV2_part_2_3_up_pointwise\/BatchNorm\/Relu6:0_clip",
      "weights" : {

      },
      "mode" : 6,
      "top" : "MobilenetV2\/MobilenetV2_part_2\/inverted_bottleneck_MobilenetV2_part_2_3\/MobilenetV2_part_2_3_up_pointwise\/BatchNorm\/Relu6:0",
      "type" : "activation",
      "name" : "MobilenetV2\/MobilenetV2_part_2\/inverted_bottleneck_MobilenetV2_part_2_3\/MobilenetV2_part_2_3_up_pointwise\/BatchNorm\/Relu6:0",
      "beta" : 0
    },
    {
      "mode" : 0,
      "weights" : {

      },
      "top" : "MobilenetV2\/MobilenetV2_part_2\/inverted_bottleneck_MobilenetV2_part_2_3\/MobilenetV2_part_2_3_up_pointwise\/Relu:0",
      "type" : "activation",
      "name" : "MobilenetV2\/MobilenetV2_part_2\/inverted_bottleneck_MobilenetV2_part_2_3\/MobilenetV2_part_2_3_up_pointwise\/Relu:0",
      "bottom" : "MobilenetV2\/MobilenetV2_part_2\/inverted_bottleneck_MobilenetV2_part_2_3\/MobilenetV2_part_2_3_up_pointwise\/BatchNorm\/Relu6:0"
    },
    {
      "pad_r" : 0,
      "fused_relu" : 1,
      "fused_tanh" : 0,
      "pad_fill_mode" : 0,
      "pad_b" : 0,
      "pad_l" : 0,
      "top" : "MobilenetV2\/MobilenetV2_part_2\/inverted_bottleneck_MobilenetV2_part_2_3\/MobilenetV2_part_2_3_depthwise\/Relu:0",
      "blob_weights" : 99,
      "K" : 64,
      "name" : "MobilenetV2\/MobilenetV2_part_2\/inverted_bottleneck_MobilenetV2_part_2_3\/MobilenetV2_part_2_3_depthwise\/depthwise:0",
      "has_batch_norm" : 0,
      "type" : "convolution",
      "n_groups" : 64,
      "pad_t" : 0,
      "has_biases" : 0,
      "C" : 64,
      "bottom" : "MobilenetV2\/MobilenetV2_part_2\/inverted_bottleneck_MobilenetV2_part_2_3\/MobilenetV2_part_2_3_up_pointwise\/Relu:0",
      "weights" : {

      },
      "pad_mode" : 1,
      "Nx" : 3,
      "pad_value" : 0,
      "Ny" : 3,
      "n_parallel" : 1
    },
    {
      "pad_r" : 0,
      "fused_relu" : 1,
      "fused_tanh" : 0,
      "pad_fill_mode" : 0,
      "pad_b" : 0,
      "pad_l" : 0,
      "top" : "relu_MobilenetV2\/MobilenetV2_part_2\/inverted_bottleneck_MobilenetV2_part_2_3\/MobilenetV2_part_2_3_pointwise\/BatchNorm\/Relu6:0",
      "blob_weights" : 103,
      "K" : 64,
      "blob_biases" : 101,
      "name" : "MobilenetV2\/MobilenetV2_part_2\/inverted_bottleneck_MobilenetV2_part_2_3\/MobilenetV2_part_2_3_pointwise\/Conv2D:0",
      "has_batch_norm" : 0,
      "type" : "convolution",
      "n_groups" : 1,
      "pad_t" : 0,
      "has_biases" : 1,
      "C" : 16,
      "bottom" : "MobilenetV2\/MobilenetV2_part_2\/inverted_bottleneck_MobilenetV2_part_2_3\/MobilenetV2_part_2_3_depthwise\/Relu:0",
      "weights" : {

      },
      "pad_mode" : 1,
      "Nx" : 1,
      "pad_value" : 0,
      "Ny" : 1,
      "n_parallel" : 1
    },
    {
      "alpha" : -1,
      "bottom" : "relu_MobilenetV2\/MobilenetV2_part_2\/inverted_bottleneck_MobilenetV2_part_2_3\/MobilenetV2_part_2_3_pointwise\/BatchNorm\/Relu6:0",
      "weights" : {

      },
      "mode" : 6,
      "top" : "relu_MobilenetV2\/MobilenetV2_part_2\/inverted_bottleneck_MobilenetV2_part_2_3\/MobilenetV2_part_2_3_pointwise\/BatchNorm\/Relu6:0_neg",
      "type" : "activation",
      "name" : "relu_MobilenetV2\/MobilenetV2_part_2\/inverted_bottleneck_MobilenetV2_part_2_3\/MobilenetV2_part_2_3_pointwise\/BatchNorm\/Relu6:0_neg",
      "beta" : 0
    },
    {
      "alpha" : -6,
      "bottom" : "relu_MobilenetV2\/MobilenetV2_part_2\/inverted_bottleneck_MobilenetV2_part_2_3\/MobilenetV2_part_2_3_pointwise\/BatchNorm\/Relu6:0_neg",
      "operation" : 25,
      "weights" : {

      },
      "fused_relu" : 0,
      "top" : "relu_MobilenetV2\/MobilenetV2_part_2\/inverted_bottleneck_MobilenetV2_part_2_3\/MobilenetV2_part_2_3_pointwise\/BatchNorm\/Relu6:0_clip",
      "type" : "elementwise",
      "name" : "relu_MobilenetV2\/MobilenetV2_part_2\/inverted_bottleneck_MobilenetV2_part_2_3\/MobilenetV2_part_2_3_pointwise\/BatchNorm\/Relu6:0_clip",
      "beta" : 0
    },
    {
      "alpha" : -1,
      "bottom" : "relu_MobilenetV2\/MobilenetV2_part_2\/inverted_bottleneck_MobilenetV2_part_2_3\/MobilenetV2_part_2_3_pointwise\/BatchNorm\/Relu6:0_clip",
      "weights" : {

      },
      "mode" : 6,
      "top" : "MobilenetV2\/MobilenetV2_part_2\/inverted_bottleneck_MobilenetV2_part_2_3\/MobilenetV2_part_2_3_pointwise\/BatchNorm\/Relu6:0",
      "type" : "activation",
      "name" : "MobilenetV2\/MobilenetV2_part_2\/inverted_bottleneck_MobilenetV2_part_2_3\/MobilenetV2_part_2_3_pointwise\/BatchNorm\/Relu6:0",
      "beta" : 0
    },
    {
      "alpha" : 1,
      "bottom" : "MobilenetV2\/MobilenetV2_part_2\/inverted_bottleneck_MobilenetV2_part_2_2\/Add:0,MobilenetV2\/MobilenetV2_part_2\/inverted_bottleneck_MobilenetV2_part_2_3\/MobilenetV2_part_2_3_pointwise\/BatchNorm\/Relu6:0",
      "operation" : 0,
      "weights" : {

      },
      "fused_relu" : 0,
      "top" : "MobilenetV2\/MobilenetV2_part_2\/inverted_bottleneck_MobilenetV2_part_2_3\/Add:0",
      "type" : "elementwise",
      "name" : "MobilenetV2\/MobilenetV2_part_2\/inverted_bottleneck_MobilenetV2_part_2_3\/Add:0",
      "beta" : 0
    },
    {
      "pad_r" : 0,
      "fused_relu" : 1,
      "fused_tanh" : 0,
      "pad_fill_mode" : 0,
      "pad_b" : 0,
      "pad_l" : 0,
      "top" : "relu_MobilenetV2\/MobilenetV2_part_2\/inverted_bottleneck_MobilenetV2_part_2_4\/MobilenetV2_part_2_4_up_pointwise\/BatchNorm\/Relu6:0",
      "blob_weights" : 107,
      "K" : 16,
      "blob_biases" : 105,
      "name" : "MobilenetV2\/MobilenetV2_part_2\/inverted_bottleneck_MobilenetV2_part_2_4\/MobilenetV2_part_2_4_up_pointwise\/Conv2D:0",
      "has_batch_norm" : 0,
      "type" : "convolution",
      "n_groups" : 1,
      "pad_t" : 0,
      "has_biases" : 1,
      "C" : 64,
      "bottom" : "MobilenetV2\/MobilenetV2_part_2\/inverted_bottleneck_MobilenetV2_part_2_3\/Add:0",
      "weights" : {

      },
      "pad_mode" : 1,
      "Nx" : 1,
      "pad_value" : 0,
      "Ny" : 1,
      "n_parallel" : 1
    },
    {
      "alpha" : -1,
      "bottom" : "relu_MobilenetV2\/MobilenetV2_part_2\/inverted_bottleneck_MobilenetV2_part_2_4\/MobilenetV2_part_2_4_up_pointwise\/BatchNorm\/Relu6:0",
      "weights" : {

      },
      "mode" : 6,
      "top" : "relu_MobilenetV2\/MobilenetV2_part_2\/inverted_bottleneck_MobilenetV2_part_2_4\/MobilenetV2_part_2_4_up_pointwise\/BatchNorm\/Relu6:0_neg",
      "type" : "activation",
      "name" : "relu_MobilenetV2\/MobilenetV2_part_2\/inverted_bottleneck_MobilenetV2_part_2_4\/MobilenetV2_part_2_4_up_pointwise\/BatchNorm\/Relu6:0_neg",
      "beta" : 0
    },
    {
      "alpha" : -6,
      "bottom" : "relu_MobilenetV2\/MobilenetV2_part_2\/inverted_bottleneck_MobilenetV2_part_2_4\/MobilenetV2_part_2_4_up_pointwise\/BatchNorm\/Relu6:0_neg",
      "operation" : 25,
      "weights" : {

      },
      "fused_relu" : 0,
      "top" : "relu_MobilenetV2\/MobilenetV2_part_2\/inverted_bottleneck_MobilenetV2_part_2_4\/MobilenetV2_part_2_4_up_pointwise\/BatchNorm\/Relu6:0_clip",
      "type" : "elementwise",
      "name" : "relu_MobilenetV2\/MobilenetV2_part_2\/inverted_bottleneck_MobilenetV2_part_2_4\/MobilenetV2_part_2_4_up_pointwise\/BatchNorm\/Relu6:0_clip",
      "beta" : 0
    },
    {
      "alpha" : -1,
      "bottom" : "relu_MobilenetV2\/MobilenetV2_part_2\/inverted_bottleneck_MobilenetV2_part_2_4\/MobilenetV2_part_2_4_up_pointwise\/BatchNorm\/Relu6:0_clip",
      "weights" : {

      },
      "mode" : 6,
      "top" : "MobilenetV2\/MobilenetV2_part_2\/inverted_bottleneck_MobilenetV2_part_2_4\/MobilenetV2_part_2_4_up_pointwise\/BatchNorm\/Relu6:0",
      "type" : "activation",
      "name" : "MobilenetV2\/MobilenetV2_part_2\/inverted_bottleneck_MobilenetV2_part_2_4\/MobilenetV2_part_2_4_up_pointwise\/BatchNorm\/Relu6:0",
      "beta" : 0
    },
    {
      "mode" : 0,
      "weights" : {

      },
      "top" : "MobilenetV2\/MobilenetV2_part_2\/inverted_bottleneck_MobilenetV2_part_2_4\/MobilenetV2_part_2_4_up_pointwise\/Relu:0",
      "type" : "activation",
      "name" : "MobilenetV2\/MobilenetV2_part_2\/inverted_bottleneck_MobilenetV2_part_2_4\/MobilenetV2_part_2_4_up_pointwise\/Relu:0",
      "bottom" : "MobilenetV2\/MobilenetV2_part_2\/inverted_bottleneck_MobilenetV2_part_2_4\/MobilenetV2_part_2_4_up_pointwise\/BatchNorm\/Relu6:0"
    },
    {
      "pad_r" : 0,
      "fused_relu" : 1,
      "fused_tanh" : 0,
      "pad_fill_mode" : 0,
      "pad_b" : 0,
      "pad_l" : 0,
      "top" : "MobilenetV2\/MobilenetV2_part_2\/inverted_bottleneck_MobilenetV2_part_2_4\/MobilenetV2_part_2_4_depthwise\/Relu:0",
      "blob_weights" : 109,
      "K" : 64,
      "name" : "MobilenetV2\/MobilenetV2_part_2\/inverted_bottleneck_MobilenetV2_part_2_4\/MobilenetV2_part_2_4_depthwise\/depthwise:0",
      "has_batch_norm" : 0,
      "type" : "convolution",
      "n_groups" : 64,
      "pad_t" : 0,
      "has_biases" : 0,
      "C" : 64,
      "bottom" : "MobilenetV2\/MobilenetV2_part_2\/inverted_bottleneck_MobilenetV2_part_2_4\/MobilenetV2_part_2_4_up_pointwise\/Relu:0",
      "weights" : {

      },
      "pad_mode" : 1,
      "Nx" : 3,
      "pad_value" : 0,
      "Ny" : 3,
      "n_parallel" : 1
    },
    {
      "pad_r" : 0,
      "fused_relu" : 1,
      "fused_tanh" : 0,
      "pad_fill_mode" : 0,
      "pad_b" : 0,
      "pad_l" : 0,
      "top" : "relu_MobilenetV2\/MobilenetV2_part_2\/inverted_bottleneck_MobilenetV2_part_2_4\/MobilenetV2_part_2_4_pointwise\/BatchNorm\/Relu6:0",
      "blob_weights" : 113,
      "K" : 64,
      "blob_biases" : 111,
      "name" : "MobilenetV2\/MobilenetV2_part_2\/inverted_bottleneck_MobilenetV2_part_2_4\/MobilenetV2_part_2_4_pointwise\/Conv2D:0",
      "has_batch_norm" : 0,
      "type" : "convolution",
      "n_groups" : 1,
      "pad_t" : 0,
      "has_biases" : 1,
      "C" : 16,
      "bottom" : "MobilenetV2\/MobilenetV2_part_2\/inverted_bottleneck_MobilenetV2_part_2_4\/MobilenetV2_part_2_4_depthwise\/Relu:0",
      "weights" : {

      },
      "pad_mode" : 1,
      "Nx" : 1,
      "pad_value" : 0,
      "Ny" : 1,
      "n_parallel" : 1
    },
    {
      "alpha" : -1,
      "bottom" : "relu_MobilenetV2\/MobilenetV2_part_2\/inverted_bottleneck_MobilenetV2_part_2_4\/MobilenetV2_part_2_4_pointwise\/BatchNorm\/Relu6:0",
      "weights" : {

      },
      "mode" : 6,
      "top" : "relu_MobilenetV2\/MobilenetV2_part_2\/inverted_bottleneck_MobilenetV2_part_2_4\/MobilenetV2_part_2_4_pointwise\/BatchNorm\/Relu6:0_neg",
      "type" : "activation",
      "name" : "relu_MobilenetV2\/MobilenetV2_part_2\/inverted_bottleneck_MobilenetV2_part_2_4\/MobilenetV2_part_2_4_pointwise\/BatchNorm\/Relu6:0_neg",
      "beta" : 0
    },
    {
      "alpha" : -6,
      "bottom" : "relu_MobilenetV2\/MobilenetV2_part_2\/inverted_bottleneck_MobilenetV2_part_2_4\/MobilenetV2_part_2_4_pointwise\/BatchNorm\/Relu6:0_neg",
      "operation" : 25,
      "weights" : {

      },
      "fused_relu" : 0,
      "top" : "relu_MobilenetV2\/MobilenetV2_part_2\/inverted_bottleneck_MobilenetV2_part_2_4\/MobilenetV2_part_2_4_pointwise\/BatchNorm\/Relu6:0_clip",
      "type" : "elementwise",
      "name" : "relu_MobilenetV2\/MobilenetV2_part_2\/inverted_bottleneck_MobilenetV2_part_2_4\/MobilenetV2_part_2_4_pointwise\/BatchNorm\/Relu6:0_clip",
      "beta" : 0
    },
    {
      "alpha" : -1,
      "bottom" : "relu_MobilenetV2\/MobilenetV2_part_2\/inverted_bottleneck_MobilenetV2_part_2_4\/MobilenetV2_part_2_4_pointwise\/BatchNorm\/Relu6:0_clip",
      "weights" : {

      },
      "mode" : 6,
      "top" : "MobilenetV2\/MobilenetV2_part_2\/inverted_bottleneck_MobilenetV2_part_2_4\/MobilenetV2_part_2_4_pointwise\/BatchNorm\/Relu6:0",
      "type" : "activation",
      "name" : "MobilenetV2\/MobilenetV2_part_2\/inverted_bottleneck_MobilenetV2_part_2_4\/MobilenetV2_part_2_4_pointwise\/BatchNorm\/Relu6:0",
      "beta" : 0
    },
    {
      "alpha" : 1,
      "bottom" : "MobilenetV2\/MobilenetV2_part_2\/inverted_bottleneck_MobilenetV2_part_2_3\/Add:0,MobilenetV2\/MobilenetV2_part_2\/inverted_bottleneck_MobilenetV2_part_2_4\/MobilenetV2_part_2_4_pointwise\/BatchNorm\/Relu6:0",
      "operation" : 0,
      "weights" : {

      },
      "fused_relu" : 0,
      "top" : "MobilenetV2\/MobilenetV2_part_2\/inverted_bottleneck_MobilenetV2_part_2_4\/Add:0",
      "type" : "elementwise",
      "name" : "MobilenetV2\/MobilenetV2_part_2\/inverted_bottleneck_MobilenetV2_part_2_4\/Add:0",
      "beta" : 0
    },
    {
      "pad_r" : 0,
      "fused_relu" : 1,
      "fused_tanh" : 0,
      "pad_fill_mode" : 0,
      "pad_b" : 0,
      "pad_l" : 0,
      "top" : "relu_MobilenetV2\/MobilenetV2_part_2\/inverted_bottleneck_MobilenetV2_part_2_5\/MobilenetV2_part_2_5_up_pointwise\/BatchNorm\/Relu6:0",
      "blob_weights" : 117,
      "K" : 16,
      "blob_biases" : 115,
      "name" : "MobilenetV2\/MobilenetV2_part_2\/inverted_bottleneck_MobilenetV2_part_2_5\/MobilenetV2_part_2_5_up_pointwise\/Conv2D:0",
      "has_batch_norm" : 0,
      "type" : "convolution",
      "n_groups" : 1,
      "pad_t" : 0,
      "has_biases" : 1,
      "C" : 64,
      "bottom" : "MobilenetV2\/MobilenetV2_part_2\/inverted_bottleneck_MobilenetV2_part_2_4\/Add:0",
      "weights" : {

      },
      "pad_mode" : 1,
      "Nx" : 1,
      "pad_value" : 0,
      "Ny" : 1,
      "n_parallel" : 1
    },
    {
      "alpha" : -1,
      "bottom" : "relu_MobilenetV2\/MobilenetV2_part_2\/inverted_bottleneck_MobilenetV2_part_2_5\/MobilenetV2_part_2_5_up_pointwise\/BatchNorm\/Relu6:0",
      "weights" : {

      },
      "mode" : 6,
      "top" : "relu_MobilenetV2\/MobilenetV2_part_2\/inverted_bottleneck_MobilenetV2_part_2_5\/MobilenetV2_part_2_5_up_pointwise\/BatchNorm\/Relu6:0_neg",
      "type" : "activation",
      "name" : "relu_MobilenetV2\/MobilenetV2_part_2\/inverted_bottleneck_MobilenetV2_part_2_5\/MobilenetV2_part_2_5_up_pointwise\/BatchNorm\/Relu6:0_neg",
      "beta" : 0
    },
    {
      "alpha" : -6,
      "bottom" : "relu_MobilenetV2\/MobilenetV2_part_2\/inverted_bottleneck_MobilenetV2_part_2_5\/MobilenetV2_part_2_5_up_pointwise\/BatchNorm\/Relu6:0_neg",
      "operation" : 25,
      "weights" : {

      },
      "fused_relu" : 0,
      "top" : "relu_MobilenetV2\/MobilenetV2_part_2\/inverted_bottleneck_MobilenetV2_part_2_5\/MobilenetV2_part_2_5_up_pointwise\/BatchNorm\/Relu6:0_clip",
      "type" : "elementwise",
      "name" : "relu_MobilenetV2\/MobilenetV2_part_2\/inverted_bottleneck_MobilenetV2_part_2_5\/MobilenetV2_part_2_5_up_pointwise\/BatchNorm\/Relu6:0_clip",
      "beta" : 0
    },
    {
      "alpha" : -1,
      "bottom" : "relu_MobilenetV2\/MobilenetV2_part_2\/inverted_bottleneck_MobilenetV2_part_2_5\/MobilenetV2_part_2_5_up_pointwise\/BatchNorm\/Relu6:0_clip",
      "weights" : {

      },
      "mode" : 6,
      "top" : "MobilenetV2\/MobilenetV2_part_2\/inverted_bottleneck_MobilenetV2_part_2_5\/MobilenetV2_part_2_5_up_pointwise\/BatchNorm\/Relu6:0",
      "type" : "activation",
      "name" : "MobilenetV2\/MobilenetV2_part_2\/inverted_bottleneck_MobilenetV2_part_2_5\/MobilenetV2_part_2_5_up_pointwise\/BatchNorm\/Relu6:0",
      "beta" : 0
    },
    {
      "mode" : 0,
      "weights" : {

      },
      "top" : "MobilenetV2\/MobilenetV2_part_2\/inverted_bottleneck_MobilenetV2_part_2_5\/MobilenetV2_part_2_5_up_pointwise\/Relu:0",
      "type" : "activation",
      "name" : "MobilenetV2\/MobilenetV2_part_2\/inverted_bottleneck_MobilenetV2_part_2_5\/MobilenetV2_part_2_5_up_pointwise\/Relu:0",
      "bottom" : "MobilenetV2\/MobilenetV2_part_2\/inverted_bottleneck_MobilenetV2_part_2_5\/MobilenetV2_part_2_5_up_pointwise\/BatchNorm\/Relu6:0"
    },
    {
      "pad_r" : 0,
      "fused_relu" : 1,
      "fused_tanh" : 0,
      "pad_fill_mode" : 0,
      "pad_b" : 0,
      "pad_l" : 0,
      "top" : "MobilenetV2\/MobilenetV2_part_2\/inverted_bottleneck_MobilenetV2_part_2_5\/MobilenetV2_part_2_5_depthwise\/Relu:0",
      "blob_weights" : 119,
      "K" : 64,
      "name" : "MobilenetV2\/MobilenetV2_part_2\/inverted_bottleneck_MobilenetV2_part_2_5\/MobilenetV2_part_2_5_depthwise\/depthwise:0",
      "has_batch_norm" : 0,
      "type" : "convolution",
      "n_groups" : 64,
      "pad_t" : 0,
      "has_biases" : 0,
      "C" : 64,
      "bottom" : "MobilenetV2\/MobilenetV2_part_2\/inverted_bottleneck_MobilenetV2_part_2_5\/MobilenetV2_part_2_5_up_pointwise\/Relu:0",
      "weights" : {

      },
      "pad_mode" : 1,
      "Nx" : 3,
      "pad_value" : 0,
      "Ny" : 3,
      "n_parallel" : 1
    },
    {
      "pad_r" : 0,
      "fused_relu" : 1,
      "fused_tanh" : 0,
      "pad_fill_mode" : 0,
      "pad_b" : 0,
      "pad_l" : 0,
      "top" : "relu_MobilenetV2\/MobilenetV2_part_2\/inverted_bottleneck_MobilenetV2_part_2_5\/MobilenetV2_part_2_5_pointwise\/BatchNorm\/Relu6:0",
      "blob_weights" : 123,
      "K" : 64,
      "blob_biases" : 121,
      "name" : "MobilenetV2\/MobilenetV2_part_2\/inverted_bottleneck_MobilenetV2_part_2_5\/MobilenetV2_part_2_5_pointwise\/Conv2D:0",
      "has_batch_norm" : 0,
      "type" : "convolution",
      "n_groups" : 1,
      "pad_t" : 0,
      "has_biases" : 1,
      "C" : 16,
      "bottom" : "MobilenetV2\/MobilenetV2_part_2\/inverted_bottleneck_MobilenetV2_part_2_5\/MobilenetV2_part_2_5_depthwise\/Relu:0",
      "weights" : {

      },
      "pad_mode" : 1,
      "Nx" : 1,
      "pad_value" : 0,
      "Ny" : 1,
      "n_parallel" : 1
    },
    {
      "alpha" : -1,
      "bottom" : "relu_MobilenetV2\/MobilenetV2_part_2\/inverted_bottleneck_MobilenetV2_part_2_5\/MobilenetV2_part_2_5_pointwise\/BatchNorm\/Relu6:0",
      "weights" : {

      },
      "mode" : 6,
      "top" : "relu_MobilenetV2\/MobilenetV2_part_2\/inverted_bottleneck_MobilenetV2_part_2_5\/MobilenetV2_part_2_5_pointwise\/BatchNorm\/Relu6:0_neg",
      "type" : "activation",
      "name" : "relu_MobilenetV2\/MobilenetV2_part_2\/inverted_bottleneck_MobilenetV2_part_2_5\/MobilenetV2_part_2_5_pointwise\/BatchNorm\/Relu6:0_neg",
      "beta" : 0
    },
    {
      "alpha" : -6,
      "bottom" : "relu_MobilenetV2\/MobilenetV2_part_2\/inverted_bottleneck_MobilenetV2_part_2_5\/MobilenetV2_part_2_5_pointwise\/BatchNorm\/Relu6:0_neg",
      "operation" : 25,
      "weights" : {

      },
      "fused_relu" : 0,
      "top" : "relu_MobilenetV2\/MobilenetV2_part_2\/inverted_bottleneck_MobilenetV2_part_2_5\/MobilenetV2_part_2_5_pointwise\/BatchNorm\/Relu6:0_clip",
      "type" : "elementwise",
      "name" : "relu_MobilenetV2\/MobilenetV2_part_2\/inverted_bottleneck_MobilenetV2_part_2_5\/MobilenetV2_part_2_5_pointwise\/BatchNorm\/Relu6:0_clip",
      "beta" : 0
    },
    {
      "alpha" : -1,
      "bottom" : "relu_MobilenetV2\/MobilenetV2_part_2\/inverted_bottleneck_MobilenetV2_part_2_5\/MobilenetV2_part_2_5_pointwise\/BatchNorm\/Relu6:0_clip",
      "weights" : {

      },
      "mode" : 6,
      "top" : "MobilenetV2\/MobilenetV2_part_2\/inverted_bottleneck_MobilenetV2_part_2_5\/MobilenetV2_part_2_5_pointwise\/BatchNorm\/Relu6:0",
      "type" : "activation",
      "name" : "MobilenetV2\/MobilenetV2_part_2\/inverted_bottleneck_MobilenetV2_part_2_5\/MobilenetV2_part_2_5_pointwise\/BatchNorm\/Relu6:0",
      "beta" : 0
    },
    {
      "alpha" : 1,
      "bottom" : "MobilenetV2\/MobilenetV2_part_2\/inverted_bottleneck_MobilenetV2_part_2_4\/Add:0,MobilenetV2\/MobilenetV2_part_2\/inverted_bottleneck_MobilenetV2_part_2_5\/MobilenetV2_part_2_5_pointwise\/BatchNorm\/Relu6:0",
      "operation" : 0,
      "weights" : {

      },
      "fused_relu" : 0,
      "top" : "MobilenetV2\/MobilenetV2_part_2\/inverted_bottleneck_MobilenetV2_part_2_5\/Add:0",
      "type" : "elementwise",
      "name" : "MobilenetV2\/MobilenetV2_part_2\/inverted_bottleneck_MobilenetV2_part_2_5\/Add:0",
      "beta" : 0
    },
    {
      "pad_r" : 0,
      "fused_relu" : 1,
      "fused_tanh" : 0,
      "pad_fill_mode" : 0,
      "pad_b" : 0,
      "pad_l" : 0,
      "top" : "relu_MobilenetV2\/MobilenetV2_part_3\/inverted_bottleneck_MobilenetV2_part_3_1\/MobilenetV2_part_3_1_up_pointwise\/BatchNorm\/Relu6:0",
      "blob_weights" : 127,
      "K" : 16,
      "blob_biases" : 125,
      "name" : "MobilenetV2\/MobilenetV2_part_3\/inverted_bottleneck_MobilenetV2_part_3_1\/MobilenetV2_part_3_1_up_pointwise\/Conv2D:0",
      "has_batch_norm" : 0,
      "type" : "convolution",
      "n_groups" : 1,
      "pad_t" : 0,
      "has_biases" : 1,
      "C" : 64,
      "bottom" : "MobilenetV2\/MobilenetV2_part_2\/inverted_bottleneck_MobilenetV2_part_2_5\/Add:0",
      "weights" : {

      },
      "pad_mode" : 1,
      "Nx" : 1,
      "pad_value" : 0,
      "Ny" : 1,
      "n_parallel" : 1
    },
    {
      "alpha" : -1,
      "bottom" : "relu_MobilenetV2\/MobilenetV2_part_3\/inverted_bottleneck_MobilenetV2_part_3_1\/MobilenetV2_part_3_1_up_pointwise\/BatchNorm\/Relu6:0",
      "weights" : {

      },
      "mode" : 6,
      "top" : "relu_MobilenetV2\/MobilenetV2_part_3\/inverted_bottleneck_MobilenetV2_part_3_1\/MobilenetV2_part_3_1_up_pointwise\/BatchNorm\/Relu6:0_neg",
      "type" : "activation",
      "name" : "relu_MobilenetV2\/MobilenetV2_part_3\/inverted_bottleneck_MobilenetV2_part_3_1\/MobilenetV2_part_3_1_up_pointwise\/BatchNorm\/Relu6:0_neg",
      "beta" : 0
    },
    {
      "alpha" : -6,
      "bottom" : "relu_MobilenetV2\/MobilenetV2_part_3\/inverted_bottleneck_MobilenetV2_part_3_1\/MobilenetV2_part_3_1_up_pointwise\/BatchNorm\/Relu6:0_neg",
      "operation" : 25,
      "weights" : {

      },
      "fused_relu" : 0,
      "top" : "relu_MobilenetV2\/MobilenetV2_part_3\/inverted_bottleneck_MobilenetV2_part_3_1\/MobilenetV2_part_3_1_up_pointwise\/BatchNorm\/Relu6:0_clip",
      "type" : "elementwise",
      "name" : "relu_MobilenetV2\/MobilenetV2_part_3\/inverted_bottleneck_MobilenetV2_part_3_1\/MobilenetV2_part_3_1_up_pointwise\/BatchNorm\/Relu6:0_clip",
      "beta" : 0
    },
    {
      "alpha" : -1,
      "bottom" : "relu_MobilenetV2\/MobilenetV2_part_3\/inverted_bottleneck_MobilenetV2_part_3_1\/MobilenetV2_part_3_1_up_pointwise\/BatchNorm\/Relu6:0_clip",
      "weights" : {

      },
      "mode" : 6,
      "top" : "MobilenetV2\/MobilenetV2_part_3\/inverted_bottleneck_MobilenetV2_part_3_1\/MobilenetV2_part_3_1_up_pointwise\/BatchNorm\/Relu6:0",
      "type" : "activation",
      "name" : "MobilenetV2\/MobilenetV2_part_3\/inverted_bottleneck_MobilenetV2_part_3_1\/MobilenetV2_part_3_1_up_pointwise\/BatchNorm\/Relu6:0",
      "beta" : 0
    },
    {
      "mode" : 0,
      "weights" : {

      },
      "top" : "MobilenetV2\/MobilenetV2_part_3\/inverted_bottleneck_MobilenetV2_part_3_1\/MobilenetV2_part_3_1_up_pointwise\/Relu:0",
      "type" : "activation",
      "name" : "MobilenetV2\/MobilenetV2_part_3\/inverted_bottleneck_MobilenetV2_part_3_1\/MobilenetV2_part_3_1_up_pointwise\/Relu:0",
      "bottom" : "MobilenetV2\/MobilenetV2_part_3\/inverted_bottleneck_MobilenetV2_part_3_1\/MobilenetV2_part_3_1_up_pointwise\/BatchNorm\/Relu6:0"
    },
    {
      "pad_r" : 0,
      "fused_relu" : 1,
      "fused_tanh" : 0,
      "pad_fill_mode" : 0,
      "pad_b" : 0,
      "pad_l" : 0,
      "top" : "MobilenetV2\/MobilenetV2_part_3\/inverted_bottleneck_MobilenetV2_part_3_1\/MobilenetV2_part_3_1_depthwise\/Relu:0",
      "blob_weights" : 129,
      "K" : 64,
      "stride_x" : 2,
      "name" : "MobilenetV2\/MobilenetV2_part_3\/inverted_bottleneck_MobilenetV2_part_3_1\/MobilenetV2_part_3_1_depthwise\/depthwise:0",
      "has_batch_norm" : 0,
      "type" : "convolution",
      "n_groups" : 64,
      "pad_t" : 0,
      "stride_y" : 2,
      "has_biases" : 0,
      "C" : 64,
      "bottom" : "MobilenetV2\/MobilenetV2_part_3\/inverted_bottleneck_MobilenetV2_part_3_1\/MobilenetV2_part_3_1_up_pointwise\/Relu:0",
      "weights" : {

      },
      "Nx" : 3,
      "pad_mode" : 1,
      "pad_value" : 0,
      "Ny" : 3,
      "n_parallel" : 1
    },
    {
      "pad_r" : 0,
      "fused_relu" : 1,
      "fused_tanh" : 0,
      "pad_fill_mode" : 0,
      "pad_b" : 0,
      "pad_l" : 0,
      "top" : "relu_MobilenetV2\/MobilenetV2_part_3\/inverted_bottleneck_MobilenetV2_part_3_1\/MobilenetV2_part_3_1_pointwise\/BatchNorm\/Relu6:0",
      "blob_weights" : 133,
      "K" : 64,
      "blob_biases" : 131,
      "name" : "MobilenetV2\/MobilenetV2_part_3\/inverted_bottleneck_MobilenetV2_part_3_1\/MobilenetV2_part_3_1_pointwise\/Conv2D:0",
      "has_batch_norm" : 0,
      "type" : "convolution",
      "n_groups" : 1,
      "pad_t" : 0,
      "has_biases" : 1,
      "C" : 32,
      "bottom" : "MobilenetV2\/MobilenetV2_part_3\/inverted_bottleneck_MobilenetV2_part_3_1\/MobilenetV2_part_3_1_depthwise\/Relu:0",
      "weights" : {

      },
      "pad_mode" : 1,
      "Nx" : 1,
      "pad_value" : 0,
      "Ny" : 1,
      "n_parallel" : 1
    },
    {
      "alpha" : -1,
      "bottom" : "relu_MobilenetV2\/MobilenetV2_part_3\/inverted_bottleneck_MobilenetV2_part_3_1\/MobilenetV2_part_3_1_pointwise\/BatchNorm\/Relu6:0",
      "weights" : {

      },
      "mode" : 6,
      "top" : "relu_MobilenetV2\/MobilenetV2_part_3\/inverted_bottleneck_MobilenetV2_part_3_1\/MobilenetV2_part_3_1_pointwise\/BatchNorm\/Relu6:0_neg",
      "type" : "activation",
      "name" : "relu_MobilenetV2\/MobilenetV2_part_3\/inverted_bottleneck_MobilenetV2_part_3_1\/MobilenetV2_part_3_1_pointwise\/BatchNorm\/Relu6:0_neg",
      "beta" : 0
    },
    {
      "alpha" : -6,
      "bottom" : "relu_MobilenetV2\/MobilenetV2_part_3\/inverted_bottleneck_MobilenetV2_part_3_1\/MobilenetV2_part_3_1_pointwise\/BatchNorm\/Relu6:0_neg",
      "operation" : 25,
      "weights" : {

      },
      "fused_relu" : 0,
      "top" : "relu_MobilenetV2\/MobilenetV2_part_3\/inverted_bottleneck_MobilenetV2_part_3_1\/MobilenetV2_part_3_1_pointwise\/BatchNorm\/Relu6:0_clip",
      "type" : "elementwise",
      "name" : "relu_MobilenetV2\/MobilenetV2_part_3\/inverted_bottleneck_MobilenetV2_part_3_1\/MobilenetV2_part_3_1_pointwise\/BatchNorm\/Relu6:0_clip",
      "beta" : 0
    },
    {
      "alpha" : -1,
      "bottom" : "relu_MobilenetV2\/MobilenetV2_part_3\/inverted_bottleneck_MobilenetV2_part_3_1\/MobilenetV2_part_3_1_pointwise\/BatchNorm\/Relu6:0_clip",
      "weights" : {

      },
      "mode" : 6,
      "top" : "MobilenetV2\/MobilenetV2_part_3\/inverted_bottleneck_MobilenetV2_part_3_1\/MobilenetV2_part_3_1_pointwise\/BatchNorm\/Relu6:0",
      "type" : "activation",
      "name" : "MobilenetV2\/MobilenetV2_part_3\/inverted_bottleneck_MobilenetV2_part_3_1\/MobilenetV2_part_3_1_pointwise\/BatchNorm\/Relu6:0",
      "beta" : 0
    },
    {
      "pad_r" : 0,
      "fused_relu" : 1,
      "fused_tanh" : 0,
      "pad_fill_mode" : 0,
      "pad_b" : 0,
      "pad_l" : 0,
      "top" : "relu_MobilenetV2\/MobilenetV2_part_3\/inverted_bottleneck_MobilenetV2_part_3_2\/MobilenetV2_part_3_2_up_pointwise\/BatchNorm\/Relu6:0",
      "blob_weights" : 137,
      "K" : 32,
      "blob_biases" : 135,
      "name" : "MobilenetV2\/MobilenetV2_part_3\/inverted_bottleneck_MobilenetV2_part_3_2\/MobilenetV2_part_3_2_up_pointwise\/Conv2D:0",
      "has_batch_norm" : 0,
      "type" : "convolution",
      "n_groups" : 1,
      "pad_t" : 0,
      "has_biases" : 1,
      "C" : 128,
      "bottom" : "MobilenetV2\/MobilenetV2_part_3\/inverted_bottleneck_MobilenetV2_part_3_1\/MobilenetV2_part_3_1_pointwise\/BatchNorm\/Relu6:0",
      "weights" : {

      },
      "pad_mode" : 1,
      "Nx" : 1,
      "pad_value" : 0,
      "Ny" : 1,
      "n_parallel" : 1
    },
    {
      "alpha" : -1,
      "bottom" : "relu_MobilenetV2\/MobilenetV2_part_3\/inverted_bottleneck_MobilenetV2_part_3_2\/MobilenetV2_part_3_2_up_pointwise\/BatchNorm\/Relu6:0",
      "weights" : {

      },
      "mode" : 6,
      "top" : "relu_MobilenetV2\/MobilenetV2_part_3\/inverted_bottleneck_MobilenetV2_part_3_2\/MobilenetV2_part_3_2_up_pointwise\/BatchNorm\/Relu6:0_neg",
      "type" : "activation",
      "name" : "relu_MobilenetV2\/MobilenetV2_part_3\/inverted_bottleneck_MobilenetV2_part_3_2\/MobilenetV2_part_3_2_up_pointwise\/BatchNorm\/Relu6:0_neg",
      "beta" : 0
    },
    {
      "alpha" : -6,
      "bottom" : "relu_MobilenetV2\/MobilenetV2_part_3\/inverted_bottleneck_MobilenetV2_part_3_2\/MobilenetV2_part_3_2_up_pointwise\/BatchNorm\/Relu6:0_neg",
      "operation" : 25,
      "weights" : {

      },
      "fused_relu" : 0,
      "top" : "relu_MobilenetV2\/MobilenetV2_part_3\/inverted_bottleneck_MobilenetV2_part_3_2\/MobilenetV2_part_3_2_up_pointwise\/BatchNorm\/Relu6:0_clip",
      "type" : "elementwise",
      "name" : "relu_MobilenetV2\/MobilenetV2_part_3\/inverted_bottleneck_MobilenetV2_part_3_2\/MobilenetV2_part_3_2_up_pointwise\/BatchNorm\/Relu6:0_clip",
      "beta" : 0
    },
    {
      "alpha" : -1,
      "bottom" : "relu_MobilenetV2\/MobilenetV2_part_3\/inverted_bottleneck_MobilenetV2_part_3_2\/MobilenetV2_part_3_2_up_pointwise\/BatchNorm\/Relu6:0_clip",
      "weights" : {

      },
      "mode" : 6,
      "top" : "MobilenetV2\/MobilenetV2_part_3\/inverted_bottleneck_MobilenetV2_part_3_2\/MobilenetV2_part_3_2_up_pointwise\/BatchNorm\/Relu6:0",
      "type" : "activation",
      "name" : "MobilenetV2\/MobilenetV2_part_3\/inverted_bottleneck_MobilenetV2_part_3_2\/MobilenetV2_part_3_2_up_pointwise\/BatchNorm\/Relu6:0",
      "beta" : 0
    },
    {
      "mode" : 0,
      "weights" : {

      },
      "top" : "MobilenetV2\/MobilenetV2_part_3\/inverted_bottleneck_MobilenetV2_part_3_2\/MobilenetV2_part_3_2_up_pointwise\/Relu:0",
      "type" : "activation",
      "name" : "MobilenetV2\/MobilenetV2_part_3\/inverted_bottleneck_MobilenetV2_part_3_2\/MobilenetV2_part_3_2_up_pointwise\/Relu:0",
      "bottom" : "MobilenetV2\/MobilenetV2_part_3\/inverted_bottleneck_MobilenetV2_part_3_2\/MobilenetV2_part_3_2_up_pointwise\/BatchNorm\/Relu6:0"
    },
    {
      "pad_r" : 0,
      "fused_relu" : 1,
      "fused_tanh" : 0,
      "pad_fill_mode" : 0,
      "pad_b" : 0,
      "pad_l" : 0,
      "top" : "MobilenetV2\/MobilenetV2_part_3\/inverted_bottleneck_MobilenetV2_part_3_2\/MobilenetV2_part_3_2_depthwise\/Relu:0",
      "blob_weights" : 139,
      "K" : 128,
      "name" : "MobilenetV2\/MobilenetV2_part_3\/inverted_bottleneck_MobilenetV2_part_3_2\/MobilenetV2_part_3_2_depthwise\/depthwise:0",
      "has_batch_norm" : 0,
      "type" : "convolution",
      "n_groups" : 128,
      "pad_t" : 0,
      "has_biases" : 0,
      "C" : 128,
      "bottom" : "MobilenetV2\/MobilenetV2_part_3\/inverted_bottleneck_MobilenetV2_part_3_2\/MobilenetV2_part_3_2_up_pointwise\/Relu:0",
      "weights" : {

      },
      "pad_mode" : 1,
      "Nx" : 3,
      "pad_value" : 0,
      "Ny" : 3,
      "n_parallel" : 1
    },
    {
      "pad_r" : 0,
      "fused_relu" : 1,
      "fused_tanh" : 0,
      "pad_fill_mode" : 0,
      "pad_b" : 0,
      "pad_l" : 0,
      "top" : "relu_MobilenetV2\/MobilenetV2_part_3\/inverted_bottleneck_MobilenetV2_part_3_2\/MobilenetV2_part_3_2_pointwise\/BatchNorm\/Relu6:0",
      "blob_weights" : 143,
      "K" : 128,
      "blob_biases" : 141,
      "name" : "MobilenetV2\/MobilenetV2_part_3\/inverted_bottleneck_MobilenetV2_part_3_2\/MobilenetV2_part_3_2_pointwise\/Conv2D:0",
      "has_batch_norm" : 0,
      "type" : "convolution",
      "n_groups" : 1,
      "pad_t" : 0,
      "has_biases" : 1,
      "C" : 32,
      "bottom" : "MobilenetV2\/MobilenetV2_part_3\/inverted_bottleneck_MobilenetV2_part_3_2\/MobilenetV2_part_3_2_depthwise\/Relu:0",
      "weights" : {

      },
      "pad_mode" : 1,
      "Nx" : 1,
      "pad_value" : 0,
      "Ny" : 1,
      "n_parallel" : 1
    },
    {
      "alpha" : -1,
      "bottom" : "relu_MobilenetV2\/MobilenetV2_part_3\/inverted_bottleneck_MobilenetV2_part_3_2\/MobilenetV2_part_3_2_pointwise\/BatchNorm\/Relu6:0",
      "weights" : {

      },
      "mode" : 6,
      "top" : "relu_MobilenetV2\/MobilenetV2_part_3\/inverted_bottleneck_MobilenetV2_part_3_2\/MobilenetV2_part_3_2_pointwise\/BatchNorm\/Relu6:0_neg",
      "type" : "activation",
      "name" : "relu_MobilenetV2\/MobilenetV2_part_3\/inverted_bottleneck_MobilenetV2_part_3_2\/MobilenetV2_part_3_2_pointwise\/BatchNorm\/Relu6:0_neg",
      "beta" : 0
    },
    {
      "alpha" : -6,
      "bottom" : "relu_MobilenetV2\/MobilenetV2_part_3\/inverted_bottleneck_MobilenetV2_part_3_2\/MobilenetV2_part_3_2_pointwise\/BatchNorm\/Relu6:0_neg",
      "operation" : 25,
      "weights" : {

      },
      "fused_relu" : 0,
      "top" : "relu_MobilenetV2\/MobilenetV2_part_3\/inverted_bottleneck_MobilenetV2_part_3_2\/MobilenetV2_part_3_2_pointwise\/BatchNorm\/Relu6:0_clip",
      "type" : "elementwise",
      "name" : "relu_MobilenetV2\/MobilenetV2_part_3\/inverted_bottleneck_MobilenetV2_part_3_2\/MobilenetV2_part_3_2_pointwise\/BatchNorm\/Relu6:0_clip",
      "beta" : 0
    },
    {
      "alpha" : -1,
      "bottom" : "relu_MobilenetV2\/MobilenetV2_part_3\/inverted_bottleneck_MobilenetV2_part_3_2\/MobilenetV2_part_3_2_pointwise\/BatchNorm\/Relu6:0_clip",
      "weights" : {

      },
      "mode" : 6,
      "top" : "MobilenetV2\/MobilenetV2_part_3\/inverted_bottleneck_MobilenetV2_part_3_2\/MobilenetV2_part_3_2_pointwise\/BatchNorm\/Relu6:0",
      "type" : "activation",
      "name" : "MobilenetV2\/MobilenetV2_part_3\/inverted_bottleneck_MobilenetV2_part_3_2\/MobilenetV2_part_3_2_pointwise\/BatchNorm\/Relu6:0",
      "beta" : 0
    },
    {
      "alpha" : 1,
      "bottom" : "MobilenetV2\/MobilenetV2_part_3\/inverted_bottleneck_MobilenetV2_part_3_1\/MobilenetV2_part_3_1_pointwise\/BatchNorm\/Relu6:0,MobilenetV2\/MobilenetV2_part_3\/inverted_bottleneck_MobilenetV2_part_3_2\/MobilenetV2_part_3_2_pointwise\/BatchNorm\/Relu6:0",
      "operation" : 0,
      "weights" : {

      },
      "fused_relu" : 0,
      "top" : "MobilenetV2\/MobilenetV2_part_3\/inverted_bottleneck_MobilenetV2_part_3_2\/Add:0",
      "type" : "elementwise",
      "name" : "MobilenetV2\/MobilenetV2_part_3\/inverted_bottleneck_MobilenetV2_part_3_2\/Add:0",
      "beta" : 0
    },
    {
      "pad_r" : 0,
      "fused_relu" : 1,
      "fused_tanh" : 0,
      "pad_fill_mode" : 0,
      "pad_b" : 0,
      "pad_l" : 0,
      "top" : "relu_MobilenetV2\/MobilenetV2_part_3\/inverted_bottleneck_MobilenetV2_part_3_3\/MobilenetV2_part_3_3_up_pointwise\/BatchNorm\/Relu6:0",
      "blob_weights" : 147,
      "K" : 32,
      "blob_biases" : 145,
      "name" : "MobilenetV2\/MobilenetV2_part_3\/inverted_bottleneck_MobilenetV2_part_3_3\/MobilenetV2_part_3_3_up_pointwise\/Conv2D:0",
      "has_batch_norm" : 0,
      "type" : "convolution",
      "n_groups" : 1,
      "pad_t" : 0,
      "has_biases" : 1,
      "C" : 128,
      "bottom" : "MobilenetV2\/MobilenetV2_part_3\/inverted_bottleneck_MobilenetV2_part_3_2\/Add:0",
      "weights" : {

      },
      "pad_mode" : 1,
      "Nx" : 1,
      "pad_value" : 0,
      "Ny" : 1,
      "n_parallel" : 1
    },
    {
      "alpha" : -1,
      "bottom" : "relu_MobilenetV2\/MobilenetV2_part_3\/inverted_bottleneck_MobilenetV2_part_3_3\/MobilenetV2_part_3_3_up_pointwise\/BatchNorm\/Relu6:0",
      "weights" : {

      },
      "mode" : 6,
      "top" : "relu_MobilenetV2\/MobilenetV2_part_3\/inverted_bottleneck_MobilenetV2_part_3_3\/MobilenetV2_part_3_3_up_pointwise\/BatchNorm\/Relu6:0_neg",
      "type" : "activation",
      "name" : "relu_MobilenetV2\/MobilenetV2_part_3\/inverted_bottleneck_MobilenetV2_part_3_3\/MobilenetV2_part_3_3_up_pointwise\/BatchNorm\/Relu6:0_neg",
      "beta" : 0
    },
    {
      "alpha" : -6,
      "bottom" : "relu_MobilenetV2\/MobilenetV2_part_3\/inverted_bottleneck_MobilenetV2_part_3_3\/MobilenetV2_part_3_3_up_pointwise\/BatchNorm\/Relu6:0_neg",
      "operation" : 25,
      "weights" : {

      },
      "fused_relu" : 0,
      "top" : "relu_MobilenetV2\/MobilenetV2_part_3\/inverted_bottleneck_MobilenetV2_part_3_3\/MobilenetV2_part_3_3_up_pointwise\/BatchNorm\/Relu6:0_clip",
      "type" : "elementwise",
      "name" : "relu_MobilenetV2\/MobilenetV2_part_3\/inverted_bottleneck_MobilenetV2_part_3_3\/MobilenetV2_part_3_3_up_pointwise\/BatchNorm\/Relu6:0_clip",
      "beta" : 0
    },
    {
      "alpha" : -1,
      "bottom" : "relu_MobilenetV2\/MobilenetV2_part_3\/inverted_bottleneck_MobilenetV2_part_3_3\/MobilenetV2_part_3_3_up_pointwise\/BatchNorm\/Relu6:0_clip",
      "weights" : {

      },
      "mode" : 6,
      "top" : "MobilenetV2\/MobilenetV2_part_3\/inverted_bottleneck_MobilenetV2_part_3_3\/MobilenetV2_part_3_3_up_pointwise\/BatchNorm\/Relu6:0",
      "type" : "activation",
      "name" : "MobilenetV2\/MobilenetV2_part_3\/inverted_bottleneck_MobilenetV2_part_3_3\/MobilenetV2_part_3_3_up_pointwise\/BatchNorm\/Relu6:0",
      "beta" : 0
    },
    {
      "mode" : 0,
      "weights" : {

      },
      "top" : "MobilenetV2\/MobilenetV2_part_3\/inverted_bottleneck_MobilenetV2_part_3_3\/MobilenetV2_part_3_3_up_pointwise\/Relu:0",
      "type" : "activation",
      "name" : "MobilenetV2\/MobilenetV2_part_3\/inverted_bottleneck_MobilenetV2_part_3_3\/MobilenetV2_part_3_3_up_pointwise\/Relu:0",
      "bottom" : "MobilenetV2\/MobilenetV2_part_3\/inverted_bottleneck_MobilenetV2_part_3_3\/MobilenetV2_part_3_3_up_pointwise\/BatchNorm\/Relu6:0"
    },
    {
      "pad_r" : 0,
      "fused_relu" : 1,
      "fused_tanh" : 0,
      "pad_fill_mode" : 0,
      "pad_b" : 0,
      "pad_l" : 0,
      "top" : "MobilenetV2\/MobilenetV2_part_3\/inverted_bottleneck_MobilenetV2_part_3_3\/MobilenetV2_part_3_3_depthwise\/Relu:0",
      "blob_weights" : 149,
      "K" : 128,
      "name" : "MobilenetV2\/MobilenetV2_part_3\/inverted_bottleneck_MobilenetV2_part_3_3\/MobilenetV2_part_3_3_depthwise\/depthwise:0",
      "has_batch_norm" : 0,
      "type" : "convolution",
      "n_groups" : 128,
      "pad_t" : 0,
      "has_biases" : 0,
      "C" : 128,
      "bottom" : "MobilenetV2\/MobilenetV2_part_3\/inverted_bottleneck_MobilenetV2_part_3_3\/MobilenetV2_part_3_3_up_pointwise\/Relu:0",
      "weights" : {

      },
      "pad_mode" : 1,
      "Nx" : 3,
      "pad_value" : 0,
      "Ny" : 3,
      "n_parallel" : 1
    },
    {
      "pad_r" : 0,
      "fused_relu" : 1,
      "fused_tanh" : 0,
      "pad_fill_mode" : 0,
      "pad_b" : 0,
      "pad_l" : 0,
      "top" : "relu_MobilenetV2\/MobilenetV2_part_3\/inverted_bottleneck_MobilenetV2_part_3_3\/MobilenetV2_part_3_3_pointwise\/BatchNorm\/Relu6:0",
      "blob_weights" : 153,
      "K" : 128,
      "blob_biases" : 151,
      "name" : "MobilenetV2\/MobilenetV2_part_3\/inverted_bottleneck_MobilenetV2_part_3_3\/MobilenetV2_part_3_3_pointwise\/Conv2D:0",
      "has_batch_norm" : 0,
      "type" : "convolution",
      "n_groups" : 1,
      "pad_t" : 0,
      "has_biases" : 1,
      "C" : 32,
      "bottom" : "MobilenetV2\/MobilenetV2_part_3\/inverted_bottleneck_MobilenetV2_part_3_3\/MobilenetV2_part_3_3_depthwise\/Relu:0",
      "weights" : {

      },
      "pad_mode" : 1,
      "Nx" : 1,
      "pad_value" : 0,
      "Ny" : 1,
      "n_parallel" : 1
    },
    {
      "alpha" : -1,
      "bottom" : "relu_MobilenetV2\/MobilenetV2_part_3\/inverted_bottleneck_MobilenetV2_part_3_3\/MobilenetV2_part_3_3_pointwise\/BatchNorm\/Relu6:0",
      "weights" : {

      },
      "mode" : 6,
      "top" : "relu_MobilenetV2\/MobilenetV2_part_3\/inverted_bottleneck_MobilenetV2_part_3_3\/MobilenetV2_part_3_3_pointwise\/BatchNorm\/Relu6:0_neg",
      "type" : "activation",
      "name" : "relu_MobilenetV2\/MobilenetV2_part_3\/inverted_bottleneck_MobilenetV2_part_3_3\/MobilenetV2_part_3_3_pointwise\/BatchNorm\/Relu6:0_neg",
      "beta" : 0
    },
    {
      "alpha" : -6,
      "bottom" : "relu_MobilenetV2\/MobilenetV2_part_3\/inverted_bottleneck_MobilenetV2_part_3_3\/MobilenetV2_part_3_3_pointwise\/BatchNorm\/Relu6:0_neg",
      "operation" : 25,
      "weights" : {

      },
      "fused_relu" : 0,
      "top" : "relu_MobilenetV2\/MobilenetV2_part_3\/inverted_bottleneck_MobilenetV2_part_3_3\/MobilenetV2_part_3_3_pointwise\/BatchNorm\/Relu6:0_clip",
      "type" : "elementwise",
      "name" : "relu_MobilenetV2\/MobilenetV2_part_3\/inverted_bottleneck_MobilenetV2_part_3_3\/MobilenetV2_part_3_3_pointwise\/BatchNorm\/Relu6:0_clip",
      "beta" : 0
    },
    {
      "alpha" : -1,
      "bottom" : "relu_MobilenetV2\/MobilenetV2_part_3\/inverted_bottleneck_MobilenetV2_part_3_3\/MobilenetV2_part_3_3_pointwise\/BatchNorm\/Relu6:0_clip",
      "weights" : {

      },
      "mode" : 6,
      "top" : "MobilenetV2\/MobilenetV2_part_3\/inverted_bottleneck_MobilenetV2_part_3_3\/MobilenetV2_part_3_3_pointwise\/BatchNorm\/Relu6:0",
      "type" : "activation",
      "name" : "MobilenetV2\/MobilenetV2_part_3\/inverted_bottleneck_MobilenetV2_part_3_3\/MobilenetV2_part_3_3_pointwise\/BatchNorm\/Relu6:0",
      "beta" : 0
    },
    {
      "alpha" : 1,
      "bottom" : "MobilenetV2\/MobilenetV2_part_3\/inverted_bottleneck_MobilenetV2_part_3_2\/Add:0,MobilenetV2\/MobilenetV2_part_3\/inverted_bottleneck_MobilenetV2_part_3_3\/MobilenetV2_part_3_3_pointwise\/BatchNorm\/Relu6:0",
      "operation" : 0,
      "weights" : {

      },
      "fused_relu" : 0,
      "top" : "MobilenetV2\/MobilenetV2_part_3\/inverted_bottleneck_MobilenetV2_part_3_3\/Add:0",
      "type" : "elementwise",
      "name" : "MobilenetV2\/MobilenetV2_part_3\/inverted_bottleneck_MobilenetV2_part_3_3\/Add:0",
      "beta" : 0
    },
    {
      "pad_r" : 0,
      "fused_relu" : 1,
      "fused_tanh" : 0,
      "pad_fill_mode" : 0,
      "pad_b" : 0,
      "pad_l" : 0,
      "top" : "relu_MobilenetV2\/MobilenetV2_part_3\/inverted_bottleneck_MobilenetV2_part_3_4\/MobilenetV2_part_3_4_up_pointwise\/BatchNorm\/Relu6:0",
      "blob_weights" : 157,
      "K" : 32,
      "blob_biases" : 155,
      "name" : "MobilenetV2\/MobilenetV2_part_3\/inverted_bottleneck_MobilenetV2_part_3_4\/MobilenetV2_part_3_4_up_pointwise\/Conv2D:0",
      "has_batch_norm" : 0,
      "type" : "convolution",
      "n_groups" : 1,
      "pad_t" : 0,
      "has_biases" : 1,
      "C" : 128,
      "bottom" : "MobilenetV2\/MobilenetV2_part_3\/inverted_bottleneck_MobilenetV2_part_3_3\/Add:0",
      "weights" : {

      },
      "pad_mode" : 1,
      "Nx" : 1,
      "pad_value" : 0,
      "Ny" : 1,
      "n_parallel" : 1
    },
    {
      "alpha" : -1,
      "bottom" : "relu_MobilenetV2\/MobilenetV2_part_3\/inverted_bottleneck_MobilenetV2_part_3_4\/MobilenetV2_part_3_4_up_pointwise\/BatchNorm\/Relu6:0",
      "weights" : {

      },
      "mode" : 6,
      "top" : "relu_MobilenetV2\/MobilenetV2_part_3\/inverted_bottleneck_MobilenetV2_part_3_4\/MobilenetV2_part_3_4_up_pointwise\/BatchNorm\/Relu6:0_neg",
      "type" : "activation",
      "name" : "relu_MobilenetV2\/MobilenetV2_part_3\/inverted_bottleneck_MobilenetV2_part_3_4\/MobilenetV2_part_3_4_up_pointwise\/BatchNorm\/Relu6:0_neg",
      "beta" : 0
    },
    {
      "alpha" : -6,
      "bottom" : "relu_MobilenetV2\/MobilenetV2_part_3\/inverted_bottleneck_MobilenetV2_part_3_4\/MobilenetV2_part_3_4_up_pointwise\/BatchNorm\/Relu6:0_neg",
      "operation" : 25,
      "weights" : {

      },
      "fused_relu" : 0,
      "top" : "relu_MobilenetV2\/MobilenetV2_part_3\/inverted_bottleneck_MobilenetV2_part_3_4\/MobilenetV2_part_3_4_up_pointwise\/BatchNorm\/Relu6:0_clip",
      "type" : "elementwise",
      "name" : "relu_MobilenetV2\/MobilenetV2_part_3\/inverted_bottleneck_MobilenetV2_part_3_4\/MobilenetV2_part_3_4_up_pointwise\/BatchNorm\/Relu6:0_clip",
      "beta" : 0
    },
    {
      "alpha" : -1,
      "bottom" : "relu_MobilenetV2\/MobilenetV2_part_3\/inverted_bottleneck_MobilenetV2_part_3_4\/MobilenetV2_part_3_4_up_pointwise\/BatchNorm\/Relu6:0_clip",
      "weights" : {

      },
      "mode" : 6,
      "top" : "MobilenetV2\/MobilenetV2_part_3\/inverted_bottleneck_MobilenetV2_part_3_4\/MobilenetV2_part_3_4_up_pointwise\/BatchNorm\/Relu6:0",
      "type" : "activation",
      "name" : "MobilenetV2\/MobilenetV2_part_3\/inverted_bottleneck_MobilenetV2_part_3_4\/MobilenetV2_part_3_4_up_pointwise\/BatchNorm\/Relu6:0",
      "beta" : 0
    },
    {
      "mode" : 0,
      "weights" : {

      },
      "top" : "MobilenetV2\/MobilenetV2_part_3\/inverted_bottleneck_MobilenetV2_part_3_4\/MobilenetV2_part_3_4_up_pointwise\/Relu:0",
      "type" : "activation",
      "name" : "MobilenetV2\/MobilenetV2_part_3\/inverted_bottleneck_MobilenetV2_part_3_4\/MobilenetV2_part_3_4_up_pointwise\/Relu:0",
      "bottom" : "MobilenetV2\/MobilenetV2_part_3\/inverted_bottleneck_MobilenetV2_part_3_4\/MobilenetV2_part_3_4_up_pointwise\/BatchNorm\/Relu6:0"
    },
    {
      "pad_r" : 0,
      "fused_relu" : 1,
      "fused_tanh" : 0,
      "pad_fill_mode" : 0,
      "pad_b" : 0,
      "pad_l" : 0,
      "top" : "MobilenetV2\/MobilenetV2_part_3\/inverted_bottleneck_MobilenetV2_part_3_4\/MobilenetV2_part_3_4_depthwise\/Relu:0",
      "blob_weights" : 159,
      "K" : 128,
      "name" : "MobilenetV2\/MobilenetV2_part_3\/inverted_bottleneck_MobilenetV2_part_3_4\/MobilenetV2_part_3_4_depthwise\/depthwise:0",
      "has_batch_norm" : 0,
      "type" : "convolution",
      "n_groups" : 128,
      "pad_t" : 0,
      "has_biases" : 0,
      "C" : 128,
      "bottom" : "MobilenetV2\/MobilenetV2_part_3\/inverted_bottleneck_MobilenetV2_part_3_4\/MobilenetV2_part_3_4_up_pointwise\/Relu:0",
      "weights" : {

      },
      "pad_mode" : 1,
      "Nx" : 3,
      "pad_value" : 0,
      "Ny" : 3,
      "n_parallel" : 1
    },
    {
      "pad_r" : 0,
      "fused_relu" : 1,
      "fused_tanh" : 0,
      "pad_fill_mode" : 0,
      "pad_b" : 0,
      "pad_l" : 0,
      "top" : "relu_MobilenetV2\/MobilenetV2_part_3\/inverted_bottleneck_MobilenetV2_part_3_4\/MobilenetV2_part_3_4_pointwise\/BatchNorm\/Relu6:0",
      "blob_weights" : 163,
      "K" : 128,
      "blob_biases" : 161,
      "name" : "MobilenetV2\/MobilenetV2_part_3\/inverted_bottleneck_MobilenetV2_part_3_4\/MobilenetV2_part_3_4_pointwise\/Conv2D:0",
      "has_batch_norm" : 0,
      "type" : "convolution",
      "n_groups" : 1,
      "pad_t" : 0,
      "has_biases" : 1,
      "C" : 32,
      "bottom" : "MobilenetV2\/MobilenetV2_part_3\/inverted_bottleneck_MobilenetV2_part_3_4\/MobilenetV2_part_3_4_depthwise\/Relu:0",
      "weights" : {

      },
      "pad_mode" : 1,
      "Nx" : 1,
      "pad_value" : 0,
      "Ny" : 1,
      "n_parallel" : 1
    },
    {
      "alpha" : -1,
      "bottom" : "relu_MobilenetV2\/MobilenetV2_part_3\/inverted_bottleneck_MobilenetV2_part_3_4\/MobilenetV2_part_3_4_pointwise\/BatchNorm\/Relu6:0",
      "weights" : {

      },
      "mode" : 6,
      "top" : "relu_MobilenetV2\/MobilenetV2_part_3\/inverted_bottleneck_MobilenetV2_part_3_4\/MobilenetV2_part_3_4_pointwise\/BatchNorm\/Relu6:0_neg",
      "type" : "activation",
      "name" : "relu_MobilenetV2\/MobilenetV2_part_3\/inverted_bottleneck_MobilenetV2_part_3_4\/MobilenetV2_part_3_4_pointwise\/BatchNorm\/Relu6:0_neg",
      "beta" : 0
    },
    {
      "alpha" : -6,
      "bottom" : "relu_MobilenetV2\/MobilenetV2_part_3\/inverted_bottleneck_MobilenetV2_part_3_4\/MobilenetV2_part_3_4_pointwise\/BatchNorm\/Relu6:0_neg",
      "operation" : 25,
      "weights" : {

      },
      "fused_relu" : 0,
      "top" : "relu_MobilenetV2\/MobilenetV2_part_3\/inverted_bottleneck_MobilenetV2_part_3_4\/MobilenetV2_part_3_4_pointwise\/BatchNorm\/Relu6:0_clip",
      "type" : "elementwise",
      "name" : "relu_MobilenetV2\/MobilenetV2_part_3\/inverted_bottleneck_MobilenetV2_part_3_4\/MobilenetV2_part_3_4_pointwise\/BatchNorm\/Relu6:0_clip",
      "beta" : 0
    },
    {
      "alpha" : -1,
      "bottom" : "relu_MobilenetV2\/MobilenetV2_part_3\/inverted_bottleneck_MobilenetV2_part_3_4\/MobilenetV2_part_3_4_pointwise\/BatchNorm\/Relu6:0_clip",
      "weights" : {

      },
      "mode" : 6,
      "top" : "MobilenetV2\/MobilenetV2_part_3\/inverted_bottleneck_MobilenetV2_part_3_4\/MobilenetV2_part_3_4_pointwise\/BatchNorm\/Relu6:0",
      "type" : "activation",
      "name" : "MobilenetV2\/MobilenetV2_part_3\/inverted_bottleneck_MobilenetV2_part_3_4\/MobilenetV2_part_3_4_pointwise\/BatchNorm\/Relu6:0",
      "beta" : 0
    },
    {
      "alpha" : 1,
      "bottom" : "MobilenetV2\/MobilenetV2_part_3\/inverted_bottleneck_MobilenetV2_part_3_3\/Add:0,MobilenetV2\/MobilenetV2_part_3\/inverted_bottleneck_MobilenetV2_part_3_4\/MobilenetV2_part_3_4_pointwise\/BatchNorm\/Relu6:0",
      "operation" : 0,
      "weights" : {

      },
      "fused_relu" : 0,
      "top" : "MobilenetV2\/MobilenetV2_part_3\/inverted_bottleneck_MobilenetV2_part_3_4\/Add:0",
      "type" : "elementwise",
      "name" : "MobilenetV2\/MobilenetV2_part_3\/inverted_bottleneck_MobilenetV2_part_3_4\/Add:0",
      "beta" : 0
    },
    {
      "pad_r" : 0,
      "fused_relu" : 1,
      "fused_tanh" : 0,
      "pad_fill_mode" : 0,
      "pad_b" : 0,
      "pad_l" : 0,
      "top" : "relu_MobilenetV2\/MobilenetV2_part_3\/inverted_bottleneck_MobilenetV2_part_3_5\/MobilenetV2_part_3_5_up_pointwise\/BatchNorm\/Relu6:0",
      "blob_weights" : 167,
      "K" : 32,
      "blob_biases" : 165,
      "name" : "MobilenetV2\/MobilenetV2_part_3\/inverted_bottleneck_MobilenetV2_part_3_5\/MobilenetV2_part_3_5_up_pointwise\/Conv2D:0",
      "has_batch_norm" : 0,
      "type" : "convolution",
      "n_groups" : 1,
      "pad_t" : 0,
      "has_biases" : 1,
      "C" : 128,
      "bottom" : "MobilenetV2\/MobilenetV2_part_3\/inverted_bottleneck_MobilenetV2_part_3_4\/Add:0",
      "weights" : {

      },
      "pad_mode" : 1,
      "Nx" : 1,
      "pad_value" : 0,
      "Ny" : 1,
      "n_parallel" : 1
    },
    {
      "alpha" : -1,
      "bottom" : "relu_MobilenetV2\/MobilenetV2_part_3\/inverted_bottleneck_MobilenetV2_part_3_5\/MobilenetV2_part_3_5_up_pointwise\/BatchNorm\/Relu6:0",
      "weights" : {

      },
      "mode" : 6,
      "top" : "relu_MobilenetV2\/MobilenetV2_part_3\/inverted_bottleneck_MobilenetV2_part_3_5\/MobilenetV2_part_3_5_up_pointwise\/BatchNorm\/Relu6:0_neg",
      "type" : "activation",
      "name" : "relu_MobilenetV2\/MobilenetV2_part_3\/inverted_bottleneck_MobilenetV2_part_3_5\/MobilenetV2_part_3_5_up_pointwise\/BatchNorm\/Relu6:0_neg",
      "beta" : 0
    },
    {
      "alpha" : -6,
      "bottom" : "relu_MobilenetV2\/MobilenetV2_part_3\/inverted_bottleneck_MobilenetV2_part_3_5\/MobilenetV2_part_3_5_up_pointwise\/BatchNorm\/Relu6:0_neg",
      "operation" : 25,
      "weights" : {

      },
      "fused_relu" : 0,
      "top" : "relu_MobilenetV2\/MobilenetV2_part_3\/inverted_bottleneck_MobilenetV2_part_3_5\/MobilenetV2_part_3_5_up_pointwise\/BatchNorm\/Relu6:0_clip",
      "type" : "elementwise",
      "name" : "relu_MobilenetV2\/MobilenetV2_part_3\/inverted_bottleneck_MobilenetV2_part_3_5\/MobilenetV2_part_3_5_up_pointwise\/BatchNorm\/Relu6:0_clip",
      "beta" : 0
    },
    {
      "alpha" : -1,
      "bottom" : "relu_MobilenetV2\/MobilenetV2_part_3\/inverted_bottleneck_MobilenetV2_part_3_5\/MobilenetV2_part_3_5_up_pointwise\/BatchNorm\/Relu6:0_clip",
      "weights" : {

      },
      "mode" : 6,
      "top" : "MobilenetV2\/MobilenetV2_part_3\/inverted_bottleneck_MobilenetV2_part_3_5\/MobilenetV2_part_3_5_up_pointwise\/BatchNorm\/Relu6:0",
      "type" : "activation",
      "name" : "MobilenetV2\/MobilenetV2_part_3\/inverted_bottleneck_MobilenetV2_part_3_5\/MobilenetV2_part_3_5_up_pointwise\/BatchNorm\/Relu6:0",
      "beta" : 0
    },
    {
      "mode" : 0,
      "weights" : {

      },
      "top" : "MobilenetV2\/MobilenetV2_part_3\/inverted_bottleneck_MobilenetV2_part_3_5\/MobilenetV2_part_3_5_up_pointwise\/Relu:0",
      "type" : "activation",
      "name" : "MobilenetV2\/MobilenetV2_part_3\/inverted_bottleneck_MobilenetV2_part_3_5\/MobilenetV2_part_3_5_up_pointwise\/Relu:0",
      "bottom" : "MobilenetV2\/MobilenetV2_part_3\/inverted_bottleneck_MobilenetV2_part_3_5\/MobilenetV2_part_3_5_up_pointwise\/BatchNorm\/Relu6:0"
    },
    {
      "pad_r" : 0,
      "fused_relu" : 1,
      "fused_tanh" : 0,
      "pad_fill_mode" : 0,
      "pad_b" : 0,
      "pad_l" : 0,
      "top" : "MobilenetV2\/MobilenetV2_part_3\/inverted_bottleneck_MobilenetV2_part_3_5\/MobilenetV2_part_3_5_depthwise\/Relu:0",
      "blob_weights" : 169,
      "K" : 128,
      "name" : "MobilenetV2\/MobilenetV2_part_3\/inverted_bottleneck_MobilenetV2_part_3_5\/MobilenetV2_part_3_5_depthwise\/depthwise:0",
      "has_batch_norm" : 0,
      "type" : "convolution",
      "n_groups" : 128,
      "pad_t" : 0,
      "has_biases" : 0,
      "C" : 128,
      "bottom" : "MobilenetV2\/MobilenetV2_part_3\/inverted_bottleneck_MobilenetV2_part_3_5\/MobilenetV2_part_3_5_up_pointwise\/Relu:0",
      "weights" : {

      },
      "pad_mode" : 1,
      "Nx" : 3,
      "pad_value" : 0,
      "Ny" : 3,
      "n_parallel" : 1
    },
    {
      "pad_r" : 0,
      "fused_relu" : 1,
      "fused_tanh" : 0,
      "pad_fill_mode" : 0,
      "pad_b" : 0,
      "pad_l" : 0,
      "top" : "relu_MobilenetV2\/MobilenetV2_part_3\/inverted_bottleneck_MobilenetV2_part_3_5\/MobilenetV2_part_3_5_pointwise\/BatchNorm\/Relu6:0",
      "blob_weights" : 173,
      "K" : 128,
      "blob_biases" : 171,
      "name" : "MobilenetV2\/MobilenetV2_part_3\/inverted_bottleneck_MobilenetV2_part_3_5\/MobilenetV2_part_3_5_pointwise\/Conv2D:0",
      "has_batch_norm" : 0,
      "type" : "convolution",
      "n_groups" : 1,
      "pad_t" : 0,
      "has_biases" : 1,
      "C" : 32,
      "bottom" : "MobilenetV2\/MobilenetV2_part_3\/inverted_bottleneck_MobilenetV2_part_3_5\/MobilenetV2_part_3_5_depthwise\/Relu:0",
      "weights" : {

      },
      "pad_mode" : 1,
      "Nx" : 1,
      "pad_value" : 0,
      "Ny" : 1,
      "n_parallel" : 1
    },
    {
      "alpha" : -1,
      "bottom" : "relu_MobilenetV2\/MobilenetV2_part_3\/inverted_bottleneck_MobilenetV2_part_3_5\/MobilenetV2_part_3_5_pointwise\/BatchNorm\/Relu6:0",
      "weights" : {

      },
      "mode" : 6,
      "top" : "relu_MobilenetV2\/MobilenetV2_part_3\/inverted_bottleneck_MobilenetV2_part_3_5\/MobilenetV2_part_3_5_pointwise\/BatchNorm\/Relu6:0_neg",
      "type" : "activation",
      "name" : "relu_MobilenetV2\/MobilenetV2_part_3\/inverted_bottleneck_MobilenetV2_part_3_5\/MobilenetV2_part_3_5_pointwise\/BatchNorm\/Relu6:0_neg",
      "beta" : 0
    },
    {
      "alpha" : -6,
      "bottom" : "relu_MobilenetV2\/MobilenetV2_part_3\/inverted_bottleneck_MobilenetV2_part_3_5\/MobilenetV2_part_3_5_pointwise\/BatchNorm\/Relu6:0_neg",
      "operation" : 25,
      "weights" : {

      },
      "fused_relu" : 0,
      "top" : "relu_MobilenetV2\/MobilenetV2_part_3\/inverted_bottleneck_MobilenetV2_part_3_5\/MobilenetV2_part_3_5_pointwise\/BatchNorm\/Relu6:0_clip",
      "type" : "elementwise",
      "name" : "relu_MobilenetV2\/MobilenetV2_part_3\/inverted_bottleneck_MobilenetV2_part_3_5\/MobilenetV2_part_3_5_pointwise\/BatchNorm\/Relu6:0_clip",
      "beta" : 0
    },
    {
      "alpha" : -1,
      "bottom" : "relu_MobilenetV2\/MobilenetV2_part_3\/inverted_bottleneck_MobilenetV2_part_3_5\/MobilenetV2_part_3_5_pointwise\/BatchNorm\/Relu6:0_clip",
      "weights" : {

      },
      "mode" : 6,
      "top" : "MobilenetV2\/MobilenetV2_part_3\/inverted_bottleneck_MobilenetV2_part_3_5\/MobilenetV2_part_3_5_pointwise\/BatchNorm\/Relu6:0",
      "type" : "activation",
      "name" : "MobilenetV2\/MobilenetV2_part_3\/inverted_bottleneck_MobilenetV2_part_3_5\/MobilenetV2_part_3_5_pointwise\/BatchNorm\/Relu6:0",
      "beta" : 0
    },
    {
      "alpha" : 1,
      "bottom" : "MobilenetV2\/MobilenetV2_part_3\/inverted_bottleneck_MobilenetV2_part_3_4\/Add:0,MobilenetV2\/MobilenetV2_part_3\/inverted_bottleneck_MobilenetV2_part_3_5\/MobilenetV2_part_3_5_pointwise\/BatchNorm\/Relu6:0",
      "operation" : 0,
      "weights" : {

      },
      "fused_relu" : 0,
      "top" : "MobilenetV2\/MobilenetV2_part_3\/inverted_bottleneck_MobilenetV2_part_3_5\/Add:0",
      "type" : "elementwise",
      "name" : "MobilenetV2\/MobilenetV2_part_3\/inverted_bottleneck_MobilenetV2_part_3_5\/Add:0",
      "beta" : 0
    },
    {
      "bottom" : "MobilenetV2\/MobilenetV2_part_3\/inverted_bottleneck_MobilenetV2_part_3_5\/Add:0",
      "scaling_factor_y" : 2,
      "weights" : {

      },
      "mode" : 1,
      "top" : "MobilenetV2\/mv2_3_upsample:0",
      "scaling_factor_x" : 2,
      "type" : "upsample",
      "name" : "MobilenetV2\/mv2_3_upsample:0"
    },
    {
      "pad_r" : 0,
      "fused_relu" : 1,
      "fused_tanh" : 0,
      "pad_fill_mode" : 0,
      "pad_b" : 0,
      "pad_l" : 0,
      "top" : "relu_MobilenetV2\/MobilenetV2_part_4\/inverted_bottleneck_MobilenetV2_part_4_1\/MobilenetV2_part_4_1_up_pointwise\/BatchNorm\/Relu6:0",
      "blob_weights" : 177,
      "K" : 32,
      "blob_biases" : 175,
      "name" : "MobilenetV2\/MobilenetV2_part_4\/inverted_bottleneck_MobilenetV2_part_4_1\/MobilenetV2_part_4_1_up_pointwise\/Conv2D:0",
      "has_batch_norm" : 0,
      "type" : "convolution",
      "n_groups" : 1,
      "pad_t" : 0,
      "has_biases" : 1,
      "C" : 128,
      "bottom" : "MobilenetV2\/MobilenetV2_part_3\/inverted_bottleneck_MobilenetV2_part_3_5\/Add:0",
      "weights" : {

      },
      "pad_mode" : 1,
      "Nx" : 1,
      "pad_value" : 0,
      "Ny" : 1,
      "n_parallel" : 1
    },
    {
      "alpha" : -1,
      "bottom" : "relu_MobilenetV2\/MobilenetV2_part_4\/inverted_bottleneck_MobilenetV2_part_4_1\/MobilenetV2_part_4_1_up_pointwise\/BatchNorm\/Relu6:0",
      "weights" : {

      },
      "mode" : 6,
      "top" : "relu_MobilenetV2\/MobilenetV2_part_4\/inverted_bottleneck_MobilenetV2_part_4_1\/MobilenetV2_part_4_1_up_pointwise\/BatchNorm\/Relu6:0_neg",
      "type" : "activation",
      "name" : "relu_MobilenetV2\/MobilenetV2_part_4\/inverted_bottleneck_MobilenetV2_part_4_1\/MobilenetV2_part_4_1_up_pointwise\/BatchNorm\/Relu6:0_neg",
      "beta" : 0
    },
    {
      "alpha" : -6,
      "bottom" : "relu_MobilenetV2\/MobilenetV2_part_4\/inverted_bottleneck_MobilenetV2_part_4_1\/MobilenetV2_part_4_1_up_pointwise\/BatchNorm\/Relu6:0_neg",
      "operation" : 25,
      "weights" : {

      },
      "fused_relu" : 0,
      "top" : "relu_MobilenetV2\/MobilenetV2_part_4\/inverted_bottleneck_MobilenetV2_part_4_1\/MobilenetV2_part_4_1_up_pointwise\/BatchNorm\/Relu6:0_clip",
      "type" : "elementwise",
      "name" : "relu_MobilenetV2\/MobilenetV2_part_4\/inverted_bottleneck_MobilenetV2_part_4_1\/MobilenetV2_part_4_1_up_pointwise\/BatchNorm\/Relu6:0_clip",
      "beta" : 0
    },
    {
      "alpha" : -1,
      "bottom" : "relu_MobilenetV2\/MobilenetV2_part_4\/inverted_bottleneck_MobilenetV2_part_4_1\/MobilenetV2_part_4_1_up_pointwise\/BatchNorm\/Relu6:0_clip",
      "weights" : {

      },
      "mode" : 6,
      "top" : "MobilenetV2\/MobilenetV2_part_4\/inverted_bottleneck_MobilenetV2_part_4_1\/MobilenetV2_part_4_1_up_pointwise\/BatchNorm\/Relu6:0",
      "type" : "activation",
      "name" : "MobilenetV2\/MobilenetV2_part_4\/inverted_bottleneck_MobilenetV2_part_4_1\/MobilenetV2_part_4_1_up_pointwise\/BatchNorm\/Relu6:0",
      "beta" : 0
    },
    {
      "mode" : 0,
      "weights" : {

      },
      "top" : "MobilenetV2\/MobilenetV2_part_4\/inverted_bottleneck_MobilenetV2_part_4_1\/MobilenetV2_part_4_1_up_pointwise\/Relu:0",
      "type" : "activation",
      "name" : "MobilenetV2\/MobilenetV2_part_4\/inverted_bottleneck_MobilenetV2_part_4_1\/MobilenetV2_part_4_1_up_pointwise\/Relu:0",
      "bottom" : "MobilenetV2\/MobilenetV2_part_4\/inverted_bottleneck_MobilenetV2_part_4_1\/MobilenetV2_part_4_1_up_pointwise\/BatchNorm\/Relu6:0"
    },
    {
      "pad_r" : 0,
      "fused_relu" : 1,
      "fused_tanh" : 0,
      "pad_fill_mode" : 0,
      "pad_b" : 0,
      "pad_l" : 0,
      "top" : "MobilenetV2\/MobilenetV2_part_4\/inverted_bottleneck_MobilenetV2_part_4_1\/MobilenetV2_part_4_1_depthwise\/Relu:0",
      "blob_weights" : 179,
      "K" : 128,
      "stride_x" : 2,
      "name" : "MobilenetV2\/MobilenetV2_part_4\/inverted_bottleneck_MobilenetV2_part_4_1\/MobilenetV2_part_4_1_depthwise\/depthwise:0",
      "has_batch_norm" : 0,
      "type" : "convolution",
      "n_groups" : 128,
      "pad_t" : 0,
      "stride_y" : 2,
      "has_biases" : 0,
      "C" : 128,
      "bottom" : "MobilenetV2\/MobilenetV2_part_4\/inverted_bottleneck_MobilenetV2_part_4_1\/MobilenetV2_part_4_1_up_pointwise\/Relu:0",
      "weights" : {

      },
      "Nx" : 3,
      "pad_mode" : 1,
      "pad_value" : 0,
      "Ny" : 3,
      "n_parallel" : 1
    },
    {
      "pad_r" : 0,
      "fused_relu" : 1,
      "fused_tanh" : 0,
      "pad_fill_mode" : 0,
      "pad_b" : 0,
      "pad_l" : 0,
      "top" : "relu_MobilenetV2\/MobilenetV2_part_4\/inverted_bottleneck_MobilenetV2_part_4_1\/MobilenetV2_part_4_1_pointwise\/BatchNorm\/Relu6:0",
      "blob_weights" : 183,
      "K" : 128,
      "blob_biases" : 181,
      "name" : "MobilenetV2\/MobilenetV2_part_4\/inverted_bottleneck_MobilenetV2_part_4_1\/MobilenetV2_part_4_1_pointwise\/Conv2D:0",
      "has_batch_norm" : 0,
      "type" : "convolution",
      "n_groups" : 1,
      "pad_t" : 0,
      "has_biases" : 1,
      "C" : 48,
      "bottom" : "MobilenetV2\/MobilenetV2_part_4\/inverted_bottleneck_MobilenetV2_part_4_1\/MobilenetV2_part_4_1_depthwise\/Relu:0",
      "weights" : {

      },
      "pad_mode" : 1,
      "Nx" : 1,
      "pad_value" : 0,
      "Ny" : 1,
      "n_parallel" : 1
    },
    {
      "alpha" : -1,
      "bottom" : "relu_MobilenetV2\/MobilenetV2_part_4\/inverted_bottleneck_MobilenetV2_part_4_1\/MobilenetV2_part_4_1_pointwise\/BatchNorm\/Relu6:0",
      "weights" : {

      },
      "mode" : 6,
      "top" : "relu_MobilenetV2\/MobilenetV2_part_4\/inverted_bottleneck_MobilenetV2_part_4_1\/MobilenetV2_part_4_1_pointwise\/BatchNorm\/Relu6:0_neg",
      "type" : "activation",
      "name" : "relu_MobilenetV2\/MobilenetV2_part_4\/inverted_bottleneck_MobilenetV2_part_4_1\/MobilenetV2_part_4_1_pointwise\/BatchNorm\/Relu6:0_neg",
      "beta" : 0
    },
    {
      "alpha" : -6,
      "bottom" : "relu_MobilenetV2\/MobilenetV2_part_4\/inverted_bottleneck_MobilenetV2_part_4_1\/MobilenetV2_part_4_1_pointwise\/BatchNorm\/Relu6:0_neg",
      "operation" : 25,
      "weights" : {

      },
      "fused_relu" : 0,
      "top" : "relu_MobilenetV2\/MobilenetV2_part_4\/inverted_bottleneck_MobilenetV2_part_4_1\/MobilenetV2_part_4_1_pointwise\/BatchNorm\/Relu6:0_clip",
      "type" : "elementwise",
      "name" : "relu_MobilenetV2\/MobilenetV2_part_4\/inverted_bottleneck_MobilenetV2_part_4_1\/MobilenetV2_part_4_1_pointwise\/BatchNorm\/Relu6:0_clip",
      "beta" : 0
    },
    {
      "alpha" : -1,
      "bottom" : "relu_MobilenetV2\/MobilenetV2_part_4\/inverted_bottleneck_MobilenetV2_part_4_1\/MobilenetV2_part_4_1_pointwise\/BatchNorm\/Relu6:0_clip",
      "weights" : {

      },
      "mode" : 6,
      "top" : "MobilenetV2\/MobilenetV2_part_4\/inverted_bottleneck_MobilenetV2_part_4_1\/MobilenetV2_part_4_1_pointwise\/BatchNorm\/Relu6:0",
      "type" : "activation",
      "name" : "MobilenetV2\/MobilenetV2_part_4\/inverted_bottleneck_MobilenetV2_part_4_1\/MobilenetV2_part_4_1_pointwise\/BatchNorm\/Relu6:0",
      "beta" : 0
    },
    {
      "pad_r" : 0,
      "fused_relu" : 1,
      "fused_tanh" : 0,
      "pad_fill_mode" : 0,
      "pad_b" : 0,
      "pad_l" : 0,
      "top" : "relu_MobilenetV2\/MobilenetV2_part_4\/inverted_bottleneck_MobilenetV2_part_4_2\/MobilenetV2_part_4_2_up_pointwise\/BatchNorm\/Relu6:0",
      "blob_weights" : 187,
      "K" : 48,
      "blob_biases" : 185,
      "name" : "MobilenetV2\/MobilenetV2_part_4\/inverted_bottleneck_MobilenetV2_part_4_2\/MobilenetV2_part_4_2_up_pointwise\/Conv2D:0",
      "has_batch_norm" : 0,
      "type" : "convolution",
      "n_groups" : 1,
      "pad_t" : 0,
      "has_biases" : 1,
      "C" : 192,
      "bottom" : "MobilenetV2\/MobilenetV2_part_4\/inverted_bottleneck_MobilenetV2_part_4_1\/MobilenetV2_part_4_1_pointwise\/BatchNorm\/Relu6:0",
      "weights" : {

      },
      "pad_mode" : 1,
      "Nx" : 1,
      "pad_value" : 0,
      "Ny" : 1,
      "n_parallel" : 1
    },
    {
      "alpha" : -1,
      "bottom" : "relu_MobilenetV2\/MobilenetV2_part_4\/inverted_bottleneck_MobilenetV2_part_4_2\/MobilenetV2_part_4_2_up_pointwise\/BatchNorm\/Relu6:0",
      "weights" : {

      },
      "mode" : 6,
      "top" : "relu_MobilenetV2\/MobilenetV2_part_4\/inverted_bottleneck_MobilenetV2_part_4_2\/MobilenetV2_part_4_2_up_pointwise\/BatchNorm\/Relu6:0_neg",
      "type" : "activation",
      "name" : "relu_MobilenetV2\/MobilenetV2_part_4\/inverted_bottleneck_MobilenetV2_part_4_2\/MobilenetV2_part_4_2_up_pointwise\/BatchNorm\/Relu6:0_neg",
      "beta" : 0
    },
    {
      "alpha" : -6,
      "bottom" : "relu_MobilenetV2\/MobilenetV2_part_4\/inverted_bottleneck_MobilenetV2_part_4_2\/MobilenetV2_part_4_2_up_pointwise\/BatchNorm\/Relu6:0_neg",
      "operation" : 25,
      "weights" : {

      },
      "fused_relu" : 0,
      "top" : "relu_MobilenetV2\/MobilenetV2_part_4\/inverted_bottleneck_MobilenetV2_part_4_2\/MobilenetV2_part_4_2_up_pointwise\/BatchNorm\/Relu6:0_clip",
      "type" : "elementwise",
      "name" : "relu_MobilenetV2\/MobilenetV2_part_4\/inverted_bottleneck_MobilenetV2_part_4_2\/MobilenetV2_part_4_2_up_pointwise\/BatchNorm\/Relu6:0_clip",
      "beta" : 0
    },
    {
      "alpha" : -1,
      "bottom" : "relu_MobilenetV2\/MobilenetV2_part_4\/inverted_bottleneck_MobilenetV2_part_4_2\/MobilenetV2_part_4_2_up_pointwise\/BatchNorm\/Relu6:0_clip",
      "weights" : {

      },
      "mode" : 6,
      "top" : "MobilenetV2\/MobilenetV2_part_4\/inverted_bottleneck_MobilenetV2_part_4_2\/MobilenetV2_part_4_2_up_pointwise\/BatchNorm\/Relu6:0",
      "type" : "activation",
      "name" : "MobilenetV2\/MobilenetV2_part_4\/inverted_bottleneck_MobilenetV2_part_4_2\/MobilenetV2_part_4_2_up_pointwise\/BatchNorm\/Relu6:0",
      "beta" : 0
    },
    {
      "mode" : 0,
      "weights" : {

      },
      "top" : "MobilenetV2\/MobilenetV2_part_4\/inverted_bottleneck_MobilenetV2_part_4_2\/MobilenetV2_part_4_2_up_pointwise\/Relu:0",
      "type" : "activation",
      "name" : "MobilenetV2\/MobilenetV2_part_4\/inverted_bottleneck_MobilenetV2_part_4_2\/MobilenetV2_part_4_2_up_pointwise\/Relu:0",
      "bottom" : "MobilenetV2\/MobilenetV2_part_4\/inverted_bottleneck_MobilenetV2_part_4_2\/MobilenetV2_part_4_2_up_pointwise\/BatchNorm\/Relu6:0"
    },
    {
      "pad_r" : 0,
      "fused_relu" : 1,
      "fused_tanh" : 0,
      "pad_fill_mode" : 0,
      "pad_b" : 0,
      "pad_l" : 0,
      "top" : "MobilenetV2\/MobilenetV2_part_4\/inverted_bottleneck_MobilenetV2_part_4_2\/MobilenetV2_part_4_2_depthwise\/Relu:0",
      "blob_weights" : 189,
      "K" : 192,
      "name" : "MobilenetV2\/MobilenetV2_part_4\/inverted_bottleneck_MobilenetV2_part_4_2\/MobilenetV2_part_4_2_depthwise\/depthwise:0",
      "has_batch_norm" : 0,
      "type" : "convolution",
      "n_groups" : 192,
      "pad_t" : 0,
      "has_biases" : 0,
      "C" : 192,
      "bottom" : "MobilenetV2\/MobilenetV2_part_4\/inverted_bottleneck_MobilenetV2_part_4_2\/MobilenetV2_part_4_2_up_pointwise\/Relu:0",
      "weights" : {

      },
      "pad_mode" : 1,
      "Nx" : 3,
      "pad_value" : 0,
      "Ny" : 3,
      "n_parallel" : 1
    },
    {
      "pad_r" : 0,
      "fused_relu" : 1,
      "fused_tanh" : 0,
      "pad_fill_mode" : 0,
      "pad_b" : 0,
      "pad_l" : 0,
      "top" : "relu_MobilenetV2\/MobilenetV2_part_4\/inverted_bottleneck_MobilenetV2_part_4_2\/MobilenetV2_part_4_2_pointwise\/BatchNorm\/Relu6:0",
      "blob_weights" : 193,
      "K" : 192,
      "blob_biases" : 191,
      "name" : "MobilenetV2\/MobilenetV2_part_4\/inverted_bottleneck_MobilenetV2_part_4_2\/MobilenetV2_part_4_2_pointwise\/Conv2D:0",
      "has_batch_norm" : 0,
      "type" : "convolution",
      "n_groups" : 1,
      "pad_t" : 0,
      "has_biases" : 1,
      "C" : 48,
      "bottom" : "MobilenetV2\/MobilenetV2_part_4\/inverted_bottleneck_MobilenetV2_part_4_2\/MobilenetV2_part_4_2_depthwise\/Relu:0",
      "weights" : {

      },
      "pad_mode" : 1,
      "Nx" : 1,
      "pad_value" : 0,
      "Ny" : 1,
      "n_parallel" : 1
    },
    {
      "alpha" : -1,
      "bottom" : "relu_MobilenetV2\/MobilenetV2_part_4\/inverted_bottleneck_MobilenetV2_part_4_2\/MobilenetV2_part_4_2_pointwise\/BatchNorm\/Relu6:0",
      "weights" : {

      },
      "mode" : 6,
      "top" : "relu_MobilenetV2\/MobilenetV2_part_4\/inverted_bottleneck_MobilenetV2_part_4_2\/MobilenetV2_part_4_2_pointwise\/BatchNorm\/Relu6:0_neg",
      "type" : "activation",
      "name" : "relu_MobilenetV2\/MobilenetV2_part_4\/inverted_bottleneck_MobilenetV2_part_4_2\/MobilenetV2_part_4_2_pointwise\/BatchNorm\/Relu6:0_neg",
      "beta" : 0
    },
    {
      "alpha" : -6,
      "bottom" : "relu_MobilenetV2\/MobilenetV2_part_4\/inverted_bottleneck_MobilenetV2_part_4_2\/MobilenetV2_part_4_2_pointwise\/BatchNorm\/Relu6:0_neg",
      "operation" : 25,
      "weights" : {

      },
      "fused_relu" : 0,
      "top" : "relu_MobilenetV2\/MobilenetV2_part_4\/inverted_bottleneck_MobilenetV2_part_4_2\/MobilenetV2_part_4_2_pointwise\/BatchNorm\/Relu6:0_clip",
      "type" : "elementwise",
      "name" : "relu_MobilenetV2\/MobilenetV2_part_4\/inverted_bottleneck_MobilenetV2_part_4_2\/MobilenetV2_part_4_2_pointwise\/BatchNorm\/Relu6:0_clip",
      "beta" : 0
    },
    {
      "alpha" : -1,
      "bottom" : "relu_MobilenetV2\/MobilenetV2_part_4\/inverted_bottleneck_MobilenetV2_part_4_2\/MobilenetV2_part_4_2_pointwise\/BatchNorm\/Relu6:0_clip",
      "weights" : {

      },
      "mode" : 6,
      "top" : "MobilenetV2\/MobilenetV2_part_4\/inverted_bottleneck_MobilenetV2_part_4_2\/MobilenetV2_part_4_2_pointwise\/BatchNorm\/Relu6:0",
      "type" : "activation",
      "name" : "MobilenetV2\/MobilenetV2_part_4\/inverted_bottleneck_MobilenetV2_part_4_2\/MobilenetV2_part_4_2_pointwise\/BatchNorm\/Relu6:0",
      "beta" : 0
    },
    {
      "alpha" : 1,
      "bottom" : "MobilenetV2\/MobilenetV2_part_4\/inverted_bottleneck_MobilenetV2_part_4_1\/MobilenetV2_part_4_1_pointwise\/BatchNorm\/Relu6:0,MobilenetV2\/MobilenetV2_part_4\/inverted_bottleneck_MobilenetV2_part_4_2\/MobilenetV2_part_4_2_pointwise\/BatchNorm\/Relu6:0",
      "operation" : 0,
      "weights" : {

      },
      "fused_relu" : 0,
      "top" : "MobilenetV2\/MobilenetV2_part_4\/inverted_bottleneck_MobilenetV2_part_4_2\/Add:0",
      "type" : "elementwise",
      "name" : "MobilenetV2\/MobilenetV2_part_4\/inverted_bottleneck_MobilenetV2_part_4_2\/Add:0",
      "beta" : 0
    },
    {
      "pad_r" : 0,
      "fused_relu" : 1,
      "fused_tanh" : 0,
      "pad_fill_mode" : 0,
      "pad_b" : 0,
      "pad_l" : 0,
      "top" : "relu_MobilenetV2\/MobilenetV2_part_4\/inverted_bottleneck_MobilenetV2_part_4_3\/MobilenetV2_part_4_3_up_pointwise\/BatchNorm\/Relu6:0",
      "blob_weights" : 197,
      "K" : 48,
      "blob_biases" : 195,
      "name" : "MobilenetV2\/MobilenetV2_part_4\/inverted_bottleneck_MobilenetV2_part_4_3\/MobilenetV2_part_4_3_up_pointwise\/Conv2D:0",
      "has_batch_norm" : 0,
      "type" : "convolution",
      "n_groups" : 1,
      "pad_t" : 0,
      "has_biases" : 1,
      "C" : 192,
      "bottom" : "MobilenetV2\/MobilenetV2_part_4\/inverted_bottleneck_MobilenetV2_part_4_2\/Add:0",
      "weights" : {

      },
      "pad_mode" : 1,
      "Nx" : 1,
      "pad_value" : 0,
      "Ny" : 1,
      "n_parallel" : 1
    },
    {
      "alpha" : -1,
      "bottom" : "relu_MobilenetV2\/MobilenetV2_part_4\/inverted_bottleneck_MobilenetV2_part_4_3\/MobilenetV2_part_4_3_up_pointwise\/BatchNorm\/Relu6:0",
      "weights" : {

      },
      "mode" : 6,
      "top" : "relu_MobilenetV2\/MobilenetV2_part_4\/inverted_bottleneck_MobilenetV2_part_4_3\/MobilenetV2_part_4_3_up_pointwise\/BatchNorm\/Relu6:0_neg",
      "type" : "activation",
      "name" : "relu_MobilenetV2\/MobilenetV2_part_4\/inverted_bottleneck_MobilenetV2_part_4_3\/MobilenetV2_part_4_3_up_pointwise\/BatchNorm\/Relu6:0_neg",
      "beta" : 0
    },
    {
      "alpha" : -6,
      "bottom" : "relu_MobilenetV2\/MobilenetV2_part_4\/inverted_bottleneck_MobilenetV2_part_4_3\/MobilenetV2_part_4_3_up_pointwise\/BatchNorm\/Relu6:0_neg",
      "operation" : 25,
      "weights" : {

      },
      "fused_relu" : 0,
      "top" : "relu_MobilenetV2\/MobilenetV2_part_4\/inverted_bottleneck_MobilenetV2_part_4_3\/MobilenetV2_part_4_3_up_pointwise\/BatchNorm\/Relu6:0_clip",
      "type" : "elementwise",
      "name" : "relu_MobilenetV2\/MobilenetV2_part_4\/inverted_bottleneck_MobilenetV2_part_4_3\/MobilenetV2_part_4_3_up_pointwise\/BatchNorm\/Relu6:0_clip",
      "beta" : 0
    },
    {
      "alpha" : -1,
      "bottom" : "relu_MobilenetV2\/MobilenetV2_part_4\/inverted_bottleneck_MobilenetV2_part_4_3\/MobilenetV2_part_4_3_up_pointwise\/BatchNorm\/Relu6:0_clip",
      "weights" : {

      },
      "mode" : 6,
      "top" : "MobilenetV2\/MobilenetV2_part_4\/inverted_bottleneck_MobilenetV2_part_4_3\/MobilenetV2_part_4_3_up_pointwise\/BatchNorm\/Relu6:0",
      "type" : "activation",
      "name" : "MobilenetV2\/MobilenetV2_part_4\/inverted_bottleneck_MobilenetV2_part_4_3\/MobilenetV2_part_4_3_up_pointwise\/BatchNorm\/Relu6:0",
      "beta" : 0
    },
    {
      "mode" : 0,
      "weights" : {

      },
      "top" : "MobilenetV2\/MobilenetV2_part_4\/inverted_bottleneck_MobilenetV2_part_4_3\/MobilenetV2_part_4_3_up_pointwise\/Relu:0",
      "type" : "activation",
      "name" : "MobilenetV2\/MobilenetV2_part_4\/inverted_bottleneck_MobilenetV2_part_4_3\/MobilenetV2_part_4_3_up_pointwise\/Relu:0",
      "bottom" : "MobilenetV2\/MobilenetV2_part_4\/inverted_bottleneck_MobilenetV2_part_4_3\/MobilenetV2_part_4_3_up_pointwise\/BatchNorm\/Relu6:0"
    },
    {
      "pad_r" : 0,
      "fused_relu" : 1,
      "fused_tanh" : 0,
      "pad_fill_mode" : 0,
      "pad_b" : 0,
      "pad_l" : 0,
      "top" : "MobilenetV2\/MobilenetV2_part_4\/inverted_bottleneck_MobilenetV2_part_4_3\/MobilenetV2_part_4_3_depthwise\/Relu:0",
      "blob_weights" : 199,
      "K" : 192,
      "name" : "MobilenetV2\/MobilenetV2_part_4\/inverted_bottleneck_MobilenetV2_part_4_3\/MobilenetV2_part_4_3_depthwise\/depthwise:0",
      "has_batch_norm" : 0,
      "type" : "convolution",
      "n_groups" : 192,
      "pad_t" : 0,
      "has_biases" : 0,
      "C" : 192,
      "bottom" : "MobilenetV2\/MobilenetV2_part_4\/inverted_bottleneck_MobilenetV2_part_4_3\/MobilenetV2_part_4_3_up_pointwise\/Relu:0",
      "weights" : {

      },
      "pad_mode" : 1,
      "Nx" : 3,
      "pad_value" : 0,
      "Ny" : 3,
      "n_parallel" : 1
    },
    {
      "pad_r" : 0,
      "fused_relu" : 1,
      "fused_tanh" : 0,
      "pad_fill_mode" : 0,
      "pad_b" : 0,
      "pad_l" : 0,
      "top" : "relu_MobilenetV2\/MobilenetV2_part_4\/inverted_bottleneck_MobilenetV2_part_4_3\/MobilenetV2_part_4_3_pointwise\/BatchNorm\/Relu6:0",
      "blob_weights" : 203,
      "K" : 192,
      "blob_biases" : 201,
      "name" : "MobilenetV2\/MobilenetV2_part_4\/inverted_bottleneck_MobilenetV2_part_4_3\/MobilenetV2_part_4_3_pointwise\/Conv2D:0",
      "has_batch_norm" : 0,
      "type" : "convolution",
      "n_groups" : 1,
      "pad_t" : 0,
      "has_biases" : 1,
      "C" : 48,
      "bottom" : "MobilenetV2\/MobilenetV2_part_4\/inverted_bottleneck_MobilenetV2_part_4_3\/MobilenetV2_part_4_3_depthwise\/Relu:0",
      "weights" : {

      },
      "pad_mode" : 1,
      "Nx" : 1,
      "pad_value" : 0,
      "Ny" : 1,
      "n_parallel" : 1
    },
    {
      "alpha" : -1,
      "bottom" : "relu_MobilenetV2\/MobilenetV2_part_4\/inverted_bottleneck_MobilenetV2_part_4_3\/MobilenetV2_part_4_3_pointwise\/BatchNorm\/Relu6:0",
      "weights" : {

      },
      "mode" : 6,
      "top" : "relu_MobilenetV2\/MobilenetV2_part_4\/inverted_bottleneck_MobilenetV2_part_4_3\/MobilenetV2_part_4_3_pointwise\/BatchNorm\/Relu6:0_neg",
      "type" : "activation",
      "name" : "relu_MobilenetV2\/MobilenetV2_part_4\/inverted_bottleneck_MobilenetV2_part_4_3\/MobilenetV2_part_4_3_pointwise\/BatchNorm\/Relu6:0_neg",
      "beta" : 0
    },
    {
      "alpha" : -6,
      "bottom" : "relu_MobilenetV2\/MobilenetV2_part_4\/inverted_bottleneck_MobilenetV2_part_4_3\/MobilenetV2_part_4_3_pointwise\/BatchNorm\/Relu6:0_neg",
      "operation" : 25,
      "weights" : {

      },
      "fused_relu" : 0,
      "top" : "relu_MobilenetV2\/MobilenetV2_part_4\/inverted_bottleneck_MobilenetV2_part_4_3\/MobilenetV2_part_4_3_pointwise\/BatchNorm\/Relu6:0_clip",
      "type" : "elementwise",
      "name" : "relu_MobilenetV2\/MobilenetV2_part_4\/inverted_bottleneck_MobilenetV2_part_4_3\/MobilenetV2_part_4_3_pointwise\/BatchNorm\/Relu6:0_clip",
      "beta" : 0
    },
    {
      "alpha" : -1,
      "bottom" : "relu_MobilenetV2\/MobilenetV2_part_4\/inverted_bottleneck_MobilenetV2_part_4_3\/MobilenetV2_part_4_3_pointwise\/BatchNorm\/Relu6:0_clip",
      "weights" : {

      },
      "mode" : 6,
      "top" : "MobilenetV2\/MobilenetV2_part_4\/inverted_bottleneck_MobilenetV2_part_4_3\/MobilenetV2_part_4_3_pointwise\/BatchNorm\/Relu6:0",
      "type" : "activation",
      "name" : "MobilenetV2\/MobilenetV2_part_4\/inverted_bottleneck_MobilenetV2_part_4_3\/MobilenetV2_part_4_3_pointwise\/BatchNorm\/Relu6:0",
      "beta" : 0
    },
    {
      "alpha" : 1,
      "bottom" : "MobilenetV2\/MobilenetV2_part_4\/inverted_bottleneck_MobilenetV2_part_4_2\/Add:0,MobilenetV2\/MobilenetV2_part_4\/inverted_bottleneck_MobilenetV2_part_4_3\/MobilenetV2_part_4_3_pointwise\/BatchNorm\/Relu6:0",
      "operation" : 0,
      "weights" : {

      },
      "fused_relu" : 0,
      "top" : "MobilenetV2\/MobilenetV2_part_4\/inverted_bottleneck_MobilenetV2_part_4_3\/Add:0",
      "type" : "elementwise",
      "name" : "MobilenetV2\/MobilenetV2_part_4\/inverted_bottleneck_MobilenetV2_part_4_3\/Add:0",
      "beta" : 0
    },
    {
      "pad_r" : 0,
      "fused_relu" : 1,
      "fused_tanh" : 0,
      "pad_fill_mode" : 0,
      "pad_b" : 0,
      "pad_l" : 0,
      "top" : "relu_MobilenetV2\/MobilenetV2_part_4\/inverted_bottleneck_MobilenetV2_part_4_4\/MobilenetV2_part_4_4_up_pointwise\/BatchNorm\/Relu6:0",
      "blob_weights" : 207,
      "K" : 48,
      "blob_biases" : 205,
      "name" : "MobilenetV2\/MobilenetV2_part_4\/inverted_bottleneck_MobilenetV2_part_4_4\/MobilenetV2_part_4_4_up_pointwise\/Conv2D:0",
      "has_batch_norm" : 0,
      "type" : "convolution",
      "n_groups" : 1,
      "pad_t" : 0,
      "has_biases" : 1,
      "C" : 192,
      "bottom" : "MobilenetV2\/MobilenetV2_part_4\/inverted_bottleneck_MobilenetV2_part_4_3\/Add:0",
      "weights" : {

      },
      "pad_mode" : 1,
      "Nx" : 1,
      "pad_value" : 0,
      "Ny" : 1,
      "n_parallel" : 1
    },
    {
      "alpha" : -1,
      "bottom" : "relu_MobilenetV2\/MobilenetV2_part_4\/inverted_bottleneck_MobilenetV2_part_4_4\/MobilenetV2_part_4_4_up_pointwise\/BatchNorm\/Relu6:0",
      "weights" : {

      },
      "mode" : 6,
      "top" : "relu_MobilenetV2\/MobilenetV2_part_4\/inverted_bottleneck_MobilenetV2_part_4_4\/MobilenetV2_part_4_4_up_pointwise\/BatchNorm\/Relu6:0_neg",
      "type" : "activation",
      "name" : "relu_MobilenetV2\/MobilenetV2_part_4\/inverted_bottleneck_MobilenetV2_part_4_4\/MobilenetV2_part_4_4_up_pointwise\/BatchNorm\/Relu6:0_neg",
      "beta" : 0
    },
    {
      "alpha" : -6,
      "bottom" : "relu_MobilenetV2\/MobilenetV2_part_4\/inverted_bottleneck_MobilenetV2_part_4_4\/MobilenetV2_part_4_4_up_pointwise\/BatchNorm\/Relu6:0_neg",
      "operation" : 25,
      "weights" : {

      },
      "fused_relu" : 0,
      "top" : "relu_MobilenetV2\/MobilenetV2_part_4\/inverted_bottleneck_MobilenetV2_part_4_4\/MobilenetV2_part_4_4_up_pointwise\/BatchNorm\/Relu6:0_clip",
      "type" : "elementwise",
      "name" : "relu_MobilenetV2\/MobilenetV2_part_4\/inverted_bottleneck_MobilenetV2_part_4_4\/MobilenetV2_part_4_4_up_pointwise\/BatchNorm\/Relu6:0_clip",
      "beta" : 0
    },
    {
      "alpha" : -1,
      "bottom" : "relu_MobilenetV2\/MobilenetV2_part_4\/inverted_bottleneck_MobilenetV2_part_4_4\/MobilenetV2_part_4_4_up_pointwise\/BatchNorm\/Relu6:0_clip",
      "weights" : {

      },
      "mode" : 6,
      "top" : "MobilenetV2\/MobilenetV2_part_4\/inverted_bottleneck_MobilenetV2_part_4_4\/MobilenetV2_part_4_4_up_pointwise\/BatchNorm\/Relu6:0",
      "type" : "activation",
      "name" : "MobilenetV2\/MobilenetV2_part_4\/inverted_bottleneck_MobilenetV2_part_4_4\/MobilenetV2_part_4_4_up_pointwise\/BatchNorm\/Relu6:0",
      "beta" : 0
    },
    {
      "mode" : 0,
      "weights" : {

      },
…
      "bottom" : "relu_Convolutional_Pose_Machine\/stage_4_mv2\/inverted_bottleneck_stage_4_mv2_1\/stage_4_mv2_1_pointwise\/BatchNorm\/Relu6:0_neg",
      "operation" : 25,
      "weights" : {

      },
      "fused_relu" : 0,
      "top" : "relu_Convolutional_Pose_Machine\/stage_4_mv2\/inverted_bottleneck_stage_4_mv2_1\/stage_4_mv2_1_pointwise\/BatchNorm\/Relu6:0_clip",
      "type" : "elementwise",
      "name" : "relu_Convolutional_Pose_Machine\/stage_4_mv2\/inverted_bottleneck_stage_4_mv2_1\/stage_4_mv2_1_pointwise\/BatchNorm\/Relu6:0_clip",
      "beta" : 0
    },
    {
      "alpha" : -1,
      "bottom" : "relu_Convolutional_Pose_Machine\/stage_4_mv2\/inverted_bottleneck_stage_4_mv2_1\/stage_4_mv2_1_pointwise\/BatchNorm\/Relu6:0_clip",
      "weights" : {

      },
      "mode" : 6,
      "top" : "Convolutional_Pose_Machine\/stage_4_mv2\/inverted_bottleneck_stage_4_mv2_1\/stage_4_mv2_1_pointwise\/BatchNorm\/Relu6:0",
      "type" : "activation",
      "name" : "Convolutional_Pose_Machine\/stage_4_mv2\/inverted_bottleneck_stage_4_mv2_1\/stage_4_mv2_1_pointwise\/BatchNorm\/Relu6:0",
      "beta" : 0
    },
    {
      "pad_r" : 0,
      "fused_relu" : 1,
      "fused_tanh" : 0,
      "pad_fill_mode" : 0,
      "pad_b" : 0,
      "pad_l" : 0,
      "top" : "relu_Convolutional_Pose_Machine\/stage_4_mv2\/inverted_bottleneck_stage_4_mv2_2\/stage_4_mv2_2_up_pointwise\/BatchNorm\/Relu6:0",
      "blob_weights" : 405,
      "K" : 24,
      "blob_biases" : 403,
      "name" : "Convolutional_Pose_Machine\/stage_4_mv2\/inverted_bottleneck_stage_4_mv2_2\/stage_4_mv2_2_up_pointwise\/Conv2D:0",
      "has_batch_norm" : 0,
      "type" : "convolution",
      "n_groups" : 1,
      "pad_t" : 0,
      "has_biases" : 1,
      "C" : 72,
      "bottom" : "Convolutional_Pose_Machine\/stage_4_mv2\/inverted_bottleneck_stage_4_mv2_1\/stage_4_mv2_1_pointwise\/BatchNorm\/Relu6:0",
      "weights" : {

      },
      "pad_mode" : 1,
      "Nx" : 1,
      "pad_value" : 0,
      "Ny" : 1,
      "n_parallel" : 1
    },
    {
      "alpha" : -1,
      "bottom" : "relu_Convolutional_Pose_Machine\/stage_4_mv2\/inverted_bottleneck_stage_4_mv2_2\/stage_4_mv2_2_up_pointwise\/BatchNorm\/Relu6:0",
      "weights" : {

      },
      "mode" : 6,
      "top" : "relu_Convolutional_Pose_Machine\/stage_4_mv2\/inverted_bottleneck_stage_4_mv2_2\/stage_4_mv2_2_up_pointwise\/BatchNorm\/Relu6:0_neg",
      "type" : "activation",
      "name" : "relu_Convolutional_Pose_Machine\/stage_4_mv2\/inverted_bottleneck_stage_4_mv2_2\/stage_4_mv2_2_up_pointwise\/BatchNorm\/Relu6:0_neg",
      "beta" : 0
    },
    {
      "alpha" : -6,
      "bottom" : "relu_Convolutional_Pose_Machine\/stage_4_mv2\/inverted_bottleneck_stage_4_mv2_2\/stage_4_mv2_2_up_pointwise\/BatchNorm\/Relu6:0_neg",
      "operation" : 25,
      "weights" : {

      },
      "fused_relu" : 0,
      "top" : "relu_Convolutional_Pose_Machine\/stage_4_mv2\/inverted_bottleneck_stage_4_mv2_2\/stage_4_mv2_2_up_pointwise\/BatchNorm\/Relu6:0_clip",
      "type" : "elementwise",
      "name" : "relu_Convolutional_Pose_Machine\/stage_4_mv2\/inverted_bottleneck_stage_4_mv2_2\/stage_4_mv2_2_up_pointwise\/BatchNorm\/Relu6:0_clip",
      "beta" : 0
    },
    {
      "alpha" : -1,
      "bottom" : "relu_Convolutional_Pose_Machine\/stage_4_mv2\/inverted_bottleneck_stage_4_mv2_2\/stage_4_mv2_2_up_pointwise\/BatchNorm\/Relu6:0_clip",
      "weights" : {

      },
      "mode" : 6,
      "top" : "Convolutional_Pose_Machine\/stage_4_mv2\/inverted_bottleneck_stage_4_mv2_2\/stage_4_mv2_2_up_pointwise\/BatchNorm\/Relu6:0",
      "type" : "activation",
      "name" : "Convolutional_Pose_Machine\/stage_4_mv2\/inverted_bottleneck_stage_4_mv2_2\/stage_4_mv2_2_up_pointwise\/BatchNorm\/Relu6:0",
      "beta" : 0
    },
    {
      "mode" : 0,
      "weights" : {

      },
      "top" : "Convolutional_Pose_Machine\/stage_4_mv2\/inverted_bottleneck_stage_4_mv2_2\/stage_4_mv2_2_up_pointwise\/Relu:0",
      "type" : "activation",
      "name" : "Convolutional_Pose_Machine\/stage_4_mv2\/inverted_bottleneck_stage_4_mv2_2\/stage_4_mv2_2_up_pointwise\/Relu:0",
      "bottom" : "Convolutional_Pose_Machine\/stage_4_mv2\/inverted_bottleneck_stage_4_mv2_2\/stage_4_mv2_2_up_pointwise\/BatchNorm\/Relu6:0"
    },
    {
      "pad_r" : 0,
      "fused_relu" : 1,
      "fused_tanh" : 0,
      "pad_fill_mode" : 0,
      "pad_b" : 0,
      "pad_l" : 0,
      "top" : "Convolutional_Pose_Machine\/stage_4_mv2\/inverted_bottleneck_stage_4_mv2_2\/stage_4_mv2_2_depthwise\/Relu:0",
      "blob_weights" : 407,
      "K" : 72,
      "name" : "Convolutional_Pose_Machine\/stage_4_mv2\/inverted_bottleneck_stage_4_mv2_2\/stage_4_mv2_2_depthwise\/depthwise:0",
      "has_batch_norm" : 0,
      "type" : "convolution",
      "n_groups" : 72,
      "pad_t" : 0,
      "has_biases" : 0,
      "C" : 72,
      "bottom" : "Convolutional_Pose_Machine\/stage_4_mv2\/inverted_bottleneck_stage_4_mv2_2\/stage_4_mv2_2_up_pointwise\/Relu:0",
      "weights" : {

      },
      "pad_mode" : 1,
      "Nx" : 7,
      "pad_value" : 0,
      "Ny" : 7,
      "n_parallel" : 1
    },
    {
      "pad_r" : 0,
      "fused_relu" : 1,
      "fused_tanh" : 0,
      "pad_fill_mode" : 0,
      "pad_b" : 0,
      "pad_l" : 0,
      "top" : "relu_Convolutional_Pose_Machine\/stage_4_mv2\/inverted_bottleneck_stage_4_mv2_2\/stage_4_mv2_2_pointwise\/BatchNorm\/Relu6:0",
      "blob_weights" : 411,
      "K" : 72,
      "blob_biases" : 409,
      "name" : "Convolutional_Pose_Machine\/stage_4_mv2\/inverted_bottleneck_stage_4_mv2_2\/stage_4_mv2_2_pointwise\/Conv2D:0",
      "has_batch_norm" : 0,
      "type" : "convolution",
      "n_groups" : 1,
      "pad_t" : 0,
      "has_biases" : 1,
      "C" : 24,
      "bottom" : "Convolutional_Pose_Machine\/stage_4_mv2\/inverted_bottleneck_stage_4_mv2_2\/stage_4_mv2_2_depthwise\/Relu:0",
      "weights" : {

      },
      "pad_mode" : 1,
      "Nx" : 1,
      "pad_value" : 0,
      "Ny" : 1,
      "n_parallel" : 1
    },
    {
      "alpha" : -1,
      "bottom" : "relu_Convolutional_Pose_Machine\/stage_4_mv2\/inverted_bottleneck_stage_4_mv2_2\/stage_4_mv2_2_pointwise\/BatchNorm\/Relu6:0",
      "weights" : {

      },
      "mode" : 6,
      "top" : "relu_Convolutional_Pose_Machine\/stage_4_mv2\/inverted_bottleneck_stage_4_mv2_2\/stage_4_mv2_2_pointwise\/BatchNorm\/Relu6:0_neg",
      "type" : "activation",
      "name" : "relu_Convolutional_Pose_Machine\/stage_4_mv2\/inverted_bottleneck_stage_4_mv2_2\/stage_4_mv2_2_pointwise\/BatchNorm\/Relu6:0_neg",
      "beta" : 0
    },
    {
      "alpha" : -6,
      "bottom" : "relu_Convolutional_Pose_Machine\/stage_4_mv2\/inverted_bottleneck_stage_4_mv2_2\/stage_4_mv2_2_pointwise\/BatchNorm\/Relu6:0_neg",
      "operation" : 25,
      "weights" : {

      },
      "fused_relu" : 0,
      "top" : "relu_Convolutional_Pose_Machine\/stage_4_mv2\/inverted_bottleneck_stage_4_mv2_2\/stage_4_mv2_2_pointwise\/BatchNorm\/Relu6:0_clip",
      "type" : "elementwise",
      "name" : "relu_Convolutional_Pose_Machine\/stage_4_mv2\/inverted_bottleneck_stage_4_mv2_2\/stage_4_mv2_2_pointwise\/BatchNorm\/Relu6:0_clip",
      "beta" : 0
    },
    {
      "alpha" : -1,
      "bottom" : "relu_Convolutional_Pose_Machine\/stage_4_mv2\/inverted_bottleneck_stage_4_mv2_2\/stage_4_mv2_2_pointwise\/BatchNorm\/Relu6:0_clip",
      "weights" : {

      },
      "mode" : 6,
      "top" : "Convolutional_Pose_Machine\/stage_4_mv2\/inverted_bottleneck_stage_4_mv2_2\/stage_4_mv2_2_pointwise\/BatchNorm\/Relu6:0",
      "type" : "activation",
      "name" : "Convolutional_Pose_Machine\/stage_4_mv2\/inverted_bottleneck_stage_4_mv2_2\/stage_4_mv2_2_pointwise\/BatchNorm\/Relu6:0",
      "beta" : 0
    },
    {
      "alpha" : 1,
      "bottom" : "Convolutional_Pose_Machine\/stage_4_mv2\/inverted_bottleneck_stage_4_mv2_1\/stage_4_mv2_1_pointwise\/BatchNorm\/Relu6:0,Convolutional_Pose_Machine\/stage_4_mv2\/inverted_bottleneck_stage_4_mv2_2\/stage_4_mv2_2_pointwise\/BatchNorm\/Relu6:0",
      "operation" : 0,
      "weights" : {

      },
      "fused_relu" : 0,
      "top" : "Convolutional_Pose_Machine\/stage_4_mv2\/inverted_bottleneck_stage_4_mv2_2\/Add:0",
      "type" : "elementwise",
      "name" : "Convolutional_Pose_Machine\/stage_4_mv2\/inverted_bottleneck_stage_4_mv2_2\/Add:0",
      "beta" : 0
    },
    {
      "pad_r" : 0,
      "fused_relu" : 1,
      "fused_tanh" : 0,
      "pad_fill_mode" : 0,
      "pad_b" : 0,
      "pad_l" : 0,
      "top" : "relu_Convolutional_Pose_Machine\/stage_4_mv2\/inverted_bottleneck_stage_4_mv2_3\/stage_4_mv2_3_up_pointwise\/BatchNorm\/Relu6:0",
      "blob_weights" : 415,
      "K" : 24,
      "blob_biases" : 413,
      "name" : "Convolutional_Pose_Machine\/stage_4_mv2\/inverted_bottleneck_stage_4_mv2_3\/stage_4_mv2_3_up_pointwise\/Conv2D:0",
      "has_batch_norm" : 0,
      "type" : "convolution",
      "n_groups" : 1,
      "pad_t" : 0,
      "has_biases" : 1,
      "C" : 72,
      "bottom" : "Convolutional_Pose_Machine\/stage_4_mv2\/inverted_bottleneck_stage_4_mv2_2\/Add:0",
      "weights" : {

      },
      "pad_mode" : 1,
      "Nx" : 1,
      "pad_value" : 0,
      "Ny" : 1,
      "n_parallel" : 1
    },
    {
      "alpha" : -1,
      "bottom" : "relu_Convolutional_Pose_Machine\/stage_4_mv2\/inverted_bottleneck_stage_4_mv2_3\/stage_4_mv2_3_up_pointwise\/BatchNorm\/Relu6:0",
      "weights" : {

      },
      "mode" : 6,
      "top" : "relu_Convolutional_Pose_Machine\/stage_4_mv2\/inverted_bottleneck_stage_4_mv2_3\/stage_4_mv2_3_up_pointwise\/BatchNorm\/Relu6:0_neg",
      "type" : "activation",
      "name" : "relu_Convolutional_Pose_Machine\/stage_4_mv2\/inverted_bottleneck_stage_4_mv2_3\/stage_4_mv2_3_up_pointwise\/BatchNorm\/Relu6:0_neg",
      "beta" : 0
    },
    {
      "alpha" : -6,
      "bottom" : "relu_Convolutional_Pose_Machine\/stage_4_mv2\/inverted_bottleneck_stage_4_mv2_3\/stage_4_mv2_3_up_pointwise\/BatchNorm\/Relu6:0_neg",
      "operation" : 25,
      "weights" : {

      },
      "fused_relu" : 0,
      "top" : "relu_Convolutional_Pose_Machine\/stage_4_mv2\/inverted_bottleneck_stage_4_mv2_3\/stage_4_mv2_3_up_pointwise\/BatchNorm\/Relu6:0_clip",
      "type" : "elementwise",
      "name" : "relu_Convolutional_Pose_Machine\/stage_4_mv2\/inverted_bottleneck_stage_4_mv2_3\/stage_4_mv2_3_up_pointwise\/BatchNorm\/Relu6:0_clip",
      "beta" : 0
    },
    {
      "alpha" : -1,
      "bottom" : "relu_Convolutional_Pose_Machine\/stage_4_mv2\/inverted_bottleneck_stage_4_mv2_3\/stage_4_mv2_3_up_pointwise\/BatchNorm\/Relu6:0_clip",
      "weights" : {

      },
      "mode" : 6,
      "top" : "Convolutional_Pose_Machine\/stage_4_mv2\/inverted_bottleneck_stage_4_mv2_3\/stage_4_mv2_3_up_pointwise\/BatchNorm\/Relu6:0",
      "type" : "activation",
      "name" : "Convolutional_Pose_Machine\/stage_4_mv2\/inverted_bottleneck_stage_4_mv2_3\/stage_4_mv2_3_up_pointwise\/BatchNorm\/Relu6:0",
      "beta" : 0
    },
    {
      "mode" : 0,
      "weights" : {

      },
      "top" : "Convolutional_Pose_Machine\/stage_4_mv2\/inverted_bottleneck_stage_4_mv2_3\/stage_4_mv2_3_up_pointwise\/Relu:0",
      "type" : "activation",
      "name" : "Convolutional_Pose_Machine\/stage_4_mv2\/inverted_bottleneck_stage_4_mv2_3\/stage_4_mv2_3_up_pointwise\/Relu:0",
      "bottom" : "Convolutional_Pose_Machine\/stage_4_mv2\/inverted_bottleneck_stage_4_mv2_3\/stage_4_mv2_3_up_pointwise\/BatchNorm\/Relu6:0"
    },
    {
      "pad_r" : 0,
      "fused_relu" : 1,
      "fused_tanh" : 0,
      "pad_fill_mode" : 0,
      "pad_b" : 0,
      "pad_l" : 0,
      "top" : "Convolutional_Pose_Machine\/stage_4_mv2\/inverted_bottleneck_stage_4_mv2_3\/stage_4_mv2_3_depthwise\/Relu:0",
      "blob_weights" : 417,
      "K" : 72,
      "name" : "Convolutional_Pose_Machine\/stage_4_mv2\/inverted_bottleneck_stage_4_mv2_3\/stage_4_mv2_3_depthwise\/depthwise:0",
      "has_batch_norm" : 0,
      "type" : "convolution",
      "n_groups" : 72,
      "pad_t" : 0,
      "has_biases" : 0,
      "C" : 72,
      "bottom" : "Convolutional_Pose_Machine\/stage_4_mv2\/inverted_bottleneck_stage_4_mv2_3\/stage_4_mv2_3_up_pointwise\/Relu:0",
      "weights" : {

      },
      "pad_mode" : 1,
      "Nx" : 7,
      "pad_value" : 0,
      "Ny" : 7,
      "n_parallel" : 1
    },
    {
      "pad_r" : 0,
      "fused_relu" : 1,
      "fused_tanh" : 0,
      "pad_fill_mode" : 0,
      "pad_b" : 0,
      "pad_l" : 0,
      "top" : "relu_Convolutional_Pose_Machine\/stage_4_mv2\/inverted_bottleneck_stage_4_mv2_3\/stage_4_mv2_3_pointwise\/BatchNorm\/Relu6:0",
      "blob_weights" : 421,
      "K" : 72,
      "blob_biases" : 419,
      "name" : "Convolutional_Pose_Machine\/stage_4_mv2\/inverted_bottleneck_stage_4_mv2_3\/stage_4_mv2_3_pointwise\/Conv2D:0",
      "has_batch_norm" : 0,
      "type" : "convolution",
      "n_groups" : 1,
      "pad_t" : 0,
      "has_biases" : 1,
      "C" : 24,
      "bottom" : "Convolutional_Pose_Machine\/stage_4_mv2\/inverted_bottleneck_stage_4_mv2_3\/stage_4_mv2_3_depthwise\/Relu:0",
      "weights" : {

      },
      "pad_mode" : 1,
      "Nx" : 1,
      "pad_value" : 0,
      "Ny" : 1,
      "n_parallel" : 1
    },
    {
      "alpha" : -1,
      "bottom" : "relu_Convolutional_Pose_Machine\/stage_4_mv2\/inverted_bottleneck_stage_4_mv2_3\/stage_4_mv2_3_pointwise\/BatchNorm\/Relu6:0",
      "weights" : {

      },
      "mode" : 6,
      "top" : "relu_Convolutional_Pose_Machine\/stage_4_mv2\/inverted_bottleneck_stage_4_mv2_3\/stage_4_mv2_3_pointwise\/BatchNorm\/Relu6:0_neg",
      "type" : "activation",
      "name" : "relu_Convolutional_Pose_Machine\/stage_4_mv2\/inverted_bottleneck_stage_4_mv2_3\/stage_4_mv2_3_pointwise\/BatchNorm\/Relu6:0_neg",
      "beta" : 0
    },
    {
      "alpha" : -6,
      "bottom" : "relu_Convolutional_Pose_Machine\/stage_4_mv2\/inverted_bottleneck_stage_4_mv2_3\/stage_4_mv2_3_pointwise\/BatchNorm\/Relu6:0_neg",
      "operation" : 25,
      "weights" : {

      },
      "fused_relu" : 0,
      "top" : "relu_Convolutional_Pose_Machine\/stage_4_mv2\/inverted_bottleneck_stage_4_mv2_3\/stage_4_mv2_3_pointwise\/BatchNorm\/Relu6:0_clip",
      "type" : "elementwise",
      "name" : "relu_Convolutional_Pose_Machine\/stage_4_mv2\/inverted_bottleneck_stage_4_mv2_3\/stage_4_mv2_3_pointwise\/BatchNorm\/Relu6:0_clip",
      "beta" : 0
    },
    {
      "alpha" : -1,
      "bottom" : "relu_Convolutional_Pose_Machine\/stage_4_mv2\/inverted_bottleneck_stage_4_mv2_3\/stage_4_mv2_3_pointwise\/BatchNorm\/Relu6:0_clip",
      "weights" : {

      },
      "mode" : 6,
      "top" : "Convolutional_Pose_Machine\/stage_4_mv2\/inverted_bottleneck_stage_4_mv2_3\/stage_4_mv2_3_pointwise\/BatchNorm\/Relu6:0",
      "type" : "activation",
      "name" : "Convolutional_Pose_Machine\/stage_4_mv2\/inverted_bottleneck_stage_4_mv2_3\/stage_4_mv2_3_pointwise\/BatchNorm\/Relu6:0",
      "beta" : 0
    },
    {
      "alpha" : 1,
      "bottom" : "Convolutional_Pose_Machine\/stage_4_mv2\/inverted_bottleneck_stage_4_mv2_2\/Add:0,Convolutional_Pose_Machine\/stage_4_mv2\/inverted_bottleneck_stage_4_mv2_3\/stage_4_mv2_3_pointwise\/BatchNorm\/Relu6:0",
      "operation" : 0,
      "weights" : {

      },
      "fused_relu" : 0,
      "top" : "Convolutional_Pose_Machine\/stage_4_mv2\/inverted_bottleneck_stage_4_mv2_3\/Add:0",
      "type" : "elementwise",
      "name" : "Convolutional_Pose_Machine\/stage_4_mv2\/inverted_bottleneck_stage_4_mv2_3\/Add:0",
      "beta" : 0
    },
    {
      "pad_r" : 0,
      "fused_relu" : 1,
      "fused_tanh" : 0,
      "pad_fill_mode" : 0,
      "pad_b" : 0,
      "pad_l" : 0,
      "top" : "Convolutional_Pose_Machine\/stage_4_mv1\/stage_4_mv1_1_depthwise\/Relu:0",
      "blob_weights" : 423,
      "K" : 24,
      "name" : "Convolutional_Pose_Machine\/stage_4_mv1\/stage_4_mv1_1_depthwise\/depthwise:0",
      "has_batch_norm" : 0,
      "type" : "convolution",
      "n_groups" : 24,
      "pad_t" : 0,
      "has_biases" : 0,
      "C" : 24,
      "bottom" : "Convolutional_Pose_Machine\/stage_4_mv2\/inverted_bottleneck_stage_4_mv2_3\/Add:0",
      "weights" : {

      },
      "pad_mode" : 1,
      "Nx" : 1,
      "pad_value" : 0,
      "Ny" : 1,
      "n_parallel" : 1
    },
    {
      "pad_r" : 0,
      "fused_relu" : 1,
      "fused_tanh" : 0,
      "pad_fill_mode" : 0,
      "pad_b" : 0,
      "pad_l" : 0,
      "top" : "relu_Convolutional_Pose_Machine\/stage_4_mv1\/stage_4_mv1_1_pointwise\/BatchNorm\/Relu6:0",
      "blob_weights" : 427,
      "K" : 24,
      "blob_biases" : 425,
      "name" : "Convolutional_Pose_Machine\/stage_4_mv1\/stage_4_mv1_1_pointwise\/Conv2D:0",
      "has_batch_norm" : 0,
      "type" : "convolution",
      "n_groups" : 1,
      "pad_t" : 0,
      "has_biases" : 1,
      "C" : 64,
      "bottom" : "Convolutional_Pose_Machine\/stage_4_mv1\/stage_4_mv1_1_depthwise\/Relu:0",
      "weights" : {

      },
      "pad_mode" : 1,
      "Nx" : 1,
      "pad_value" : 0,
      "Ny" : 1,
      "n_parallel" : 1
    },
    {
      "alpha" : -1,
      "bottom" : "relu_Convolutional_Pose_Machine\/stage_4_mv1\/stage_4_mv1_1_pointwise\/BatchNorm\/Relu6:0",
      "weights" : {

      },
      "mode" : 6,
      "top" : "relu_Convolutional_Pose_Machine\/stage_4_mv1\/stage_4_mv1_1_pointwise\/BatchNorm\/Relu6:0_neg",
      "type" : "activation",
      "name" : "relu_Convolutional_Pose_Machine\/stage_4_mv1\/stage_4_mv1_1_pointwise\/BatchNorm\/Relu6:0_neg",
      "beta" : 0
    },
    {
      "alpha" : -6,
      "bottom" : "relu_Convolutional_Pose_Machine\/stage_4_mv1\/stage_4_mv1_1_pointwise\/BatchNorm\/Relu6:0_neg",
      "operation" : 25,
      "weights" : {

      },
      "fused_relu" : 0,
      "top" : "relu_Convolutional_Pose_Machine\/stage_4_mv1\/stage_4_mv1_1_pointwise\/BatchNorm\/Relu6:0_clip",
      "type" : "elementwise",
      "name" : "relu_Convolutional_Pose_Machine\/stage_4_mv1\/stage_4_mv1_1_pointwise\/BatchNorm\/Relu6:0_clip",
      "beta" : 0
    },
    {
      "alpha" : -1,
      "bottom" : "relu_Convolutional_Pose_Machine\/stage_4_mv1\/stage_4_mv1_1_pointwise\/BatchNorm\/Relu6:0_clip",
      "weights" : {

      },
      "mode" : 6,
      "top" : "Convolutional_Pose_Machine\/stage_4_mv1\/stage_4_mv1_1_pointwise\/BatchNorm\/Relu6:0",
      "type" : "activation",
      "name" : "Convolutional_Pose_Machine\/stage_4_mv1\/stage_4_mv1_1_pointwise\/BatchNorm\/Relu6:0",
      "beta" : 0
    },
    {
      "mode" : 0,
      "weights" : {

      },
      "top" : "Convolutional_Pose_Machine\/stage_4_mv1\/stage_4_mv1_1_pointwise\/Relu:0",
      "type" : "activation",
      "name" : "Convolutional_Pose_Machine\/stage_4_mv1\/stage_4_mv1_1_pointwise\/Relu:0",
      "bottom" : "Convolutional_Pose_Machine\/stage_4_mv1\/stage_4_mv1_1_pointwise\/BatchNorm\/Relu6:0"
    },
    {
      "pad_r" : 0,
      "fused_relu" : 1,
      "fused_tanh" : 0,
      "pad_fill_mode" : 0,
      "pad_b" : 0,
      "pad_l" : 0,
      "top" : "Convolutional_Pose_Machine\/stage_4_mv1\/stage_4_mv1_2_depthwise\/Relu:0",
      "blob_weights" : 429,
      "K" : 64,
      "name" : "Convolutional_Pose_Machine\/stage_4_mv1\/stage_4_mv1_2_depthwise\/depthwise:0",
      "has_batch_norm" : 0,
      "type" : "convolution",
      "n_groups" : 64,
      "pad_t" : 0,
      "has_biases" : 0,
      "C" : 64,
      "bottom" : "Convolutional_Pose_Machine\/stage_4_mv1\/stage_4_mv1_1_pointwise\/Relu:0",
      "weights" : {

      },
      "pad_mode" : 1,
      "Nx" : 1,
      "pad_value" : 0,
      "Ny" : 1,
      "n_parallel" : 1
    },
    {
      "pad_r" : 0,
      "fused_relu" : 1,
      "fused_tanh" : 0,
      "pad_fill_mode" : 0,
      "pad_b" : 0,
      "pad_l" : 0,
      "top" : "relu_Convolutional_Pose_Machine\/stage_4_mv1\/stage_4_mv1_2_pointwise\/BatchNorm\/Relu6:0",
      "blob_weights" : 433,
      "K" : 64,
      "blob_biases" : 431,
      "name" : "Convolutional_Pose_Machine\/stage_4_mv1\/stage_4_mv1_2_pointwise\/Conv2D:0",
      "has_batch_norm" : 0,
      "type" : "convolution",
      "n_groups" : 1,
      "pad_t" : 0,
      "has_biases" : 1,
      "C" : 14,
      "bottom" : "Convolutional_Pose_Machine\/stage_4_mv1\/stage_4_mv1_2_depthwise\/Relu:0",
      "weights" : {

      },
      "pad_mode" : 1,
      "Nx" : 1,
      "pad_value" : 0,
      "Ny" : 1,
      "n_parallel" : 1
    },
    {
      "alpha" : -1,
      "bottom" : "relu_Convolutional_Pose_Machine\/stage_4_mv1\/stage_4_mv1_2_pointwise\/BatchNorm\/Relu6:0",
      "weights" : {

      },
      "mode" : 6,
      "top" : "relu_Convolutional_Pose_Machine\/stage_4_mv1\/stage_4_mv1_2_pointwise\/BatchNorm\/Relu6:0_neg",
      "type" : "activation",
      "name" : "relu_Convolutional_Pose_Machine\/stage_4_mv1\/stage_4_mv1_2_pointwise\/BatchNorm\/Relu6:0_neg",
      "beta" : 0
    },
    {
      "alpha" : -6,
      "bottom" : "relu_Convolutional_Pose_Machine\/stage_4_mv1\/stage_4_mv1_2_pointwise\/BatchNorm\/Relu6:0_neg",
      "operation" : 25,
      "weights" : {

      },
      "fused_relu" : 0,
      "top" : "relu_Convolutional_Pose_Machine\/stage_4_mv1\/stage_4_mv1_2_pointwise\/BatchNorm\/Relu6:0_clip",
      "type" : "elementwise",
      "name" : "relu_Convolutional_Pose_Machine\/stage_4_mv1\/stage_4_mv1_2_pointwise\/BatchNorm\/Relu6:0_clip",
      "beta" : 0
    },
    {
      "alpha" : -1,
      "bottom" : "relu_Convolutional_Pose_Machine\/stage_4_mv1\/stage_4_mv1_2_pointwise\/BatchNorm\/Relu6:0_clip",
      "weights" : {

      },
      "mode" : 6,
      "top" : "Convolutional_Pose_Machine\/stage_4_mv1\/stage_4_mv1_2_pointwise\/BatchNorm\/Relu6:0",
      "type" : "activation",
      "name" : "Convolutional_Pose_Machine\/stage_4_mv1\/stage_4_mv1_2_pointwise\/BatchNorm\/Relu6:0",
      "beta" : 0
    },
    {
      "mode" : 0,
      "weights" : {

      },
      "top" : "Convolutional_Pose_Machine\/stage_4_mv1\/stage_4_mv1_2_pointwise\/Relu:0",
      "type" : "activation",
      "name" : "Convolutional_Pose_Machine\/stage_4_mv1\/stage_4_mv1_2_pointwise\/Relu:0",
      "bottom" : "Convolutional_Pose_Machine\/stage_4_mv1\/stage_4_mv1_2_pointwise\/BatchNorm\/Relu6:0"
    },
    {
      "weights" : {

      },
      "top" : "Convolutional_Pose_Machine\/concat_4:0",
      "type" : "concat",
      "name" : "Convolutional_Pose_Machine\/concat_4:0",
      "bottom" : "MobilenetV2\/concat:0,Convolutional_Pose_Machine\/stage_4_mv1\/stage_4_mv1_2_pointwise\/Relu:0"
    },
    {
      "pad_r" : 0,
      "fused_relu" : 1,
      "fused_tanh" : 0,
      "pad_fill_mode" : 0,
      "pad_b" : 0,
      "pad_l" : 0,
      "top" : "relu_Convolutional_Pose_Machine\/stage_5_mv2\/inverted_bottleneck_stage_5_mv2_1\/stage_5_mv2_1_up_pointwise\/BatchNorm\/Relu6:0",
      "blob_weights" : 437,
      "K" : 130,
      "blob_biases" : 435,
      "name" : "Convolutional_Pose_Machine\/stage_5_mv2\/inverted_bottleneck_stage_5_mv2_1\/stage_5_mv2_1_up_pointwise\/Conv2D:0",
      "has_batch_norm" : 0,
      "type" : "convolution",
      "n_groups" : 1,
      "pad_t" : 0,
      "has_biases" : 1,
      "C" : 260,
      "bottom" : "Convolutional_Pose_Machine\/concat_4:0",
      "weights" : {

      },
      "pad_mode" : 1,
      "Nx" : 1,
      "pad_value" : 0,
      "Ny" : 1,
      "n_parallel" : 1
    },
    {
      "alpha" : -1,
      "bottom" : "relu_Convolutional_Pose_Machine\/stage_5_mv2\/inverted_bottleneck_stage_5_mv2_1\/stage_5_mv2_1_up_pointwise\/BatchNorm\/Relu6:0",
      "weights" : {

      },
      "mode" : 6,
      "top" : "relu_Convolutional_Pose_Machine\/stage_5_mv2\/inverted_bottleneck_stage_5_mv2_1\/stage_5_mv2_1_up_pointwise\/BatchNorm\/Relu6:0_neg",
      "type" : "activation",
      "name" : "relu_Convolutional_Pose_Machine\/stage_5_mv2\/inverted_bottleneck_stage_5_mv2_1\/stage_5_mv2_1_up_pointwise\/BatchNorm\/Relu6:0_neg",
      "beta" : 0
    },
    {
      "alpha" : -6,
      "bottom" : "relu_Convolutional_Pose_Machine\/stage_5_mv2\/inverted_bottleneck_stage_5_mv2_1\/stage_5_mv2_1_up_pointwise\/BatchNorm\/Relu6:0_neg",
      "operation" : 25,
      "weights" : {

      },
      "fused_relu" : 0,
      "top" : "relu_Convolutional_Pose_Machine\/stage_5_mv2\/inverted_bottleneck_stage_5_mv2_1\/stage_5_mv2_1_up_pointwise\/BatchNorm\/Relu6:0_clip",
      "type" : "elementwise",
      "name" : "relu_Convolutional_Pose_Machine\/stage_5_mv2\/inverted_bottleneck_stage_5_mv2_1\/stage_5_mv2_1_up_pointwise\/BatchNorm\/Relu6:0_clip",
      "beta" : 0
    },
    {
      "alpha" : -1,
      "bottom" : "relu_Convolutional_Pose_Machine\/stage_5_mv2\/inverted_bottleneck_stage_5_mv2_1\/stage_5_mv2_1_up_pointwise\/BatchNorm\/Relu6:0_clip",
      "weights" : {

      },
      "mode" : 6,
      "top" : "Convolutional_Pose_Machine\/stage_5_mv2\/inverted_bottleneck_stage_5_mv2_1\/stage_5_mv2_1_up_pointwise\/BatchNorm\/Relu6:0",
      "type" : "activation",
      "name" : "Convolutional_Pose_Machine\/stage_5_mv2\/inverted_bottleneck_stage_5_mv2_1\/stage_5_mv2_1_up_pointwise\/BatchNorm\/Relu6:0",
      "beta" : 0
    },
    {
      "mode" : 0,
      "weights" : {

      },
      "top" : "Convolutional_Pose_Machine\/stage_5_mv2\/inverted_bottleneck_stage_5_mv2_1\/stage_5_mv2_1_up_pointwise\/Relu:0",
      "type" : "activation",
      "name" : "Convolutional_Pose_Machine\/stage_5_mv2\/inverted_bottleneck_stage_5_mv2_1\/stage_5_mv2_1_up_pointwise\/Relu:0",
      "bottom" : "Convolutional_Pose_Machine\/stage_5_mv2\/inverted_bottleneck_stage_5_mv2_1\/stage_5_mv2_1_up_pointwise\/BatchNorm\/Relu6:0"
    },
    {
      "pad_r" : 0,
      "fused_relu" : 1,
      "fused_tanh" : 0,
      "pad_fill_mode" : 0,
      "pad_b" : 0,
      "pad_l" : 0,
      "top" : "Convolutional_Pose_Machine\/stage_5_mv2\/inverted_bottleneck_stage_5_mv2_1\/stage_5_mv2_1_depthwise\/Relu:0",
      "blob_weights" : 439,
      "K" : 260,
      "name" : "Convolutional_Pose_Machine\/stage_5_mv2\/inverted_bottleneck_stage_5_mv2_1\/stage_5_mv2_1_depthwise\/depthwise:0",
      "has_batch_norm" : 0,
      "type" : "convolution",
      "n_groups" : 260,
      "pad_t" : 0,
      "has_biases" : 0,
      "C" : 260,
      "bottom" : "Convolutional_Pose_Machine\/stage_5_mv2\/inverted_bottleneck_stage_5_mv2_1\/stage_5_mv2_1_up_pointwise\/Relu:0",
      "weights" : {

      },
      "pad_mode" : 1,
      "Nx" : 7,
      "pad_value" : 0,
      "Ny" : 7,
      "n_parallel" : 1
    },
    {
      "pad_r" : 0,
      "fused_relu" : 1,
      "fused_tanh" : 0,
      "pad_fill_mode" : 0,
      "pad_b" : 0,
      "pad_l" : 0,
      "top" : "relu_Convolutional_Pose_Machine\/stage_5_mv2\/inverted_bottleneck_stage_5_mv2_1\/stage_5_mv2_1_pointwise\/BatchNorm\/Relu6:0",
      "blob_weights" : 443,
      "K" : 260,
      "blob_biases" : 441,
      "name" : "Convolutional_Pose_Machine\/stage_5_mv2\/inverted_bottleneck_stage_5_mv2_1\/stage_5_mv2_1_pointwise\/Conv2D:0",
      "has_batch_norm" : 0,
      "type" : "convolution",
      "n_groups" : 1,
      "pad_t" : 0,
      "has_biases" : 1,
      "C" : 24,
      "bottom" : "Convolutional_Pose_Machine\/stage_5_mv2\/inverted_bottleneck_stage_5_mv2_1\/stage_5_mv2_1_depthwise\/Relu:0",
      "weights" : {

      },
      "pad_mode" : 1,
      "Nx" : 1,
      "pad_value" : 0,
      "Ny" : 1,
      "n_parallel" : 1
    },
    {
      "alpha" : -1,
      "bottom" : "relu_Convolutional_Pose_Machine\/stage_5_mv2\/inverted_bottleneck_stage_5_mv2_1\/stage_5_mv2_1_pointwise\/BatchNorm\/Relu6:0",
      "weights" : {

      },
      "mode" : 6,
      "top" : "relu_Convolutional_Pose_Machine\/stage_5_mv2\/inverted_bottleneck_stage_5_mv2_1\/stage_5_mv2_1_pointwise\/BatchNorm\/Relu6:0_neg",
      "type" : "activation",
      "name" : "relu_Convolutional_Pose_Machine\/stage_5_mv2\/inverted_bottleneck_stage_5_mv2_1\/stage_5_mv2_1_pointwise\/BatchNorm\/Relu6:0_neg",
      "beta" : 0
    },
    {
      "alpha" : -6,
      "bottom" : "relu_Convolutional_Pose_Machine\/stage_5_mv2\/inverted_bottleneck_stage_5_mv2_1\/stage_5_mv2_1_pointwise\/BatchNorm\/Relu6:0_neg",
      "operation" : 25,
      "weights" : {

      },
      "fused_relu" : 0,
      "top" : "relu_Convolutional_Pose_Machine\/stage_5_mv2\/inverted_bottleneck_stage_5_mv2_1\/stage_5_mv2_1_pointwise\/BatchNorm\/Relu6:0_clip",
      "type" : "elementwise",
      "name" : "relu_Convolutional_Pose_Machine\/stage_5_mv2\/inverted_bottleneck_stage_5_mv2_1\/stage_5_mv2_1_pointwise\/BatchNorm\/Relu6:0_clip",
      "beta" : 0
    },
    {
      "alpha" : -1,
      "bottom" : "relu_Convolutional_Pose_Machine\/stage_5_mv2\/inverted_bottleneck_stage_5_mv2_1\/stage_5_mv2_1_pointwise\/BatchNorm\/Relu6:0_clip",
      "weights" : {

      },
      "mode" : 6,
      "top" : "Convolutional_Pose_Machine\/stage_5_mv2\/inverted_bottleneck_stage_5_mv2_1\/stage_5_mv2_1_pointwise\/BatchNorm\/Relu6:0",
      "type" : "activation",
      "name" : "Convolutional_Pose_Machine\/stage_5_mv2\/inverted_bottleneck_stage_5_mv2_1\/stage_5_mv2_1_pointwise\/BatchNorm\/Relu6:0",
      "beta" : 0
    },
    {
      "pad_r" : 0,
      "fused_relu" : 1,
      "fused_tanh" : 0,
      "pad_fill_mode" : 0,
      "pad_b" : 0,
      "pad_l" : 0,
      "top" : "relu_Convolutional_Pose_Machine\/stage_5_mv2\/inverted_bottleneck_stage_5_mv2_2\/stage_5_mv2_2_up_pointwise\/BatchNorm\/Relu6:0",
      "blob_weights" : 447,
      "K" : 24,
      "blob_biases" : 445,
      "name" : "Convolutional_Pose_Machine\/stage_5_mv2\/inverted_bottleneck_stage_5_mv2_2\/stage_5_mv2_2_up_pointwise\/Conv2D:0",
      "has_batch_norm" : 0,
      "type" : "convolution",
      "n_groups" : 1,
      "pad_t" : 0,
      "has_biases" : 1,
      "C" : 72,
      "bottom" : "Convolutional_Pose_Machine\/stage_5_mv2\/inverted_bottleneck_stage_5_mv2_1\/stage_5_mv2_1_pointwise\/BatchNorm\/Relu6:0",
      "weights" : {

      },
      "pad_mode" : 1,
      "Nx" : 1,
      "pad_value" : 0,
      "Ny" : 1,
      "n_parallel" : 1
    },
    {
      "alpha" : -1,
      "bottom" : "relu_Convolutional_Pose_Machine\/stage_5_mv2\/inverted_bottleneck_stage_5_mv2_2\/stage_5_mv2_2_up_pointwise\/BatchNorm\/Relu6:0",
      "weights" : {

      },
      "mode" : 6,
      "top" : "relu_Convolutional_Pose_Machine\/stage_5_mv2\/inverted_bottleneck_stage_5_mv2_2\/stage_5_mv2_2_up_pointwise\/BatchNorm\/Relu6:0_neg",
      "type" : "activation",
      "name" : "relu_Convolutional_Pose_Machine\/stage_5_mv2\/inverted_bottleneck_stage_5_mv2_2\/stage_5_mv2_2_up_pointwise\/BatchNorm\/Relu6:0_neg",
      "beta" : 0
    },
    {
      "alpha" : -6,
      "bottom" : "relu_Convolutional_Pose_Machine\/stage_5_mv2\/inverted_bottleneck_stage_5_mv2_2\/stage_5_mv2_2_up_pointwise\/BatchNorm\/Relu6:0_neg",
      "operation" : 25,
      "weights" : {

      },
      "fused_relu" : 0,
      "top" : "relu_Convolutional_Pose_Machine\/stage_5_mv2\/inverted_bottleneck_stage_5_mv2_2\/stage_5_mv2_2_up_pointwise\/BatchNorm\/Relu6:0_clip",
      "type" : "elementwise",
      "name" : "relu_Convolutional_Pose_Machine\/stage_5_mv2\/inverted_bottleneck_stage_5_mv2_2\/stage_5_mv2_2_up_pointwise\/BatchNorm\/Relu6:0_clip",
      "beta" : 0
    },
    {
      "alpha" : -1,
      "bottom" : "relu_Convolutional_Pose_Machine\/stage_5_mv2\/inverted_bottleneck_stage_5_mv2_2\/stage_5_mv2_2_up_pointwise\/BatchNorm\/Relu6:0_clip",
      "weights" : {

      },
      "mode" : 6,
      "top" : "Convolutional_Pose_Machine\/stage_5_mv2\/inverted_bottleneck_stage_5_mv2_2\/stage_5_mv2_2_up_pointwise\/BatchNorm\/Relu6:0",
      "type" : "activation",
      "name" : "Convolutional_Pose_Machine\/stage_5_mv2\/inverted_bottleneck_stage_5_mv2_2\/stage_5_mv2_2_up_pointwise\/BatchNorm\/Relu6:0",
      "beta" : 0
    },
    {
      "mode" : 0,
      "weights" : {

      },
      "top" : "Convolutional_Pose_Machine\/stage_5_mv2\/inverted_bottleneck_stage_5_mv2_2\/stage_5_mv2_2_up_pointwise\/Relu:0",
      "type" : "activation",
      "name" : "Convolutional_Pose_Machine\/stage_5_mv2\/inverted_bottleneck_stage_5_mv2_2\/stage_5_mv2_2_up_pointwise\/Relu:0",
      "bottom" : "Convolutional_Pose_Machine\/stage_5_mv2\/inverted_bottleneck_stage_5_mv2_2\/stage_5_mv2_2_up_pointwise\/BatchNorm\/Relu6:0"
    },
    {
      "pad_r" : 0,
      "fused_relu" : 1,
      "fused_tanh" : 0,
      "pad_fill_mode" : 0,
      "pad_b" : 0,
      "pad_l" : 0,
      "top" : "Convolutional_Pose_Machine\/stage_5_mv2\/inverted_bottleneck_stage_5_mv2_2\/stage_5_mv2_2_depthwise\/Relu:0",
      "blob_weights" : 449,
      "K" : 72,
      "name" : "Convolutional_Pose_Machine\/stage_5_mv2\/inverted_bottleneck_stage_5_mv2_2\/stage_5_mv2_2_depthwise\/depthwise:0",
      "has_batch_norm" : 0,
      "type" : "convolution",
      "n_groups" : 72,
      "pad_t" : 0,
      "has_biases" : 0,
      "C" : 72,
      "bottom" : "Convolutional_Pose_Machine\/stage_5_mv2\/inverted_bottleneck_stage_5_mv2_2\/stage_5_mv2_2_up_pointwise\/Relu:0",
      "weights" : {

      },
      "pad_mode" : 1,
      "Nx" : 7,
      "pad_value" : 0,
      "Ny" : 7,
      "n_parallel" : 1
    },
    {
      "pad_r" : 0,
      "fused_relu" : 1,
      "fused_tanh" : 0,
      "pad_fill_mode" : 0,
      "pad_b" : 0,
      "pad_l" : 0,
      "top" : "relu_Convolutional_Pose_Machine\/stage_5_mv2\/inverted_bottleneck_stage_5_mv2_2\/stage_5_mv2_2_pointwise\/BatchNorm\/Relu6:0",
      "blob_weights" : 453,
      "K" : 72,
      "blob_biases" : 451,
      "name" : "Convolutional_Pose_Machine\/stage_5_mv2\/inverted_bottleneck_stage_5_mv2_2\/stage_5_mv2_2_pointwise\/Conv2D:0",
      "has_batch_norm" : 0,
      "type" : "convolution",
      "n_groups" : 1,
      "pad_t" : 0,
      "has_biases" : 1,
      "C" : 24,
      "bottom" : "Convolutional_Pose_Machine\/stage_5_mv2\/inverted_bottleneck_stage_5_mv2_2\/stage_5_mv2_2_depthwise\/Relu:0",
      "weights" : {

      },
      "pad_mode" : 1,
      "Nx" : 1,
      "pad_value" : 0,
      "Ny" : 1,
      "n_parallel" : 1
    },
    {
      "alpha" : -1,
      "bottom" : "relu_Convolutional_Pose_Machine\/stage_5_mv2\/inverted_bottleneck_stage_5_mv2_2\/stage_5_mv2_2_pointwise\/BatchNorm\/Relu6:0",
      "weights" : {

      },
      "mode" : 6,
      "top" : "relu_Convolutional_Pose_Machine\/stage_5_mv2\/inverted_bottleneck_stage_5_mv2_2\/stage_5_mv2_2_pointwise\/BatchNorm\/Relu6:0_neg",
      "type" : "activation",
      "name" : "relu_Convolutional_Pose_Machine\/stage_5_mv2\/inverted_bottleneck_stage_5_mv2_2\/stage_5_mv2_2_pointwise\/BatchNorm\/Relu6:0_neg",
      "beta" : 0
    },
    {
      "alpha" : -6,
      "bottom" : "relu_Convolutional_Pose_Machine\/stage_5_mv2\/inverted_bottleneck_stage_5_mv2_2\/stage_5_mv2_2_pointwise\/BatchNorm\/Relu6:0_neg",
      "operation" : 25,
      "weights" : {

      },
      "fused_relu" : 0,
      "top" : "relu_Convolutional_Pose_Machine\/stage_5_mv2\/inverted_bottleneck_stage_5_mv2_2\/stage_5_mv2_2_pointwise\/BatchNorm\/Relu6:0_clip",
      "type" : "elementwise",
      "name" : "relu_Convolutional_Pose_Machine\/stage_5_mv2\/inverted_bottleneck_stage_5_mv2_2\/stage_5_mv2_2_pointwise\/BatchNorm\/Relu6:0_clip",
      "beta" : 0
    },
    {
      "alpha" : -1,
      "bottom" : "relu_Convolutional_Pose_Machine\/stage_5_mv2\/inverted_bottleneck_stage_5_mv2_2\/stage_5_mv2_2_pointwise\/BatchNorm\/Relu6:0_clip",
      "weights" : {

      },
      "mode" : 6,
      "top" : "Convolutional_Pose_Machine\/stage_5_mv2\/inverted_bottleneck_stage_5_mv2_2\/stage_5_mv2_2_pointwise\/BatchNorm\/Relu6:0",
      "type" : "activation",
      "name" : "Convolutional_Pose_Machine\/stage_5_mv2\/inverted_bottleneck_stage_5_mv2_2\/stage_5_mv2_2_pointwise\/BatchNorm\/Relu6:0",
      "beta" : 0
    },
    {
      "alpha" : 1,
      "bottom" : "Convolutional_Pose_Machine\/stage_5_mv2\/inverted_bottleneck_stage_5_mv2_1\/stage_5_mv2_1_pointwise\/BatchNorm\/Relu6:0,Convolutional_Pose_Machine\/stage_5_mv2\/inverted_bottleneck_stage_5_mv2_2\/stage_5_mv2_2_pointwise\/BatchNorm\/Relu6:0",
      "operation" : 0,
      "weights" : {

      },
      "fused_relu" : 0,
      "top" : "Convolutional_Pose_Machine\/stage_5_mv2\/inverted_bottleneck_stage_5_mv2_2\/Add:0",
      "type" : "elementwise",
      "name" : "Convolutional_Pose_Machine\/stage_5_mv2\/inverted_bottleneck_stage_5_mv2_2\/Add:0",
      "beta" : 0
    },
    {
      "pad_r" : 0,
      "fused_relu" : 1,
      "fused_tanh" : 0,
      "pad_fill_mode" : 0,
      "pad_b" : 0,
      "pad_l" : 0,
      "top" : "relu_Convolutional_Pose_Machine\/stage_5_mv2\/inverted_bottleneck_stage_5_mv2_3\/stage_5_mv2_3_up_pointwise\/BatchNorm\/Relu6:0",
      "blob_weights" : 457,
      "K" : 24,
      "blob_biases" : 455,
      "name" : "Convolutional_Pose_Machine\/stage_5_mv2\/inverted_bottleneck_stage_5_mv2_3\/stage_5_mv2_3_up_pointwise\/Conv2D:0",
      "has_batch_norm" : 0,
      "type" : "convolution",
      "n_groups" : 1,
      "pad_t" : 0,
      "has_biases" : 1,
      "C" : 72,
      "bottom" : "Convolutional_Pose_Machine\/stage_5_mv2\/inverted_bottleneck_stage_5_mv2_2\/Add:0",
      "weights" : {

      },
      "pad_mode" : 1,
      "Nx" : 1,
      "pad_value" : 0,
      "Ny" : 1,
      "n_parallel" : 1
    },
    {
      "alpha" : -1,
      "bottom" : "relu_Convolutional_Pose_Machine\/stage_5_mv2\/inverted_bottleneck_stage_5_mv2_3\/stage_5_mv2_3_up_pointwise\/BatchNorm\/Relu6:0",
      "weights" : {

      },
      "mode" : 6,
      "top" : "relu_Convolutional_Pose_Machine\/stage_5_mv2\/inverted_bottleneck_stage_5_mv2_3\/stage_5_mv2_3_up_pointwise\/BatchNorm\/Relu6:0_neg",
      "type" : "activation",
      "name" : "relu_Convolutional_Pose_Machine\/stage_5_mv2\/inverted_bottleneck_stage_5_mv2_3\/stage_5_mv2_3_up_pointwise\/BatchNorm\/Relu6:0_neg",
      "beta" : 0
    },
    {
      "alpha" : -6,
      "bottom" : "relu_Convolutional_Pose_Machine\/stage_5_mv2\/inverted_bottleneck_stage_5_mv2_3\/stage_5_mv2_3_up_pointwise\/BatchNorm\/Relu6:0_neg",
      "operation" : 25,
      "weights" : {

      },
      "fused_relu" : 0,
      "top" : "relu_Convolutional_Pose_Machine\/stage_5_mv2\/inverted_bottleneck_stage_5_mv2_3\/stage_5_mv2_3_up_pointwise\/BatchNorm\/Relu6:0_clip",
      "type" : "elementwise",
      "name" : "relu_Convolutional_Pose_Machine\/stage_5_mv2\/inverted_bottleneck_stage_5_mv2_3\/stage_5_mv2_3_up_pointwise\/BatchNorm\/Relu6:0_clip",
      "beta" : 0
    },
    {
      "alpha" : -1,
      "bottom" : "relu_Convolutional_Pose_Machine\/stage_5_mv2\/inverted_bottleneck_stage_5_mv2_3\/stage_5_mv2_3_up_pointwise\/BatchNorm\/Relu6:0_clip",
      "weights" : {

      },
      "mode" : 6,
      "top" : "Convolutional_Pose_Machine\/stage_5_mv2\/inverted_bottleneck_stage_5_mv2_3\/stage_5_mv2_3_up_pointwise\/BatchNorm\/Relu6:0",
      "type" : "activation",
      "name" : "Convolutional_Pose_Machine\/stage_5_mv2\/inverted_bottleneck_stage_5_mv2_3\/stage_5_mv2_3_up_pointwise\/BatchNorm\/Relu6:0",
      "beta" : 0
    },
    {
      "mode" : 0,
      "weights" : {

      },
      "top" : "Convolutional_Pose_Machine\/stage_5_mv2\/inverted_bottleneck_stage_5_mv2_3\/stage_5_mv2_3_up_pointwise\/Relu:0",
      "type" : "activation",
      "name" : "Convolutional_Pose_Machine\/stage_5_mv2\/inverted_bottleneck_stage_5_mv2_3\/stage_5_mv2_3_up_pointwise\/Relu:0",
      "bottom" : "Convolutional_Pose_Machine\/stage_5_mv2\/inverted_bottleneck_stage_5_mv2_3\/stage_5_mv2_3_up_pointwise\/BatchNorm\/Relu6:0"
    },
    {
      "pad_r" : 0,
      "fused_relu" : 1,
      "fused_tanh" : 0,
      "pad_fill_mode" : 0,
      "pad_b" : 0,
      "pad_l" : 0,
      "top" : "Convolutional_Pose_Machine\/stage_5_mv2\/inverted_bottleneck_stage_5_mv2_3\/stage_5_mv2_3_depthwise\/Relu:0",
      "blob_weights" : 459,
      "K" : 72,
      "name" : "Convolutional_Pose_Machine\/stage_5_mv2\/inverted_bottleneck_stage_5_mv2_3\/stage_5_mv2_3_depthwise\/depthwise:0",
      "has_batch_norm" : 0,
      "type" : "convolution",
      "n_groups" : 72,
      "pad_t" : 0,
      "has_biases" : 0,
      "C" : 72,
      "bottom" : "Convolutional_Pose_Machine\/stage_5_mv2\/inverted_bottleneck_stage_5_mv2_3\/stage_5_mv2_3_up_pointwise\/Relu:0",
      "weights" : {

      },
      "pad_mode" : 1,
      "Nx" : 7,
      "pad_value" : 0,
      "Ny" : 7,
      "n_parallel" : 1
    },
    {
      "pad_r" : 0,
      "fused_relu" : 1,
      "fused_tanh" : 0,
      "pad_fill_mode" : 0,
      "pad_b" : 0,
      "pad_l" : 0,
      "top" : "relu_Convolutional_Pose_Machine\/stage_5_mv2\/inverted_bottleneck_stage_5_mv2_3\/stage_5_mv2_3_pointwise\/BatchNorm\/Relu6:0",
      "blob_weights" : 463,
      "K" : 72,
      "blob_biases" : 461,
      "name" : "Convolutional_Pose_Machine\/stage_5_mv2\/inverted_bottleneck_stage_5_mv2_3\/stage_5_mv2_3_pointwise\/Conv2D:0",
      "has_batch_norm" : 0,
      "type" : "convolution",
      "n_groups" : 1,
      "pad_t" : 0,
      "has_biases" : 1,
      "C" : 24,
      "bottom" : "Convolutional_Pose_Machine\/stage_5_mv2\/inverted_bottleneck_stage_5_mv2_3\/stage_5_mv2_3_depthwise\/Relu:0",
      "weights" : {

      },
      "pad_mode" : 1,
      "Nx" : 1,
      "pad_value" : 0,
      "Ny" : 1,
      "n_parallel" : 1
    },
    {
      "alpha" : -1,
      "bottom" : "relu_Convolutional_Pose_Machine\/stage_5_mv2\/inverted_bottleneck_stage_5_mv2_3\/stage_5_mv2_3_pointwise\/BatchNorm\/Relu6:0",
      "weights" : {

      },
      "mode" : 6,
      "top" : "relu_Convolutional_Pose_Machine\/stage_5_mv2\/inverted_bottleneck_stage_5_mv2_3\/stage_5_mv2_3_pointwise\/BatchNorm\/Relu6:0_neg",
      "type" : "activation",
      "name" : "relu_Convolutional_Pose_Machine\/stage_5_mv2\/inverted_bottleneck_stage_5_mv2_3\/stage_5_mv2_3_pointwise\/BatchNorm\/Relu6:0_neg",
      "beta" : 0
    },
    {
      "alpha" : -6,
      "bottom" : "relu_Convolutional_Pose_Machine\/stage_5_mv2\/inverted_bottleneck_stage_5_mv2_3\/stage_5_mv2_3_pointwise\/BatchNorm\/Relu6:0_neg",
      "operation" : 25,
      "weights" : {

      },
      "fused_relu" : 0,
      "top" : "relu_Convolutional_Pose_Machine\/stage_5_mv2\/inverted_bottleneck_stage_5_mv2_3\/stage_5_mv2_3_pointwise\/BatchNorm\/Relu6:0_clip",
      "type" : "elementwise",
      "name" : "relu_Convolutional_Pose_Machine\/stage_5_mv2\/inverted_bottleneck_stage_5_mv2_3\/stage_5_mv2_3_pointwise\/BatchNorm\/Relu6:0_clip",
      "beta" : 0
    },
    {
      "alpha" : -1,
      "bottom" : "relu_Convolutional_Pose_Machine\/stage_5_mv2\/inverted_bottleneck_stage_5_mv2_3\/stage_5_mv2_3_pointwise\/BatchNorm\/Relu6:0_clip",
      "weights" : {

      },
      "mode" : 6,
      "top" : "Convolutional_Pose_Machine\/stage_5_mv2\/inverted_bottleneck_stage_5_mv2_3\/stage_5_mv2_3_pointwise\/BatchNorm\/Relu6:0",
      "type" : "activation",
      "name" : "Convolutional_Pose_Machine\/stage_5_mv2\/inverted_bottleneck_stage_5_mv2_3\/stage_5_mv2_3_pointwise\/BatchNorm\/Relu6:0",
      "beta" : 0
    },
    {
      "alpha" : 1,
      "bottom" : "Convolutional_Pose_Machine\/stage_5_mv2\/inverted_bottleneck_stage_5_mv2_2\/Add:0,Convolutional_Pose_Machine\/stage_5_mv2\/inverted_bottleneck_stage_5_mv2_3\/stage_5_mv2_3_pointwise\/BatchNorm\/Relu6:0",
      "operation" : 0,
      "weights" : {

      },
      "fused_relu" : 0,
      "top" : "Convolutional_Pose_Machine\/stage_5_mv2\/inverted_bottleneck_stage_5_mv2_3\/Add:0",
      "type" : "elementwise",
      "name" : "Convolutional_Pose_Machine\/stage_5_mv2\/inverted_bottleneck_stage_5_mv2_3\/Add:0",
      "beta" : 0
    },
    {
      "pad_r" : 0,
      "fused_relu" : 1,
      "fused_tanh" : 0,
      "pad_fill_mode" : 0,
      "pad_b" : 0,
      "pad_l" : 0,
      "top" : "Convolutional_Pose_Machine\/stage_5_mv1\/stage_5_mv1_1_depthwise\/Relu:0",
      "blob_weights" : 465,
      "K" : 24,
      "name" : "Convolutional_Pose_Machine\/stage_5_mv1\/stage_5_mv1_1_depthwise\/depthwise:0",
      "has_batch_norm" : 0,
      "type" : "convolution",
      "n_groups" : 24,
      "pad_t" : 0,
      "has_biases" : 0,
      "C" : 24,
      "bottom" : "Convolutional_Pose_Machine\/stage_5_mv2\/inverted_bottleneck_stage_5_mv2_3\/Add:0",
      "weights" : {

      },
      "pad_mode" : 1,
      "Nx" : 1,
      "pad_value" : 0,
      "Ny" : 1,
      "n_parallel" : 1
    },
    {
      "pad_r" : 0,
      "fused_relu" : 1,
      "fused_tanh" : 0,
      "pad_fill_mode" : 0,
      "pad_b" : 0,
      "pad_l" : 0,
      "top" : "relu_Convolutional_Pose_Machine\/stage_5_mv1\/stage_5_mv1_1_pointwise\/BatchNorm\/Relu6:0",
      "blob_weights" : 469,
      "K" : 24,
      "blob_biases" : 467,
      "name" : "Convolutional_Pose_Machine\/stage_5_mv1\/stage_5_mv1_1_pointwise\/Conv2D:0",
      "has_batch_norm" : 0,
      "type" : "convolution",
      "n_groups" : 1,
      "pad_t" : 0,
      "has_biases" : 1,
      "C" : 64,
      "bottom" : "Convolutional_Pose_Machine\/stage_5_mv1\/stage_5_mv1_1_depthwise\/Relu:0",
      "weights" : {

      },
      "pad_mode" : 1,
      "Nx" : 1,
      "pad_value" : 0,
      "Ny" : 1,
      "n_parallel" : 1
    },
    {
      "alpha" : -1,
      "bottom" : "relu_Convolutional_Pose_Machine\/stage_5_mv1\/stage_5_mv1_1_pointwise\/BatchNorm\/Relu6:0",
      "weights" : {

      },
      "mode" : 6,
      "top" : "relu_Convolutional_Pose_Machine\/stage_5_mv1\/stage_5_mv1_1_pointwise\/BatchNorm\/Relu6:0_neg",
      "type" : "activation",
      "name" : "relu_Convolutional_Pose_Machine\/stage_5_mv1\/stage_5_mv1_1_pointwise\/BatchNorm\/Relu6:0_neg",
      "beta" : 0
    },
    {
      "alpha" : -6,
      "bottom" : "relu_Convolutional_Pose_Machine\/stage_5_mv1\/stage_5_mv1_1_pointwise\/BatchNorm\/Relu6:0_neg",
      "operation" : 25,
      "weights" : {

      },
      "fused_relu" : 0,
      "top" : "relu_Convolutional_Pose_Machine\/stage_5_mv1\/stage_5_mv1_1_pointwise\/BatchNorm\/Relu6:0_clip",
      "type" : "elementwise",
      "name" : "relu_Convolutional_Pose_Machine\/stage_5_mv1\/stage_5_mv1_1_pointwise\/BatchNorm\/Relu6:0_clip",
      "beta" : 0
    },
    {
      "alpha" : -1,
      "bottom" : "relu_Convolutional_Pose_Machine\/stage_5_mv1\/stage_5_mv1_1_pointwise\/BatchNorm\/Relu6:0_clip",
      "weights" : {

      },
      "mode" : 6,
      "top" : "Convolutional_Pose_Machine\/stage_5_mv1\/stage_5_mv1_1_pointwise\/BatchNorm\/Relu6:0",
      "type" : "activation",
      "name" : "Convolutional_Pose_Machine\/stage_5_mv1\/stage_5_mv1_1_pointwise\/BatchNorm\/Relu6:0",
      "beta" : 0
    },
    {
      "mode" : 0,
      "weights" : {

      },
      "top" : "Convolutional_Pose_Machine\/stage_5_mv1\/stage_5_mv1_1_pointwise\/Relu:0",
      "type" : "activation",
      "name" : "Convolutional_Pose_Machine\/stage_5_mv1\/stage_5_mv1_1_pointwise\/Relu:0",
      "bottom" : "Convolutional_Pose_Machine\/stage_5_mv1\/stage_5_mv1_1_pointwise\/BatchNorm\/Relu6:0"
    },
    {
      "pad_r" : 0,
      "fused_relu" : 1,
      "fused_tanh" : 0,
      "pad_fill_mode" : 0,
      "pad_b" : 0,
      "pad_l" : 0,
      "top" : "Convolutional_Pose_Machine\/stage_5_mv1\/stage_5_mv1_2_depthwise\/Relu:0",
      "blob_weights" : 471,
      "K" : 64,
      "name" : "Convolutional_Pose_Machine\/stage_5_mv1\/stage_5_mv1_2_depthwise\/depthwise:0",
      "has_batch_norm" : 0,
      "type" : "convolution",
      "n_groups" : 64,
      "pad_t" : 0,
      "has_biases" : 0,
      "C" : 64,
      "bottom" : "Convolutional_Pose_Machine\/stage_5_mv1\/stage_5_mv1_1_pointwise\/Relu:0",
      "weights" : {

      },
      "pad_mode" : 1,
      "Nx" : 1,
      "pad_value" : 0,
      "Ny" : 1,
      "n_parallel" : 1
    },
    {
      "pad_r" : 0,
      "fused_relu" : 1,
      "fused_tanh" : 0,
      "pad_fill_mode" : 0,
      "pad_b" : 0,
      "pad_l" : 0,
      "top" : "relu_Convolutional_Pose_Machine\/stage_5_mv1\/stage_5_mv1_2_pointwise\/BatchNorm\/Relu6:0",
      "blob_weights" : 475,
      "K" : 64,
      "blob_biases" : 473,
      "name" : "Convolutional_Pose_Machine\/stage_5_mv1\/stage_5_mv1_2_pointwise\/Conv2D:0",
      "has_batch_norm" : 0,
      "type" : "convolution",
      "n_groups" : 1,
      "pad_t" : 0,
      "has_biases" : 1,
      "C" : 14,
      "bottom" : "Convolutional_Pose_Machine\/stage_5_mv1\/stage_5_mv1_2_depthwise\/Relu:0",
      "weights" : {

      },
      "pad_mode" : 1,
      "Nx" : 1,
      "pad_value" : 0,
      "Ny" : 1,
      "n_parallel" : 1
    },
    {
      "alpha" : -1,
      "bottom" : "relu_Convolutional_Pose_Machine\/stage_5_mv1\/stage_5_mv1_2_pointwise\/BatchNorm\/Relu6:0",
      "weights" : {

      },
      "mode" : 6,
      "top" : "relu_Convolutional_Pose_Machine\/stage_5_mv1\/stage_5_mv1_2_pointwise\/BatchNorm\/Relu6:0_neg",
      "type" : "activation",
      "name" : "relu_Convolutional_Pose_Machine\/stage_5_mv1\/stage_5_mv1_2_pointwise\/BatchNorm\/Relu6:0_neg",
      "beta" : 0
    },
    {
      "alpha" : -6,
      "bottom" : "relu_Convolutional_Pose_Machine\/stage_5_mv1\/stage_5_mv1_2_pointwise\/BatchNorm\/Relu6:0_neg",
      "operation" : 25,
      "weights" : {

      },
      "fused_relu" : 0,
      "top" : "relu_Convolutional_Pose_Machine\/stage_5_mv1\/stage_5_mv1_2_pointwise\/BatchNorm\/Relu6:0_clip",
      "type" : "elementwise",
      "name" : "relu_Convolutional_Pose_Machine\/stage_5_mv1\/stage_5_mv1_2_pointwise\/BatchNorm\/Relu6:0_clip",
      "beta" : 0
    },
    {
      "alpha" : -1,
      "bottom" : "relu_Convolutional_Pose_Machine\/stage_5_mv1\/stage_5_mv1_2_pointwise\/BatchNorm\/Relu6:0_clip",
      "weights" : {

      },
      "mode" : 6,
      "top" : "Convolutional_Pose_Machine\/stage_5_mv1\/stage_5_mv1_2_pointwise\/BatchNorm\/Relu6:0",
      "type" : "activation",
      "name" : "Convolutional_Pose_Machine\/stage_5_mv1\/stage_5_mv1_2_pointwise\/BatchNorm\/Relu6:0",
      "beta" : 0
    },
    {
      "mode" : 0,
      "weights" : {

      },
      "top" : "Convolutional_Pose_Machine\/stage_5_mv1\/stage_5_mv1_2_pointwise\/Relu:0",
      "type" : "activation",
      "name" : "Convolutional_Pose_Machine\/stage_5_mv1\/stage_5_mv1_2_pointwise\/Relu:0",
      "bottom" : "Convolutional_Pose_Machine\/stage_5_mv1\/stage_5_mv1_2_pointwise\/BatchNorm\/Relu6:0"
    },
    {
      "bottom" : "Convolutional_Pose_Machine\/stage_5_mv1\/stage_5_mv1_2_pointwise\/Relu:0",
      "scaling_factor_y" : 4,
      "weights" : {

      },
      "mode" : 1,
      "top" : "Convolutional_Pose_Machine__stage_5_out__0",
      "scaling_factor_x" : 4,
      "type" : "upsample",
      "name" : "Convolutional_Pose_Machine\/stage_5_out:0"
    }
  ]
}